resources/imgreco/inventory/ark_material.onnx (onnx, 999411 bytes, 8 tensors)

conv.0.bias f4 [10]
000000 66 5b 84 bd 9c b2 16 bc 8b b8 99 3d 1b 2b cc 3d
       -0.06462745 -0.009197857 0.07505902 0.09969159
000010 48 b0 a2 bc d1 71 5e 3d 63 02 8a bd 4b 9f 2f bc
       -0.019859448 0.054307763 -0.067387365 -0.010719131
000020 48 d1 e3 bd 20 24 e6 3c
       -0.111239016 0.028093398

conv.0.weight f4 [10, 3, 5, 5]
000000 bc e1 6e 3c b2 c2 0b bd 97 51 a6 3d c8 27 17 bd
       0.014580186 -0.034121223 0.08121031 -0.036903173
000010 7a a9 84 3d 5e 91 cd ba 45 5b ec bc 22 e1 e3 3c
       0.064776376 -0.0015683582 -0.028852114 0.027817313
000020 40 e0 ca 3d 8c 86 f8 bd 9a 6f 09 3d 37 4a c8 bc
       0.099060535 -0.12135038 0.033553697 -0.02444945
000030 24 ed d2 bc cc d4 c2 bb f8 91 2c 3d d8 7f d2 3d
       -0.025747843 -0.0059457775 0.042131394 0.102782905
000040 3f 3a 92 bd 00 12 fc 3a 6b 80 97 3d ed 98 e2 bc
       -0.07140016 0.0019231439 0.07397541 -0.027660811
000050 52 f4 05 bd 67 a9 9b bd 2c 7b 82 bd 3e 7d 72 bd
       -0.032703705 -0.0760067 -0.063711494 -0.05920147
000060 bf d3 91 3d ba 85 e6 bd 2d c8 a3 bd b5 ac f4 bc
       0.071204655 -0.11255975 -0.07997165 -0.02986751
000070 87 79 ca bd 42 86 0b 3c 10 21 9f bd 91 44 56 bd
       -0.09886461 0.008515896 -0.07769978 -0.052311484
000080 0b c8 57 bd 7b 60 64 3d 43 1b b8 3c a9 28 04 3d
       -0.05268101 0.055756073 0.022473937 0.03226534
000090 04 ab 3b bc 07 b2 22 bb 4d 66 06 3a 14 29 33 3d
       -0.0114543475 -0.002482535 0.00051269383 0.043740347
0000a0 3e 9f 32 3d 2f 98 ac bc 4b b1 a9 bd 06 04 0d 3d
       0.043608896 -0.02106866 -0.08285769 0.034427665
0000b0 32 11 b9 3d a4 58 9d 3d 34 93 01 be 77 e8 7a bc
       0.09036483 0.076829225 -0.1265381 -0.015314213
0000c0 5a 6b 74 3d dc 5e 8a bd a2 1e aa 3d eb 43 b2 bd
       0.05967269 -0.06756374 0.08306624 -0.087043606
0000d0 fa 83 8c 3d 72 36 e0 bd ba 0b 39 3d fa 06 ae bd
       0.0686111 -0.109478846 0.0451772 -0.084974244
0000e0 84 c0 1a bd 4b 6c 41 bd af 8a 3c bd ca c2 d1 3d
       -0.037781253 -0.047222417 -0.046030696 0.10242231
0000f0 a0 15 9a bc b8 a7 bf 3c 3a 8c 16 3d 3a 6a 11 3d
       -0.01880914 0.023395404 0.036754824 0.035501696
000100 dd 50 eb bd 69 7f 90 bc 72 1c f3 bd 13 d0 77 bd
       -0.11490033 -0.017638879 -0.1187066 -0.06050117
000110 7b cc 60 3d 18 1f 9b bc 0e 8f 7e 3d ef bc bc 3b
       0.054882508 -0.018935725 0.062148146 0.0057598273
000120 c4 b6 b4 3c a9 a1 bc 3d a1 fb d2 ba 1a d2 f4 3d
       0.022059806 0.09210522 -0.001609672 0.11954136
000130 15 b3 fc 3d 44 f8 2b bd 8a d1 49 3d 02 18 88 3d
       0.12338845 -0.04198481 0.049272098 0.06645204
000140 ce 44 10 bd c0 77 de 3c 28 4d 91 3d 5b 59 d4 bd
       -0.035221867 0.02715671 0.070947945 -0.10368606
000150 40 06 3d bd c8 c6 54 bd 1c 23 1d bd 17 fc b8 bd
       -0.04614854 -0.051947385 -0.03836356 -0.09032457
000160 6c f0 66 bc 72 55 ae bd e6 eb e4 bd 7d d1 e5 bd
       -0.014095407 -0.08512391 -0.111778066 -0.11221597
000170 34 e3 e1 bd cf f3 04 3d f9 92 92 bd 90 80 8e bd
       -0.11029664 0.032459076 -0.07156939 -0.06958115
000180 9e ee 8d 3d 88 00 04 bc a2 6f 1d bd 66 4b 1e 3d
       0.06930278 -0.008056767 -0.03843654 0.038646124
000190 b6 a0 01 3e a4 9a cb bc dc 2e 4c 3d c4 eb e7 3d
       0.12658963 -0.024854012 0.049849376 0.113242656
0001a0 b4 b5 34 bd 2e 12 6c bc 36 ac c9 3d 5e 3c 00 3d
       -0.044118598 -0.014408631 0.098473 0.03130757
0001b0 fd d4 97 bc 18 dd 5d bb 6a 61 47 3d df db 69 3c
       -0.018534178 -0.0033853706 0.048676886 0.014273613
0001c0 93 8f 73 bc 44 2c ec 3d 89 12 96 bd e4 51 e4 3d
       -0.014865774 0.115318805 -0.07327754 0.11148432
0001d0 2b 62 b6 3d 42 b3 c7 bc 7a 39 92 bc 9f 1c cd 3d
       0.08905443 -0.024377469 -0.017849673 0.10015225
0001e0 46 ed e2 bd d7 cf 1c 3d 12 a2 61 3d e4 d5 da bd
       -0.110804126 0.03828415 0.055086203 -0.10685328
0001f0 47 a8 1f 3d 05 eb e8 3d 92 eb 2b 3d b5 53 1b 3d
       0.03897884 0.113729514 0.041972704 0.037921626
000200 76 21 19 bd b3 31 d4 bc 51 aa 98 3d 4e d6 07 bd
       -0.037385426 -0.025902605 0.0745436 -0.03316336
000210 6a 9e a2 3c 1b 33 a3 bc e0 c1 58 3b 96 ef 59 bd
       0.019850928 -0.01992183 0.0033074543 -0.053207003
000220 f5 da 1d bd 15 87 12 bd 1e ce 7a 3b 12 82 84 3d
       -0.03853889 -0.035773356 0.0038269828 0.064701214
000230 fb f7 50 bc f1 53 0f bd a0 e5 85 bc 16 4a e6 bd
       -0.012754436 -0.034992162 -0.016344845 -0.112445995
000240 d4 6f 1d bd 49 77 77 bd c6 fc 16 bd c8 5a c2 3c
       -0.038436726 -0.060416494 -0.036862157 0.023724928
000250 c2 49 b2 3c a8 cb d6 bd 53 7d 26 bd 41 99 dd 3d
       0.021763686 -0.10488063 -0.040646862 0.108202465
000260 27 76 c6 bd 41 90 98 3c 14 d7 2c 3d 65 3f ef bd
       -0.096905045 0.018623473 0.042197302 -0.116820134
000270 9c 00 bf bd 0c 56 a2 3c a8 cc c5 bc ac b3 ca 3d
       -0.09326288 0.019816421 -0.02414544 0.09897551
000280 75 fd d3 3d 77 22 9d 3d bc 1e cf bd 1f 10 ba bd
       0.103510775 0.07672589 -0.10113284 -0.09085106
000290 8d 58 cc bd 74 3e 4d bd 5e 9b 01 3c 8c a2 5a 3d
       -0.09977827 -0.050108388 0.007910578 0.053377673
0002a0 41 13 a5 3d 40 57 95 3d 18 d8 b5 bc 3f 61 bd bd
       0.08060313 0.07292032 -0.022197768 -0.09247064
0002b0 4a ff c1 bd 59 93 ad 3d cc a6 d1 bd e0 7c 9c bd
       -0.09472521 0.0847537 -0.10236892 -0.076410055
0002c0 f3 81 95 bd ee 9a d4 3b 1b d8 a1 bd 47 3d ef 3d
       -0.073001765 0.0064881956 -0.07902547 0.116816096
0002d0 37 49 c9 bd 1c 95 7d bc 35 a6 ad bd c0 fe a6 bd
       -0.09828418 -0.015477445 -0.08478967 -0.081540585
0002e0 19 7c 5a 3c f0 78 d9 bd f3 be 84 bd 22 23 e0 3c
       0.013335251 -0.1061877 -0.06481733 0.027360503
0002f0 3b a0 88 3d 08 6d 33 3d de c1 97 bd da 72 98 3d
       0.066711865 0.043805152 -0.07410024 0.07443781
000300 2e 27 bf bc 26 54 ab 3b 67 84 a5 bd c4 54 6b bd
       -0.023334112 0.005228537 -0.08081894 -0.057453886
000310 e6 9a 69 3c b8 9c 09 bc 73 3c 8b 3d 85 9a 40 3d
       0.014258122 -0.008399181 0.06798639 0.04702236
000320 91 e2 a4 bd 87 72 99 3d 21 53 92 3d a4 f3 33 3d
       -0.080510266 0.074925475 0.07144762 0.043933526
000330 bf 98 ce 3d 50 0e 37 3d c7 51 b8 bc e4 64 ae bd
       0.10087728 0.044691384 -0.022499932 -0.08515337
000340 a7 87 f1 bc 64 62 b8 bd a0 50 4d bd 67 17 39 3d
       -0.02948363 -0.090031415 -0.050125718 0.045188334
000350 6f 38 1a 3d aa ba ec 3d 56 8e eb 3d 83 fd e2 3c
       0.037651476 0.11559041 0.11501758 0.027708774
000360 2d 83 1b 3d f1 0d c7 3c 9b 55 3a 3d 11 27 6a 3d
       0.037966896 0.02429864 0.045491796 0.057166163
000370 32 0d 88 bd 3e cf 8f 3d aa 53 9d 3d 86 0a 8a 3c
       -0.06643142 0.0702195 0.07681973 0.016850721
000380 3f e0 2b 3d b3 59 fa 3d fd 43 5a 3b 4a 4a 86 bd
       0.041961905 0.1222414 0.0033304684 -0.06557138
000390 1c ba 9c bc 59 26 ed 3d be 6f a2 bc 3c 20 4e 3d
       -0.019131713 0.1157958 -0.019828673 0.05032371
0003a0 e6 d1 a2 3d ee ff 1d 3d eb 6b 58 bd 1c 1d 87 3c
       0.07950191 0.03857415 -0.052837294 0.016493373
0003b0 d5 05 df 3d e8 e1 20 bd 5d 98 1d bd a9 54 9e 3a
       0.10889784 -0.03927794 -0.038475383 0.0012079674
0003c0 b2 53 04 3e 93 bd 79 bd ff 5c fe 3c bb b7 43 3c
       0.12922552 -0.060971808 0.031050203 0.01194566
0003d0 78 58 c0 3b ec e1 b2 bc d2 fe 74 bb c7 76 22 3d
       0.0058699213 -0.021836244 -0.003738333 0.039664056
0003e0 70 db 52 bd bf 10 4e 3d 96 1f 03 3c 90 86 d5 3c
       -0.051478803 0.05030894 0.008003136 0.026065141
0003f0 18 ca 8c bd d5 4a ae 3d aa 51 c5 3d 0b 8f 9f 3c
       -0.06874484 0.08510367 0.09634717 0.019477388

fc.0.bias f4 [320]
000000 fb 8c 53 bd b9 b4 b7 bc 3a 86 bc bb 6e 2d 91 3b
       -0.05164812 -0.022425042 -0.0057533057 0.0044304645
000010 bd c1 0f 3b 53 9f 92 bc bc 89 07 bb aa 58 0c 3d
       0.0021935545 -0.017898237 -0.0020681461 0.034264244
000020 55 4e 8a 3c 8d 03 04 3d d2 11 32 bc d0 ac 96 3c
       0.016883055 0.03222995 -0.0108685065 0.01839295
000030 29 76 11 bb 15 67 c2 bc 45 5b 4d 3c ae 71 9b bc
       -0.0022195673 -0.023730794 0.012533967 -0.018975105
000040 b6 2a f1 3c 04 33 87 bc a5 0f ef bc 99 54 28 bc
       0.029439311 -0.016503818 -0.029182265 -0.010274076
000050 31 5f e2 ba ba 08 15 bc 93 14 fe bb 51 90 8c 3b
       -0.0017270801 -0.009096319 -0.0077539175 0.004289665
000060 37 37 47 bc 92 83 b2 bc 73 f4 92 3c ec dd 8e ba
       -0.01215916 -0.021791253 0.017938828 -0.0010899878
000070 f7 78 2d bc da 0a 81 3c e0 89 98 bb ab f2 d0 bb
       -0.010587922 0.015752245 -0.004655108 -0.0063765845
000080 d4 55 2a 3c 88 83 3e 3d d6 f4 24 3d 68 9a 31 bc
       0.01039644 0.046512157 0.040272556 -0.010840036
000090 ad 1b f3 bc e1 65 81 bc 3c 6c 11 bd e9 66 ab bc
       -0.029676283 -0.01579565 -0.03550361 -0.020923095
0000a0 62 00 17 3d 4c 60 a3 b9 f3 ec 48 bd 37 ca 96 3c
       0.0368656 -0.0003116153 -0.049054097 0.01840697
0000b0 bf 01 92 bc 8c 4c 98 bc 16 7b 1f bd 86 eb 9a bc
       -0.017823098 -0.018591188 -0.038935743 -0.018911134
0000c0 3a 4e 1d bd 23 08 33 3c 02 78 cf bc a4 89 3b bb
       -0.03840468 0.010927233 -0.025325779 -0.0028615976
0000d0 9d 90 69 3c e7 52 97 bc c4 7c 38 bc e9 a6 d0 3c
       0.01425567 -0.018472148 -0.011260215 0.025470214
0000e0 59 ef a3 bc 4c 46 06 bd 59 8d ba bc b6 30 04 3c
       -0.02001159 -0.032781884 -0.022772478 0.008068254
0000f0 b6 59 02 bd b8 4e b0 bc d1 70 39 bc c6 bc 4a bd
       -0.031823836 -0.021521911 -0.011318401 -0.049496435
000100 03 43 f0 3c f9 aa 3f bc 57 5a ed bc 78 5d 8a bb
       0.029328829 -0.011698478 -0.028973741 -0.004222568
000110 da 4f f2 bc f0 2d 2c 3d 80 f3 9e bc 17 9d c3 3c
       -0.029579092 0.042035997 -0.01940322 0.023878617
000120 72 e2 6b bb 76 ac de bc af df c8 bc 30 99 ed bc
       -0.0035993126 -0.027181845 -0.024520723 -0.02900371
000130 87 4a c9 bc 35 0a a2 ba 5c da 9a bc d2 19 cb bc
       -0.02457167 -0.0012362661 -0.01890295 -0.024792586
000140 4b cc 0f bc d2 47 c0 3a 0d 0a 83 3c 8e a5 17 bd
       -0.008776735 0.0014669842 0.015996004 -0.03702312
000150 c8 a6 c5 3b 91 86 a5 bb a5 73 cb bc 74 ce 5f bc
       0.0060318448 -0.005051442 -0.024835417 -0.013660062
000160 86 36 0a 3d 80 b3 ef bb c6 42 e8 bc 83 f3 d7 3c
       0.033743404 -0.0073150992 -0.028352153 0.026361233
000170 67 08 95 3c c6 06 32 bd eb 4d 06 bc 45 c4 cf 3b
       0.018192483 -0.04346349 -0.008197288 0.006340536
000180 ab 0b a6 3a cf 47 84 3c 9e c0 b1 3c 55 f6 fa 3c
       0.0012668272 0.016147522 0.021698292 0.030635038
000190 96 27 16 3d 99 69 27 3d 83 70 ba 3c ba a8 c8 bc
       0.036658846 0.04087219 0.022758728 -0.024494518
0001a0 40 71 02 3c 0c 89 a3 bc c2 3c 13 bd ad 6c 6b 3c
       0.007961571 -0.01996281 -0.035946615 0.014369172
0001b0 f1 67 ba bb cc 2b a5 bc 77 05 ca bc 5a 51 b6 3a
       -0.0056886603 -0.020162486 -0.024660809 0.0013909743
0001c0 6b 36 db 3c 49 d2 6b 3c 81 f0 9a bc ac 24 8f bc
       0.026759347 0.014393398 -0.01891351 -0.017473541
0001d0 dd cf a6 3c e9 0a 67 bc 39 d7 ac bc a7 28 f4 bc
       0.020362789 -0.014101722 -0.02109872 -0.02980454
0001e0 84 b9 c8 bc 68 ac 5d 3c 15 b6 96 3c 96 60 fb bc
       -0.024502523 0.013529874 0.01839737 -0.030685704
0001f0 2a 8b ab 3b 5a a4 98 3b 3b 53 35 3d 31 74 1c 3c
       0.0052350955 0.004658264 0.044268828 0.009549187
000200 42 3e b5 3b 55 71 06 3d 84 c8 7b 3b d6 aa 71 3c
       0.0055311034 0.032822926 0.0038419077 0.014750203
000210 93 76 c2 bc 1d f8 d2 bc 91 80 b6 bc 39 60 12 bd
       -0.023738181 -0.025753075 -0.022278102 -0.035736296
000220 f1 64 46 3b 9a b1 f1 3b 88 d5 31 3d 28 95 38 bb
       0.0030272568 0.007375908 0.04341653 -0.0028165076
000230 92 5b ca 3b 0c 14 dd bc b4 b0 1d bd e8 c8 b7 3b
       0.006175467 -0.026987098 -0.038498595 0.0056086667
000240 bb a3 bf 3c 17 50 40 bc 23 1d 05 bd f3 c7 d1 bc
       0.023393502 -0.011737845 -0.03249849 -0.025608039
000250 d4 08 08 bc d7 7b 9e 3a c7 91 96 3b 50 8a e3 bc
       -0.008302886 0.001209135 0.0045950147 -0.027775913
000260 20 52 9f bc bc 6a aa ba 38 f0 07 3d 7f 62 a6 3c
       -0.01944834 -0.001300178 0.033188075 0.020310638
000270 33 78 aa bb 32 b1 01 bd c7 a5 d4 bc 76 90 a6 3a
       -0.005202317 -0.031663127 -0.025957955 0.0012707848
000280 40 a1 cc bc d5 33 cf 3c 1b 6b fe bc c6 68 76 3a
       -0.024979234 0.02529327 -0.031056931 0.0009399768
000290 89 aa 70 bc c9 1f 84 3c ef 52 79 3c c8 c3 28 ba
       -0.014689096 0.016128438 0.015217527 -0.0006437865
0002a0 1c af 3c 3a 3e 0b 52 3c b1 e7 f3 bb ed be be bc
       0.0007197724 0.012820063 -0.0074433913 -0.0232844
0002b0 b2 43 ca bc b4 20 3b 3c 43 2b 24 bd 30 04 ae 3c
       -0.024690483 0.011421371 -0.04008032 0.021242231
0002c0 53 ef b2 3c e5 6e 9b 3c d3 db fe bc b7 04 35 bd
       0.021842634 0.018973777 -0.03111068 -0.04419395
0002d0 da b1 24 bb 08 4d 12 3c 84 83 d1 3b 28 c6 8b bc
       -0.0025130422 0.0089294985 0.0063938517 -0.017062262
0002e0 6f 66 90 bc f5 1e f5 3c ec 86 ae bb dc f8 cb bc
       -0.01762697 0.029921988 -0.0053261425 -0.024898939
0002f0 16 26 29 bd 83 3c fb 3c f7 9c 95 bc 7a 68 88 3c
       -0.041296087 0.030668503 -0.018263323 0.01665138
000300 70 b8 2d bb a2 09 fc 3c 68 46 9e bc d8 1d 9e bc
       -0.0026507638 0.030766312 -0.019320682 -0.01930134
000310 5a f1 0c bd 6b 20 ba 3b 6e c7 30 3b aa 1f 14 bd
       -0.03440986 0.005680134 0.0026974338 -0.03616301
000320 59 10 81 bc e0 9e 09 3d 4c d6 77 bc ea 0d 95 3c
       -0.015754865 0.03359878 -0.015126776 0.018195111
000330 0f dd f8 bc 89 ae b0 bc a9 92 7d bc 0c 35 a5 3c
       -0.030378846 -0.0215676 -0.015476861 0.020166896
000340 b7 0c e3 3a f7 5d bf bc a5 96 f2 bc 03 48 93 3c
       0.0017322515 -0.023360236 -0.029612849 0.017978674
000350 e7 a7 02 3d 1b d9 05 3d ee 09 03 bd d4 5b 2f bd
       0.031898405 0.03267775 -0.03199189 -0.042812183
000360 37 a8 10 bd 61 9e 78 3c 8f a2 0e 3c a0 8c e4 bc
       -0.035316672 0.015174479 0.008705749 -0.027899086
000370 d6 37 80 3a f1 5e 10 bd 94 d3 2b 3d c9 5a 8d 3c
       0.0009782265 -0.035246793 0.041949823 0.017255204
000380 9c 74 01 bd 6a e7 02 3c 12 99 eb bc 9a db e5 bc
       -0.031605348 0.007989744 -0.028759513 -0.028058816
000390 7a 6d ab bc 14 e2 f2 3c 25 c1 16 bd b4 83 1a bc
       -0.020926226 0.029648818 -0.03680529 -0.009430815
0003a0 6b 18 1e bc c7 17 20 3d 1c 41 87 3b da 3f 94 bb
       -0.009649376 0.039085176 0.0041276347 -0.0045242133
0003b0 9f 09 1f 3d ba 59 95 bc 70 5a 74 3c a0 3c 9f 3c
       0.038827535 -0.018231262 0.01491414 0.019438088
0003c0 17 01 f2 bc 7c 29 a1 3c e3 1c c5 3c 45 ff 02 3d
       -0.029541535 0.019673102 0.024061626 0.031981725
0003d0 c6 de a9 bc 3c 1b f8 3c b4 e5 ac bc e6 ba 61 3c
       -0.02073611 0.030286424 -0.021105625 0.01377747
0003e0 3d bb a4 bc d8 46 32 bc 3f 7f 69 3c 48 2b 6f bc
       -0.020108813 -0.010881148 0.014251529 -0.014597721
0003f0 dd 78 6f 3c 0a a8 a9 3c 3d 91 01 bc f2 09 27 bd
       0.014616218 0.02071001 -0.007908163 -0.04078097

fc.0.weight f4 [320, 640]
000000 6c dd 5a bd 5e de 15 bb a0 04 88 bb ea a8 59 bc
       -0.05343382 -0.0022868137 -0.004150942 -0.013284901
000010 ad 38 15 bd e0 d7 e9 bc 3d 1e 4b bd 9c 73 f2 bb
       -0.036431003 -0.02854532 -0.049589384 -0.0073990356
000020 79 0a cb 3b 96 13 e4 3c 51 ba 40 3c 25 22 a3 3c
       0.006196317 0.02784137 0.011763171 0.019913742
000030 d8 f7 ef 3c 34 24 0a 3d 6a 55 2b bc f5 ec 16 3c
       0.029292986 0.033725932 -0.010457376 0.009211768
000040 56 62 a7 bc 9c 5b 98 bc 44 d7 4b 3c d0 c8 54 bc
       -0.020432632 -0.01859837 0.01244146 -0.012987331
000050 d8 f7 de bc 2c 4b c2 bc 78 c5 26 bd 09 48 43 bd
       -0.02721779 -0.023717485 -0.040715665 -0.04767612
000060 56 29 f9 3c 9d 20 bb bc 73 92 1b bd 49 3d bc 3c
       0.030415218 -0.0228427 -0.03798146 0.022978442
000070 1b 3e 1c bd 41 36 9f bb b3 4d 13 bd 1c 7b fa bc
       -0.038145166 -0.0048587625 -0.03596277 -0.030576281
000080 12 2f 35 3d ea a9 55 bd 62 4f da 3c 99 e4 2c 3d
       0.044234343 -0.052163996 0.02664918 0.042210195
000090 56 26 45 bc b1 17 11 3d a9 8e a6 bc 1e a9 17 bd
       -0.012033066 0.035422985 -0.020331698 -0.037026517
0000a0 43 c8 97 bc 41 21 6f bd d2 0b 64 3c 92 48 26 3d
       -0.01852811 -0.058381323 0.013918834 0.040596552
0000b0 62 b6 55 bc e5 db 69 3c db 36 6b bd 14 97 b4 bb
       -0.013043972 0.014273618 -0.05742536 -0.005511174
0000c0 66 75 01 bc 66 d9 b9 bb 84 64 2f 3d 1d bd 04 3d
       -0.007901525 -0.005671668 0.04282047 0.032406915
0000d0 11 a8 c7 3c 5c 94 14 bd 6b 0a 2e bd 1b 4b 7b bd
       0.024372132 -0.0362743 -0.042490404 -0.061350923
0000e0 bb c1 00 3c d9 bc 12 bd 48 29 d9 bb e0 a7 32 bc
       0.007858689 -0.03582463 -0.0066272356 -0.010904282
0000f0 36 cc 4f 3a 5d 91 8e bb 74 d9 4a bd ec 17 81 bb
       0.0007926853 -0.0043508247 -0.049523786 -0.0039396193
000100 70 1f 4a 3d 9d 46 84 bc 81 e5 84 bc 49 87 00 bb
       0.049346387 -0.016146952 -0.016222717 -0.0019611886
000110 b5 a5 38 3d fb a1 a1 3b 33 de 39 3d fb 85 1e 3d
       0.045079906 0.0049326397 0.04537792 0.038701992
000120 cd ab 55 3c 37 dc f7 bb a3 b4 a4 3c fd 04 62 3c
       0.013041449 -0.0075640935 0.020105666 0.013795135
000130 b3 27 f4 bc 5d 85 19 bc fd b2 d3 bc 0d 2e e3 bc
       -0.029804086 -0.009370175 -0.025842184 -0.02773192
000140 72 6b c0 3c 67 1d 83 bc a1 b2 47 bc 60 b2 81 bd
       0.023488734 -0.016005231 -0.012188585 -0.063328505
000150 62 2c 66 bd 6a d3 13 3b 1a 47 2e 3c 7f 46 9d 3b
       -0.05619467 0.0022556433 0.010637069 0.0047996636
000160 5f 77 04 bb de 6f 09 bd 9d 33 9a bc 95 5d 4d 3c
       -0.0020212752 -0.03355395 -0.01882344 0.012534519
000170 9f 96 3e 3c a9 2d e4 3c 77 6f 70 bc 6b c0 f2 bb
       0.011632591 0.027853804 -0.014675013 -0.007408192
000180 d2 1e e5 3c 4a 52 09 bd da 51 3e 3d a7 b1 fe 3b
       0.027968798 -0.033525743 0.04646478 0.0077726427
000190 ca 74 72 39 a1 e1 c8 bc cf b5 47 3d cb d5 83 bc
       0.00023122426 -0.02452165 0.04875737 -0.016093155
0001a0 19 84 08 3c fc 7e ab 3b e3 13 cb bc b8 e7 65 3c
       0.008332276 0.0052336436 -0.024789756 0.014032297
0001b0 32 66 b5 bc 7c 7e 7a bd 65 f5 85 3a 6c 7d a4 3c
       -0.022143457 -0.06115578 0.0010220228 0.020079337
0001c0 1f 71 c3 bc 62 fb d9 3c a9 9d 05 3a 67 55 10 bc
       -0.023857651 0.026609126 0.00050970406 -0.008809424
0001d0 ca 16 ba bc 3d fb 30 3d 3f 17 18 3c 0f 73 83 3c
       -0.022715945 0.04320835 0.009282886 0.016046075
0001e0 03 d1 89 3b 66 c0 37 bd 8c 19 d1 bb d1 b8 df b8
       0.0042058243 -0.04486122 -0.0063812193 -0.000106678934
0001f0 b6 5d 28 bb 14 08 b6 3c 81 dc dd 3c 2a 95 3a 3d
       -0.0025690622 0.022220649 0.027082684 0.04555241
000200 81 bb 06 39 07 be 14 bb 9d fe e5 bc a6 bc 03 bc
       0.00012849086 -0.0022696273 -0.02807551 -0.008040583
000210 a5 a7 41 3c 0f d8 19 bd 5e d5 bd bc 8d 9f 99 3c
       0.011819755 -0.037559565 -0.02317303 0.018752838
000220 5b 9e a8 3c 03 8a d2 3c b0 08 75 3d b4 38 2b 3d
       0.020583322 0.025700575 0.05982274 0.041802123
000230 a5 2d 9e 3c cd 3b 5b 3c 4e ed 8c 3a 43 92 5e 3d
       0.019308874 0.013380957 0.0010751875 0.054338705
000240 67 96 99 3c 66 65 2b 3d 15 24 e1 3c 8d bf 03 bc
       0.018748475 0.041844748 0.027483026 -0.008041275
000250 50 b5 0c bd 73 99 8b bc ba 85 83 bc 72 90 03 bc
       -0.0343526 -0.017040944 -0.016054977 -0.008030044
000260 2e 62 2b 3d 58 30 f2 bb 56 4b 1c bb 7e d9 c8 bb
       0.04184168 -0.007391017 -0.0023848615 -0.0061294427
000270 d8 17 cb 3b 90 da ea 3a ad c5 07 bc b9 1f 06 3d
       0.0061979108 0.001791792 -0.008286876 0.032745097
000280 d0 3d a9 3c ce 2b de 3b 6e fb 7f bc 55 4f 8b bc
       0.020659357 0.0067801243 -0.01562391 -0.017005602
000290 b9 55 5c bd 1f ef 6f bd e7 f8 06 bd 5d b5 a0 bc
       -0.05379269 -0.058577653 -0.032952216 -0.01961773
0002a0 49 7a 47 bd 7c 03 34 3d 9e 2f 9b bc 14 d6 ad 3c
       -0.048700605 0.043948635 -0.018943604 0.021220244
0002b0 9f 49 ac 3c de c4 c0 3c b6 88 bb 3c 68 6e 09 3c
       0.021031199 0.023531374 0.022892337 0.008388139
0002c0 9f 04 80 3b 4e 04 81 bc 41 7d 54 3d dc 64 29 bb
       0.003906801 -0.015749123 0.051877264 -0.002584747
0002d0 fa bb 56 bd 81 2c 0e bd 3a 90 7e 3c 03 4c 9f bc
       -0.052425362 -0.03471041 0.015537316 -0.019445425
0002e0 96 9b ff 3a b3 af a0 3c cd ca 1a 3d 2d 40 07 3c
       0.0019501324 0.01961503 0.037791062 0.008255047
0002f0 23 6a 1e bd 20 d0 a4 3c 25 bb 2d bc 52 96 37 3d
       -0.03867544 0.020118773 -0.010603701 0.04482109
000300 15 d7 37 bc 66 35 e5 bc a7 74 2e bd 24 9b e3 bc
       -0.011220713 -0.027979564 -0.042591717 -0.027783938
000310 82 88 51 3d 40 71 49 3b 56 87 bb 3c 3d ff 0c bd
       0.051155575 0.0030737668 0.022891682 -0.0344231
000320 d3 a1 bb bc 1a 1a ef bb 2a 04 79 bc 50 06 12 bc
       -0.022904312 -0.0072968127 -0.015198747 -0.008912638
000330 9b 06 ed b9 90 7b 2f 3c 9d d7 7b 3c 0a b8 d5 bc
       -0.00045209084 0.010710612 0.01537123 -0.026088733
000340 b7 3b 18 3d 9b 33 b6 3c 18 a7 28 3d dc 19 e8 bb
       0.037166324 0.022241404 0.041174978 -0.007083161
000350 0d 93 36 3d e4 e4 26 bc 9f 20 87 3c df 1b 10 bd
       0.044573832 -0.010186408 0.016495047 -0.03518283
000360 72 e0 f0 3a ca 79 5a 39 53 b2 f8 3c ee 65 cf 3b
       0.0018377437 0.0002083547 0.03035847 0.0063292896
000370 fc 2c 01 3d 8b ec 59 3d 80 91 1a 3d 11 fc 31 3d
       0.03153704 0.0532041 0.037736416 0.04345328
000380 43 a0 f1 b9 f6 6b a9 3c 69 59 46 3d d5 99 28 3d
       -0.00046086506 0.020681363 0.048425112 0.04116233
000390 35 ab 95 bb 97 8e 3e 3d e8 5b 8a 3b e3 8c 51 3c
       -0.0045675286 0.046522703 0.004222382 0.012789938
0003a0 10 a2 3d bc 75 ad 84 ba 0b 9d 1c 3d fb 63 ec 3c
       -0.011574283 -0.0010122495 0.038235705 0.028856268
0003b0 93 87 1f 3d 15 6b a6 bc 0d 46 9e bc f9 b5 c6 3b
       0.038947653 -0.020314733 -0.019320512 0.0060641733
0003c0 b6 8b 48 3c 36 78 ee ba f0 69 15 3d e9 93 58 3c
       0.012240341 -0.0018193785 0.036477983 0.013218858
0003d0 e7 b8 72 3c 0e 2c ba 3c 86 af 24 3c 9f 9f ef bc
       0.014814592 0.022726085 0.010051614 -0.029250918
0003e0 4e 03 42 3c 02 3a 3e bd bc cb a4 bb 28 3e 73 bb
       0.011841608 -0.04644204 -0.00502917 -0.0037115905
0003f0 12 30 cb 3c bc e7 03 bd ca 14 a8 3c 4c ae 96 bc
       0.024803195 -0.03220342 0.020517725 -0.018393658

fc.2.bias f4 [120]
000000 8d 52 e6 3a cb 8d 67 3d 53 a7 03 bd 84 3b 25 3d
       0.001757221 0.05653171 -0.032141995 0.04033996
000010 96 04 71 3c 10 93 c4 ba 53 4d 0e 3c ec 9b 0d bc
       0.014710566 -0.0014997441 0.008685428 -0.008643132
000020 ce 01 88 bc de 4f bc 3c 6a 7b 34 3d bc 60 bc 3c
       -0.016602423 0.022987302 0.04406301 0.022995345
000030 f2 3e 1e bd 8f 84 3a 3c 10 45 d6 bc 91 1c cf 3c
       -0.038634248 0.0113841435 -0.026155978 0.025282176
000040 58 56 48 3d 6b 63 65 3b 8b f9 4b ba ac 02 dd bc
       0.04891047 0.0035001885 -0.000778102 -0.026978813
000050 a4 68 36 bd e1 b3 e7 3c 89 8d 67 bd e3 35 1b 3d
       -0.044533387 0.028284015 -0.056531463 0.037893187
000060 03 26 12 3d 80 77 0e 3c cc 72 32 3d 9d 17 01 3b
       0.035680782 0.008695483 0.04356651 0.0019697913
000070 b2 18 ad 3c d9 7f 04 bc 82 a1 0c bd da 30 6e 3d
       0.02112994 -0.008087122 -0.034333713 0.058152057
000080 b6 1e 9f 3c 56 b8 87 3c db f0 e9 3c a5 ba a4 bb
       0.019423824 0.01656739 0.028557232 -0.0050271326
000090 13 d3 4a 3c 1f 69 6d 3d 79 49 17 bd f8 6f 04 bd
       0.012379426 0.05796158 -0.036935303 -0.032333344
0000a0 d1 a6 9b 38 81 3c 38 3d eb 4b 10 bb c7 8a 7a bc
       7.422048e-05 0.044979576 -0.0022017907 -0.015291876
0000b0 c6 ed eb 3c 4c d0 2f 3d 9c 41 85 3c 1e ac 2c bd
       0.028799903 0.042923257 0.016266637 -0.04215633
0000c0 5f 7e 1e bd b5 61 96 3b 82 31 4b bd 98 37 69 bc
       -0.038694736 0.0045892843 -0.04960776 -0.014234446
0000d0 e2 ca 2e 3c ef b6 01 bd 5c 26 15 bd 17 14 c3 bc
       0.010668488 -0.0316686 -0.036413535 -0.02381329
0000e0 03 2b 8a 3c ae 79 50 bd 75 63 54 bd 4d e9 01 3d
       0.016866213 -0.050897293 -0.051852662 0.031716634
0000f0 29 af 49 bd ae c5 e0 bc ed 29 53 bd ee af 15 3d
       -0.04923931 -0.027438011 -0.051553655 0.036544733
000100 67 8a ca 3c 2c 86 e0 3c 06 01 13 3d 4f d9 e7 3c
       0.024724199 0.027407728 0.035889648 0.028301863
000110 ba a3 ae bc 0c 64 10 bd 1e d0 39 bc c0 27 92 3c
       -0.021318305 -0.035251662 -0.011341123 0.01784122
000120 d2 22 41 bd 33 ba 0e bd 55 b9 f8 3c c2 c8 37 bc
       -0.047152348 -0.034845542 0.03036181 -0.011217298
000130 ba ce f1 bc 89 63 4d bd 81 16 2d bc af b3 bb 3b
       -0.02951752 -0.050143752 -0.010564447 0.005728207
000140 8a f3 42 bd a9 f0 92 3c e9 e8 5c bd 14 3d 08 3d
       -0.04759554 0.017937021 -0.053933058 0.033261374
000150 09 f7 ad 3c 1d f7 de 3c 3f fc c7 bc 72 c9 57 3b
       0.02123596 0.027217442 -0.024412272 0.0032926467
000160 d3 1d 47 bb 01 ee 47 3d db 2e 9d 3c a4 40 24 bc
       -0.0030382767 0.048810963 0.019187381 -0.010025177
000170 cb 23 b9 bc af 58 b4 bc b1 16 24 bd 72 e7 07 bd
       -0.022600075 -0.022014944 -0.040060703 -0.033179708
000180 d9 ba 6d bc 2d f2 3a bd 9d 86 41 3d 5f 83 6b bc
       -0.01450988 -0.045641113 0.047247518 -0.014374583
000190 4a 3c 57 3d 81 4d b7 3c 0d 2d 89 3a af 8e 8f bc
       0.05254773 0.022375824 0.0010465697 -0.017524092
0001a0 c7 f2 e1 bc 34 21 33 bd f2 f2 b7 3c 1a cc 81 3b
       -0.027581586 -0.043732837 0.022454713 0.0039610984
0001b0 48 8e eb 3c 87 20 53 3b 9b 87 14 3d 11 28 2d bd
       0.028754368 0.0032215433 0.036262136 -0.04227454
0001c0 87 12 f5 3c f2 8d bf bc 43 2b 4c bc 7d b4 f1 3b
       0.029916061 -0.023383114 -0.012461486 0.007376252
0001d0 b9 25 66 bc 4f c0 ff 3c 1d 9a ed bc 9b 1d 47 3d
       -0.01404708 0.03121963 -0.029004151 0.04861222

fc.2.weight f4 [120, 320]
000000 f8 c7 ea bc 07 68 42 bd 23 2c 54 3c 85 32 0a 3d
       -0.028659806 -0.04746249 0.012949976 0.033739585
000010 35 05 94 3c e3 fb 6a bb f7 5b c6 3b 7d e0 a4 bc
       0.01806889 -0.0035855703 0.0060534435 -0.020126576
000020 8b 85 46 bd 39 2b 3b bb b3 2d 1a bd 55 9d dc bc
       -0.0484672 -0.0028559698 -0.03764124 -0.02693049
000030 91 6f 65 bd 3a 8c 93 3c c3 6e 90 3c d2 47 52 3c
       -0.0560146 0.018011201 0.01763094 0.012834506
000040 24 b1 9e 3c 50 31 20 bc 8b b1 fe 3c 38 8c 13 3c
       0.019371577 -0.009777382 0.031090518 0.009005599
000050 56 d0 02 3d f8 17 1f bc fd 23 c5 bc 8e b5 20 3d
       0.031936966 -0.009710304 -0.024065012 0.039235644
000060 3f 7e 54 bd 18 62 4c 3c e8 5f a1 bc 35 9b 56 bd
       -0.05187821 0.012474559 -0.019699052 -0.05239411
000070 69 80 32 bc 31 19 e2 bc e4 f4 00 bc 4f 11 a3 3c
       -0.010894873 -0.027599903 -0.0078708865 0.019905714
000080 3b 47 78 3c 9e e5 90 3c f2 15 47 3d 10 f6 e0 3c
       0.015153701 0.017687615 0.048604913 0.027461082
000090 5b 46 61 bd dc a4 2a 3d 85 93 37 bd e6 5f 15 3d
       -0.054998737 0.04166113 -0.04481842 0.03646841
0000a0 f8 b6 24 3d d9 59 b7 bc e8 90 e4 bc 94 e8 b2 bc
       0.040213555 -0.02238171 -0.027901128 -0.021839418
0000b0 14 4d 6d 3c 9c c2 4b bc 78 5c d6 bc 02 37 26 bd
       0.014483709 -0.012436535 -0.02616714 -0.040579803
0000c0 29 28 25 bb f9 ec 19 bc d6 0e 78 bd 91 68 39 3d
       -0.002520094 -0.009394878 -0.060561024 0.045265738
0000d0 3a d2 2d bd c0 fb 79 bd 50 29 17 3d 5b b4 c0 bc
       -0.042436816 -0.061031103 0.036904633 -0.0235235
0000e0 bd 49 4f bd bd 23 38 bd 87 ce 5b 3c c3 3f e7 bc
       -0.05060743 -0.044955958 0.013415939 -0.028228646
0000f0 be 95 54 3c 9c e2 20 bc c1 5c bd b9 92 79 2e 3d
       0.012975154 -0.009819653 -0.00036117996 0.042596407
000100 f4 bc c9 3c 1f 14 5f bd 40 e9 69 bc 82 bf 41 3d
       0.024626233 -0.05446255 -0.014276803 0.047301777
000110 be 0c e6 bc 57 46 4a bd ce bd 58 bd 24 d3 20 bc
       -0.028082248 -0.049383488 -0.052915387 -0.009815965
000120 82 f9 4a 3d 9d bd 90 bc ec f2 26 3d 94 16 4b bb
       0.049554355 -0.01766854 0.040759012 -0.00309888
000130 82 d7 f8 3c ec e8 42 3d 33 07 a7 bc 24 39 32 3d
       0.0303762 0.047585413 -0.020389175 0.043511525
000140 08 2f e7 b9 9e 2f 8c bc 57 f5 a2 bc d4 79 5b bd
       -0.00044094794 -0.01711255 -0.019892378 -0.05358298
000150 dd be de 3c 30 f4 3b 3c 6d 7f de 3c 5c 2d 1f 3d
       0.02719062 0.011471793 0.02716037 0.038861617
000160 60 54 68 bc 68 75 5b bd 45 8a 33 bc cb 55 44 bc
       -0.014180273 -0.053578764 -0.010958259 -0.011983345
000170 55 17 55 bb d9 b8 24 bd 63 75 3b 3d 6e 22 de 3b
       -0.0032515128 -0.040215347 0.045766246 0.0067790067
000180 63 73 ba 3c ff a3 44 bc 67 96 e4 bc 6a 1b 24 bd
       0.022760099 -0.01200199 -0.027903749 -0.040065207
000190 e0 1d 34 bd 35 f5 ed ba 90 fc bb bb 53 f3 7e 3c
       -0.043973804 -0.0018154742 -0.005736895 0.015560943
0001a0 4c d4 25 3c 77 de 8a 3c 42 77 8b bc 44 30 51 bd
       0.010121416 0.016951783 -0.01702464 -0.05107142
0001b0 ad 0a 49 bc bc b1 2a 3d a5 53 3b bd ce b2 0b bd
       -0.012270612 0.041673407 -0.045734067 -0.03410607
0001c0 20 bc 22 3c e7 c9 c5 3b 0c c5 25 3d bf 2e c2 3c
       0.009932548 0.0060360315 0.04047112 0.02370393
0001d0 42 ea 38 3d 27 af 26 bd 57 1f 59 3c b8 88 43 bd
       0.04514528 -0.040694382 0.013252101 -0.047737807
0001e0 3b 22 14 3d 7b da 25 3d 69 50 8b bc 72 9b c2 bc
       0.036165457 0.040491562 -0.017006116 -0.023755763
0001f0 d0 05 46 3d 26 e8 34 bd 02 39 c8 3c 3c cc 56 bd
       0.048345387 -0.044166707 0.024441246 -0.052440867
000200 92 5f 34 3d c7 15 8b 3c d4 21 f8 3c f8 06 b6 3b
       0.044036455 0.016978158 0.030289568 0.00555503
000210 a1 41 01 3d ca 37 54 bd 1e 38 57 3d 85 1f e1 bc
       0.03155673 -0.051811017 0.052543752 -0.02748085
000220 36 06 03 3d 72 7f 44 3d ce 6a 24 3d 36 8c 47 3d
       0.031988345 0.047973104 0.04014092 0.0487177
000230 5c 2f 01 3d ca 65 0e 3d 4a c8 f4 3c 69 27 a2 bc
       0.031539306 0.034765042 0.029880662 -0.019794183
000240 ac 2d 49 bd 91 4d e2 3c 1c b5 44 3d 5e 53 14 bd
       -0.04911582 0.027624877 0.04802428 -0.036212318
000250 66 8a 3d 3d c8 c2 a9 bc 47 9a a9 bc a6 80 11 3d
       0.046274565 -0.020722762 -0.020703448 0.03552308
000260 e7 c4 57 bd e8 5c b6 38 e9 30 69 bd 97 5c 5b bd
       -0.052678015 8.6957414e-05 -0.05693141 -0.053555097
000270 60 ac 2b bd 85 e1 81 3b 54 2d 9d bb 26 eb 44 3d
       -0.041912436 0.0039636516 -0.0047966633 0.048075818
000280 34 0b 77 bc 5a 07 11 bd fb dc 56 bc db ad 0d bd
       -0.015078355 -0.0354074 -0.013114209 -0.03458963
000290 4e de 50 bd fa b2 40 bc 1a ca 05 3d d9 13 80 bc
       -0.050993256 -0.011761421 0.032663442 -0.015634464
0002a0 af fb 49 bc 90 5c 29 3c d3 a5 00 bd fc 39 20 3d
       -0.012328072 0.01033701 -0.031408142 0.0391178
0002b0 52 d6 78 bd 36 3d 49 bd 94 25 fc bc ef 83 5f bd
       -0.060751267 -0.04913064 -0.030779637 -0.05456918
0002c0 f6 a8 3a 3b 98 8d 7d bd 54 35 77 3b d7 bd d3 3c
       0.0028482056 -0.061902612 0.0037720995 0.025847359
0002d0 10 92 db bb 8f 3b ae 3c b6 e6 92 ba 92 5c 8a 3c
       -0.0067007616 0.021268634 -0.0011207673 0.016889844
0002e0 f8 12 17 bc 38 c1 6d bd 48 24 47 bd db 9d 0c 3d
       -0.009220831 -0.058045596 -0.048618585 0.03433023
0002f0 c7 a4 8b 3c 01 65 12 bc 73 6a 67 3c 7e a6 3f 3d
       0.017046345 -0.008935214 0.014124501 0.04678964
000300 10 ac 8a bc 80 0f 3e bc 5f 4d 5e 3c d3 0a 14 3c
       -0.016927749 -0.011600375 0.013568251 0.009035784
000310 d6 83 34 bd 78 47 6a bc 54 40 e8 3c ee 77 7b bb
       -0.04407104 -0.014299266 0.028350987 -0.0038371044
000320 94 76 40 3d 96 cb ab 3c 34 47 91 bc 58 18 12 3d
       0.046988085 0.0209711 -0.017734148 0.035667747
000330 49 4d 24 bd a4 d0 15 bc c8 68 3b 3c 31 31 26 bd
       -0.040112767 -0.009143982 0.011438556 -0.040574256
000340 7f 4d 39 3d 15 72 cd 3c cb 02 86 3c a4 ac 47 3d
       0.04523992 0.025078813 0.016358754 0.048748627
000350 dc 83 49 3d 24 a9 4f bd d0 60 9f bc 03 47 18 bd
       0.049198017 -0.050698414 -0.019455343 -0.037177097
000360 42 45 5f bc 73 58 72 bd 9e 40 2c 3d 7b 4e ed 3c
       -0.013627352 -0.059166383 0.04205381 0.028968086
000370 6c 36 1f bc d5 cd 69 bd 10 77 6d bd 9c d5 9d bc
       -0.009717565 -0.057081062 -0.057974875 -0.019266896
000380 ff 9c 28 bb 20 76 37 bd 33 f2 2c bd 11 c1 57 bd
       -0.0025728343 -0.044790387 -0.042223167 -0.052674357
000390 25 1d 16 bc 20 a2 3b 3d 85 b9 b2 bb 99 67 05 bb
       -0.009162222 0.04580891 -0.0054542446 -0.0020355938
0003a0 a8 78 27 3d ee 63 f4 3c a4 5f 4a 3d 2e 2f 03 3d
       0.04088655 0.029832806 0.049407616 0.032027416
0003b0 2b 71 a4 bc b5 dc 49 bc 3a 21 33 3d 94 5d 76 bd
       -0.020073494 -0.012320687 0.04373286 -0.060147837
0003c0 c7 bd b2 3c 6d cf 74 bd 92 ce 7a bd 3e 4f e8 bb
       0.021819009 -0.05976813 -0.061232157 -0.0070895245
0003d0 8b e3 52 3c c0 be 84 bb 2d 6e 39 bd 24 3b 24 3d
       0.012871633 -0.0040510595 -0.045271087 0.040095463
0003e0 0e 60 30 bd 40 9b 37 bd ca dc 4f bd 67 f6 7e ba
       -0.043060355 -0.044825792 -0.05074767 -0.0009726048
0003f0 83 c0 ce 3c 60 dc 43 3d 9e 5e 13 bd d6 67 31 3d
       0.025238281 0.047817588 -0.035978906 0.043311916

fc.4.bias f4 [43]
000000 79 45 3b 3d 1a 83 1f 3c e6 5c de 3c 15 76 42 3d
       0.04572055 0.009735847 0.027143907 0.047475893
000010 2e 47 36 bd 9f b9 4e 3d 33 f0 78 3d ea e0 f5 3c
       -0.044501476 0.05046999 0.060775947 0.030014474
000020 39 64 2c bd c8 05 7a bd e2 12 2b bd 88 20 d5 bc
       -0.042087767 -0.06104067 -0.041766055 -0.026016489
000030 5a f7 bd 3d 8f 77 92 bd 34 c8 17 3d a1 60 86 3c
       0.09275694 -0.0715171 0.037056163 0.016403498
000040 54 84 7e bd a1 a1 fb 3b 74 d2 92 3b 49 fb 91 3d
       -0.062137917 0.00767918 0.0044806544 0.07128007
000050 36 e5 a4 bc 47 00 fd bc d6 14 1e bd 46 a1 cb bd
       -0.020128828 -0.030883921 -0.03859409 -0.0994287
000060 f4 2d 0e 3d 10 5e ad bd 7a 16 9a 3d ef bc b4 3d
       0.034711793 -0.084652066 0.07523818 0.08825099
000070 5e 5b 8e 3d 3b 21 a7 bd b5 c0 22 3c 0a ac 36 3d
       0.06951021 -0.08160635 0.00993364 0.044597663
000080 82 97 1e bd 6b 59 47 bc a4 59 22 bd 53 45 77 bd
       -0.038718708 -0.012167315 -0.03963627 -0.060368847
000090 51 0b 3b bd d6 3b 37 bd c2 39 05 3d b6 66 97 3d
       -0.04566509 -0.0447348 0.032525785 0.073926374
0000a0 26 e3 6b 3c a1 66 23 bc b8 9b 92 bd
       0.014397418 -0.009973199 -0.07158607

fc.4.weight f4 [43, 120]
000000 30 0b 0a bd 43 c3 a7 3c 03 19 b9 bd ae bf 67 3c
       -0.033702075 0.02047885 -0.09037974 0.014144821
000010 5a ae e3 3d 62 72 68 3d a5 b4 2f bd 81 21 96 bd
       0.11117239 0.05674971 -0.042896885 -0.07330609
000020 e2 59 41 bb c7 e9 ce bc d5 db 3f 3d 09 c9 9c 3d
       -0.0029503037 -0.025257958 0.046840508 0.07655532
000030 8f 84 6e 3d 2a f1 8f 3c fe fe 0e bb 89 7d 12 bc
       0.058231886 0.01757105 -0.0021819468 -0.008941063
000040 ed 02 44 3c 37 7a ec 3a bc 68 8d bd 64 05 b2 3d
       0.011963588 0.0018041794 -0.06904742 0.086924344
000050 d4 94 85 bd 51 ad e4 3b 9f 9c 99 3d 14 15 c9 bc
       -0.06522527 0.0069786687 0.07500576 -0.024546184
000060 f0 7e 4b bd 41 48 02 bd 83 f6 9b 3b e8 72 38 3d
       -0.049681604 -0.031807188 0.004759611 0.04503146
000070 cb 45 9a bd e6 90 6a bd d7 42 85 bc 42 a1 6e 3d
       -0.07532843 -0.057267092 -0.016267223 0.058259256
000080 a3 bb 9f 3b 42 3c 4b bc d8 bd c4 bc 9c 42 a7 bd
       0.004874663 -0.012404503 -0.024016306 -0.081670016
000090 98 bc 9f bd db 40 15 3d 4b 02 89 3b 50 c4 d9 3c
       -0.07799643 0.036438804 0.0041811815 0.026582867
0000a0 c2 fd eb 3c 2e 72 d4 bb e7 fa 90 3d 4c 55 bb 3d
       0.028807525 -0.006483338 0.07079106 0.091471285
0000b0 e7 57 89 3c c1 cb 79 bd 34 31 d4 bc 75 7e 44 bd
       0.016765548 -0.06098533 -0.025902368 -0.04797216
0000c0 f2 fe 22 3d 9c b1 55 3a 56 84 34 bd c8 bc b6 3d
       0.039793916 0.0008151771 -0.044071518 0.08922726
0000d0 04 1b 3d bd 30 f9 a5 bc ea af 97 bd 96 65 a0 bc
       -0.046168342 -0.020260423 -0.074066 -0.01957969
0000e0 d2 ef 23 3b 99 2d 21 3d 0a b8 59 bd 08 44 83 bb
       0.002501477 0.039350126 -0.05315403 -0.0040059127
0000f0 b6 4e 4b 3d 54 40 50 bc 69 ea f6 bc 06 c1 7e 3d
       0.04963561 -0.0127106495 -0.030141072 0.0621958
000100 fd 87 ac bb 6a 0d 78 bc c0 6f 16 3d d1 93 30 3d
       -0.0052652345 -0.015139917 0.036727667 0.04310972
000110 3f 56 9d 3d a5 e2 99 bd 18 60 b1 3d 1b 07 83 3d
       0.07682466 -0.07513932 0.086609066 0.0639784
000120 e1 d6 c3 bb 22 5f e5 3d 37 16 bd bc 95 b2 9f 3d
       -0.0059765433 0.11199786 -0.023081882 0.07797734
000130 ef aa 81 bd 10 af 56 bb 93 04 b8 bd be 01 98 ba
       -0.06331431 -0.0032758154 -0.089852475 -0.0011597199
000140 8c 73 71 bc 47 d7 d1 3c 4a 0a a5 bc 0f 46 75 3c
       -0.014737021 0.025615348 -0.020146508 0.014970317
000150 ef 82 b1 3d 15 fc 6d bd 6f 24 4a bc 9d df 5b bc
       0.08667552 -0.058101732 -0.012337788 -0.013420013
000160 61 40 03 3d 31 fd 2a 3c 04 2e 2b bd 05 4a 89 3d
       0.03204382 0.010436342 -0.04179193 0.06703571
000170 69 f7 46 bd 4f 08 94 bd d4 28 dc 3c 89 5b 4b 3d
       -0.048575792 -0.07228147 0.026874937 0.04964784
000180 61 37 4b 3d 55 51 35 3c 99 8d e7 3b 60 8c a7 3d
       0.04961336 0.011066754 0.0070664403 0.08181071
000190 25 e0 01 3d 17 c5 8c 3d 78 21 2c bd 8a 57 b7 3a
       0.0317079 0.068735294 -0.042024106 0.0013987881
0001a0 12 72 99 bd 24 7e 96 bd a2 82 21 3d 05 d4 a7 bd
       -0.0749246 -0.07348278 0.03943122 -0.081947364
0001b0 75 5c 9b 3d e9 a9 28 3c 6b f3 1e 3d 84 38 77 3b
       0.07585994 0.010294416 0.03880636 0.0037722895
0001c0 86 95 96 bd c5 bc 10 bc a1 b4 1c 3d 42 16 56 bd
       -0.07352738 -0.008834069 0.0382582 -0.05226732
0001d0 b3 2f f8 bc 39 a4 6c bd 3d 0d 98 3b b8 24 cb 3d
       -0.030296182 -0.057773802 0.00464025 0.09919113
0001e0 e0 f5 7a bc a7 d6 30 bd 4f 08 b0 bd 46 cb 10 3d
       -0.01531741 -0.04317346 -0.08595335 0.035350107
0001f0 44 b2 1e 3d 89 0c d5 3c 62 e6 03 bd 80 ce 68 3d
       0.038744226 0.026006954 -0.032202132 0.05683756
000200 44 9a 17 3d d6 da 4b 3d 39 7b 05 bd 1f 4e 2d 3d
       0.037012354 0.049769245 -0.032588217 0.04231083
000210 0b 31 61 bd 1f d9 6e bd 4f 00 cc 3c 50 95 8c bd
       -0.05497841 -0.05831253 0.02490249 -0.068644166
000220 be aa 59 bd df 79 7f bd 14 0d b9 3c 10 10 a0 bd
       -0.053141348 -0.062372085 0.022589244 -0.07815564
000230 e0 c6 a7 3d 62 38 53 bc 31 fc 4a bb 3c 36 9e bd
       0.08192229 -0.012891861 -0.0030973072 -0.07725188
000240 0f 26 0a bd 9e 38 2d bd d9 e3 72 bd 67 89 86 bd
       -0.0337277 -0.042290322 -0.059299324 -0.06569176
000250 2f ce c5 3d 91 b5 9c bd dc 8c ca 3d 6b f9 cf 3d
       0.09658467 -0.076518185 0.09890148 0.101549946
000260 c5 2e 19 bd 36 46 8d 3d 97 a5 20 bd 44 e0 6b 3d
       -0.03739812 0.06898157 -0.03922042 0.057586923
000270 45 d9 ff bb 77 7b 2f bd 7c 5a 09 bd cc 16 6a 3d
       -0.007807883 -0.042842355 -0.03353356 0.057150647
000280 c5 e6 86 3d 35 4f a3 bd 00 b5 96 bc b2 2d d4 bc
       0.065869845 -0.07974092 -0.018396854 -0.025900695
000290 a0 5b a9 bd 4a 6c b3 bd d8 ad 98 bd d5 ab 8c 3b
       -0.08269429 -0.08760889 -0.07455033 0.004292945
0002a0 13 fb b6 3c a6 81 28 3d 4d 89 96 3c 3e 87 3f bd
       0.022336518 0.041139267 0.018376017 -0.046759836
0002b0 0a d7 46 bc 40 37 4f 3d bc bb 0f bd c3 5d 6b bd
       -0.01213623 0.0505898 -0.035091147 -0.057462465
0002c0 da 51 6c 3d 3a 89 a1 3d c6 cf c8 3c ef f2 4d 3c
       0.057695247 0.07887502 0.024513137 0.012570127
0002d0 c2 13 93 3b cd fc bb 3d 29 65 81 3d e0 b7 bf 3d
       0.0044884393 0.09179077 0.06318123 0.09361243
0002e0 65 c0 21 bd 5c f7 d8 bc a2 3f 83 3c 7e 52 4c 3d
       -0.039490122 -0.026485138 0.016021553 0.04988336
0002f0 a1 41 30 3b ca c4 81 bd d9 e6 83 bc f6 b0 85 3b
       0.0026894587 -0.06336363 -0.016101288 0.0040799333
000300 37 46 22 3d 91 74 68 3d 44 6f bd 3d 58 ff 85 bc
       0.039617743 0.05675179 0.09249738 -0.016357109
000310 ac 1a 04 3c 4f 33 db 3a 35 3f 8b bc 5c 9c 6b bd
       0.008063 0.0016723665 -0.016997913 -0.057522163
000320 82 0d fc bc e9 f3 01 3d 6e a5 7b 3a d4 83 8d 3c
       -0.03076816 0.03172675 0.0009599541 0.017274775
000330 81 a9 80 3b 69 62 1e 3d fc a2 8d bd ae e6 b1 3d
       0.0039264564 0.03866807 -0.069158524 0.08686577
000340 22 2f c5 3d 7e b0 4a 3d f4 d9 ae bc 5b df 11 bd
       0.096281305 0.049484722 -0.021344163 -0.0356134
000350 14 6e 7f bd e3 69 15 3d ae fb 92 bd b9 83 6a bd
       -0.062360838 0.036477935 -0.0717691 -0.057254527
000360 8f c0 9e bd 7d 35 09 3d d8 90 87 3d 94 6b 9f bd
       -0.077515714 0.033498276 0.06619424 -0.07784191
000370 0f b4 fa 3c e0 65 be 3d f2 91 92 3d 75 c0 81 3d
       0.030603437 0.09296775 0.07156743 0.063355364
000380 49 ba b1 3d 65 b0 92 3d e5 d6 77 bc 87 58 30 bd
       0.08678109 0.07162551 -0.015126918 -0.043053176
000390 8d 5e 6f bd 06 54 75 bd a0 3a bd bd 91 2f 46 bc
       -0.05843978 -0.059894584 -0.092396975 -0.012096302
0003a0 76 c9 0f 3d 20 23 3d 3b 48 0b a5 bd a1 b9 ab 3c
       0.035104237 0.0028860047 -0.08058792 0.020962538
0003b0 37 ee 6f bd 58 9f a1 3d 72 bf 1b bd 3a 48 57 3d
       -0.05857679 0.078917205 -0.038024373 0.052559115
0003c0 fe cc 36 3d 12 67 21 bd f3 9e 7f bc 67 c7 3d bd
       0.04462909 -0.039404936 -0.015601861 -0.046332743
0003d0 a3 f3 c1 ba e0 e2 87 3b 30 f4 2a 3d 7d 78 25 bc
       -0.0014797341 0.0041469187 0.04173678 -0.010099527
0003e0 7e d1 39 3d be 89 a4 bc 06 90 56 bd 66 3e 64 3d
       0.045365803 -0.020085212 -0.052383445 0.05572357
0003f0 19 d2 8f bd 82 47 9c bd 4f 1c b5 bd c8 6d a9 bd
       -0.07022495 -0.076308265 -0.0884329 -0.08272892
