resources/imgreco/inventory/ark_material.onnx (onnx, 78770 bytes, 6 tensors)

conv.0.bias f4 [5]
-0.04250487 -0.14223705 -0.15948752 0.32842532 0.33895865
00000000: 9619 2ebd 97a6 11be b250 23be 5d27 a83e
00000010: fd8b ad3e

conv.0.weight f4 [5, 3, 3, 3]
0.31154326 0.24156201 0.20712176 0.38773212 0.12857892 0.2780097 0.06777764 0.37493983
0.10991011 0.41553044 0.16052766 0.24282081 0.258804 0.13112131 0.045880064 0.35126802
0.3399757 0.17659909 -0.11128352 -0.078292355 0.03581613 0.08663265 -0.025366047 0.1302842
0.057756387 0.08307785 -0.022475578 0.1778156 0.1331557 -0.14215125 -0.009725157 -0.047982488
0.1604718 0.030830216 -0.17437671 -0.14413017 0.02273552 -0.11614939 -0.0100835655 -0.12781121
-0.009931883 -0.18163526 -0.019990576 -0.08310993 0.10984981 -0.15232159 0.11446147 0.04622128
-0.10127744 -0.15272245 0.051563002 0.13868037 -0.0830569 0.100555666 0.19182248 0.26105115
0.21256761 0.35108307 0.36405227 0.07410753 0.3069945 0.234109 0.24373615 0.33445364
0.17469557 0.24080338 -0.00057466544 0.03154549 0.2616725 0.29608276 0.26021042 0.31831294
0.16156547 -0.06857958 0.21718259 0.14877765 0.21008675 -0.04505727 -0.021892155 0.027631491
0.021470746 0.009506638 -0.026863843 0.010265046 -0.22025824 -0.10288463 0.121321246 -0.050351065
-0.19243509 -0.03960974 -0.035906445 0.1559823 -0.09224016 -0.08835771 0.22272006 0.27554518
0.034151703 0.23711206 -0.08316815 0.28368464 0.19818741 0.2056212 0.13603877 0.011673106
0.13003765 0.33656496 0.35114914 0.21936649 0.19128203 0.19070871 0.07711153 0.18847902
0.19206502 0.016271414 0.13042863 0.030278372 0.058765225 0.2631641 0.09004011 0.00798882
0.16028857 0.060990207 0.20748611 0.25959715 0.034698643 0.13400067 0.24363108 0.11474217
0.008505202 0.04410578 0.29883146 0.2139432 0.14807495 0.035590827 0.28913447
00000000: 9982 9f3e 085c 773e ba17 543e d384 c63e
00000010: 31aa 033e 4a57 8e3e 01cf 8a3d 1df8 bf3e
00000020: 8d18 e13d 68c0 d43e 5d61 243e 05a6 783e
00000030: f581 843e aa44 063e bcec 3b3d 67d9 b33e
00000040: 4c11 ae3e 64d6 343e 9de8 e3bd be57 a0bd
00000050: efb3 123d 756c b13d 75cc cfbc 3969 053e
00000060: f691 6c3d b824 aa3d b41e b8bc 4b15 363e
00000070: f859 083e 1990 11be 4456 1fbc 4989 44bd
00000080: b852 243e a68f fc3c cf8f 32be dc96 13be
00000090: d73f ba3c bbdf edbd 8a35 25bc f1e0 02be
000000a0: 56b9 22bc 98fe 39be 47c3 a3bc 8a35 aabd
000000b0: f0f8 e03d 31fa 1bbe c66a ea3d 8652 3d3d
000000c0: 8c6a cfbd 4663 1cbe ba33 533d 3a02 0e3e
000000d0: bc19 aabd 21f0 cd3d 1d6d 443e 7fa8 853e
000000e0: 53ab 593e 29c1 b33e 0f65 ba3e b0c5 973d
000000f0: 622e 9d3e 45ba 6f3e f895 793e 823d ab3e
00000100: 65e3 323e 2995 763e 25a5 16ba d835 013d
00000110: f0f9 853e 2998 973e 4d3a 853e eaf9 a23e
00000120: 6b71 253e 7373 8cbd 1d65 5e3e 2b59 183e
00000130: fb20 573e f98d 38bd 2d57 b3bc 705b e23c
00000140: 6be3 af3c bbc1 1b3c 9011 dcbc b92e 283c
00000150: 608b 61be 2db5 d2bd 4677 f83d eb3c 4ebd
00000160: b40d 45be d33d 22bd a312 13bd d3b9 1f3e
00000170: 69e8 bcbd e3f4 b4bd ba10 643e 4214 8d3e
00000180: a8e2 0b3d 81cd 723e 1054 aabd 1d3f 913e
00000190: a4f1 4a3e 5d8e 523e bf4d 0b3e 8e40 3f3c
000001a0: 9728 053e 3e52 ac3e d2c9 b33e 9ca1 603e
000001b0: 70df 433e 2549 433e a6ec 9d3d a500 413e
000001c0: b1ac 443e a14b 853c 158f 053e 590a f83c
000001d0: ceb3 703d 72bd 863e f366 b83d 8ae3 023c
000001e0: b022 243e ded0 793d 3d77 543e ebe9 843e
000001f0: 2a20 0e3d 7937 093e 6d7a 793e f1fd ea3d
00000200: 6759 0b3c 43a8 343d 7000 993e ed13 5b3e
00000210: f6a0 173e b0c7 113d 6f09 943e

fc.0.bias f4 [86]
0.088051096 -0.20274079 0.068826735 -0.14902505 -0.062384967 0.053963803 0.007616239 -0.06363246
-0.055869352 -0.01584433 0.04229816 0.068723306 0.3068001 0.12950803 0.15161644 0.15018333
0.10744362 0.070987776 0.10989434 0.047601145 0.01687089 0.21749316 0.105304256 0.042007457
0.0495978 -0.008455333 -0.04964733 0.010513356 0.07925888 0.2574792 0.05223137 -0.04263667
-0.12444728 0.13423108 0.02605034 -0.11281257 -0.06186746 0.16418217 0.009534695 0.03827608
0.0658998 0.15321478 0.009282366 -0.07021264 0.03558067 -0.0012390763 0.029767297 0.16275704
-0.061252993 -0.06118079 0.044721812 0.22533952 0.058254603 0.15613799 -0.06017271 -0.050615653
0.005011874 -0.05284599 0.06083192 0.05189692 0.0656294 0.021627761 0.23621175 0.038159207
-0.015707865 -0.043934602 0.21812458 -0.0342724 -0.01746108 0.049781747 0.016369572 0.07479729
0.020336434 -0.052168027 0.021027563 -0.05282821 -0.030651616 0.14626984 0.11468109 0.0976629
-0.17233226 -0.01845626 0.11224806 0.13758655 0.1399304 0.040426612
00000000: 2254 b43d 489b 4fbe 08f5 8c3d 069a 18be
00000010: 6187 7fbd 2609 5d3d a591 f93b bc51 82bd
00000020: 43d7 64bd f8cb 81bc d640 2d3d cebe 8c3d
00000030: e714 9d3e c19d 043e 5741 1b3e a9c9 193e
00000040: 670b dc3d 0a62 913d 4910 e13d 6bf9 423d
00000050: d234 8a3c 87b6 5e3e c2a9 d73d 0310 2c3d
00000060: 1027 4b3d 3d88 0abc 005b 4bbd 3640 2c3c
00000070: 7b52 a23d 50d4 833e 90f0 553d caa3 2ebd
00000080: 37de febd df73 093e 8667 d53c 470a e7bd
00000090: bc68 7dbd 5f1f 283e 6937 1c3c 61c7 1c3d
000000a0: 79f6 863d 56e4 1c3e 1115 183c a5cb 8fbd
000000b0: 09bd 113d 8068 a2ba 8cda f33c c8a9 263e
000000c0: 6be4 7abd b598 7abd 382e 373d 67bf 663e
000000d0: 619c 6e3d a3e2 1f3e a977 76bd 5c52 4fbd
000000e0: a53a a43b 0975 58bd e42a 793d dd91 543d
000000f0: b568 863d b42c b13c 7ee1 713e d44c 1c3d
00000100: c8ad 80bc c5f4 33bd 0d5c 5f3e 3761 0cbd
00000110: 8a0a 8fbc f2e7 4b3d 7b19 863c 522f 993d
00000120: 9898 a63c 24ae 55bd ff41 ac3c 6562 58bd
00000130: 1919 fbbc c3c7 153e ebdd ea3d 7d03 c83d
00000140: de77 30be 9531 97bc 50e2 e53d 7de3 0c3e
00000150: ea49 0f3e 6096 253d

fc.0.weight f4 [86, 180]
-0.037106108 -0.022104807 -0.16495998 -0.16306986 -0.14699043 -0.21930856 0.04377805 -0.008595148
0.19232562 0.25598463 0.22498977 -0.063434236 0.20747332 0.23102076 0.27897948 0.20841011
0.07541192 0.056150585 0.061138604 0.14649811 0.25131792 0.20424186 -0.11821163 -0.12181638
-0.25918338 -0.2529018 -0.11222444 0.12632416 -0.09655559 -0.26174793 0.00077518757 -0.1659209
-0.3049341 -0.10448389 -0.08547568 -0.1350765 0.072134994 -0.00019096583 -0.07019836 -0.013003439
-0.047706764 -0.06555141 0.039923593 -0.05430586 0.031904407 -0.034202192 -0.060940728 0.071221806
0.014590457 0.05410304 0.068869166 0.0658899 0.027710065 0.04460276 0.01847969 0.025549643
0.033193193 -0.040469997 0.036718145 -0.013280626 0.036576025 -0.036247656 0.025371261 0.052695744
0.03547462 -0.027326122 0.041086182 -0.022653103 -0.0009946153 -0.005571209 -0.0076569687 -0.064052194
-0.03265462 0.039411835 -0.0070763053 -0.13464084 -0.13381629 -0.03924206 -0.006218212 -0.054882426
-0.0018763248 0.08428771 0.18688272 -0.11309558 0.11469242 0.18780757 0.16822235 0.07746673
0.14819877 0.030253321 0.07858596 0.030987844 0.17597352 0.1593714 0.050502203 -0.1311513
-0.1543952 -0.09883674 -0.09242115 0.09289103 -0.08779783 -0.10998 0.018595045 -0.18456608
-0.22383942 -0.052765764 -0.025202755 -0.0914494 -0.08194597 0.03444085 -0.082326934 -0.054974064
-0.048468225 -0.0060518333 0.06090132 0.06740586 0.07032972 -0.062009208 -0.052339774 -0.0067236605
0.08110663 0.09332627 0.08673521 0.06293339 0.10153514 -0.05234247 0.0798515 0.08005524
0.1861195 0.16985108 0.169687 0.05761337 -0.046966024 -0.079632916 0.12094189 0.079577416
0.16835083 -0.029538326 0.09486563 0.02177462 -0.012655862 0.16848986 0.12612167 0.089235656
0.0031249402 0.055478632 -0.032019686 0.016816586 0.014634033 -0.0026991032 -0.030571055 -0.054777775
-0.007007469 0.05073129 0.0103314 -0.061117936 0.07373483 0.08922067 0.13956052 0.095353894
0.035443425 -0.06458253 -0.0047957734 0.14210173 0.12798357 0.17239222 0.06551882 0.08291303
-0.09226848 -0.0777875 0.054583948 0.11016473 0.054010894 -0.07956307 0.12434965 -0.08624752
-0.018885328 0.099177964 0.09874742 -0.08750081 -0.18541169 -0.18365458 0.2201313 0.31212062
0.38984406 0.22317052 -0.11171895 -0.21622622 0.16645044 0.15408014 -0.058392636 -0.10434498
-0.22779438 -0.07861779 0.14704494 0.18571618 0.10539213 0.09782798 -0.1463535 0.21893023
0.237594 0.2756973 0.28580257 0.036963407 0.003689534 0.26539543 0.18865874 -0.06642721
0.08319203 0.07800555 0.36255315 0.31401202 0.21242274 0.25060165 0.21350339 0.16002986
-0.018135726 0.07375973 0.008463547 0.03993859 0.039742768 -0.045389213 -0.020500798 -0.009293504
0.006499909 0.007876314 0.006027445 -0.017868828 0.01740855 -0.06891025 -0.04308008 -0.024427734
-0.029622342 0.007038988 0.019253865 -0.0154064 -0.028626323 0.07316274 0.055820547 0.042739943
-0.031026386 -0.057746224 0.050380483 0.06470316 -0.035896268 -0.014022507 -0.03643695 0.03268054
-0.02418831 -0.029930167 0.027057957 -0.004704401 -0.24455196 -0.16150261 0.17529692 0.32146809
00000000: 93fc 17bd 2415 b5bc 45eb 28be c9fb 26be
00000010: a984 16be 6c92 60be 9d50 333d aad2 0cbc
00000020: 02f1 443e 6b10 833e b863 663e cfe9 81bd
00000030: e373 543e b590 6c3e 66d6 8e3e 7669 553e
00000040: 9171 9a3d 28fe 653d 796c 7a3d 9a03 163e
00000050: beac 803e c724 513e f018 f2bd de7a f9bd
00000060: afb3 84be 587c 81be edd5 e5bd 1f5b 013e
00000070: f0be c5bd d303 86be f535 4b3a 2be7 29be
00000080: 5320 9cbe a6fb d5bd e00d afbd 7e51 0abe
00000090: 83bb 933d 003e 48b9 28c4 8fbd 600c 55bc
000000a0: 2b68 43bd d13f 86bd ec86 233d d26f 5ebd
000000b0: 32ae 023d 9917 0cbd fc9c 79bd bddc 913d
000000c0: d00c 6f3c 269b 5d3d 470b 8d3d 49f1 863d
000000d0: 3800 e33c 62b1 363d b862 973c 7c4d d13c
000000e0: 96f5 073d dec3 25bd c465 163d fc96 59bc
000000f0: bed0 153d 6c78 14bd 64d7 cf3c 7ed7 573d
00000100: d64d 113d 08db dfbc fc49 283d 0093 b9bc
00000110: c05d 82ba b08e b6bb 4fe7 fabb cc2d 83bd
00000120: dac0 05bd 4e6e 213d 5ae0 e7bb 4adf 09be
00000130: 2307 09be 48bc 20bd 25c2 cbbb 65cc 60bd
00000140: 03ef f5ba 099f ac3d 2f5e 3f3e a89e e7bd
00000150: dce3 ea3d a150 403e 7b42 2c3e e0a6 9e3d
00000160: 6bc1 173e d0d5 f73c adf1 a03d 38da fd3c
00000170: 6732 343e 4232 233e 66db 4e3d 874c 06be
00000180: c619 1ebe eb6a cabd 4d47 bdbd a73d be3d
00000190: 59cf b3bd 323d e1bd a354 983c e4fe 3cbe
000001a0: 2936 65be ea20 58bd 0276 cebc d349 bbbd
000001b0: 4ad3 a7bd d911 0d3d 069b a8bd 7c2c 61bd
000001c0: 9e86 46bd 754e c6bb aa73 793d 150c 8a3d
000001d0: 0709 903d 5efd 7dbd 3b62 56bd 2752 dcbb
000001e0: 3c1b a63d d821 bf3d 3ba2 b13d 39e3 803d
000001f0: a8f1 cf3d 0f65 56bd 2f89 a33d 00f4 a33d
00000200: 1c96 3e3e 71ed 2d3e 6ec2 2d3e fffb 6b3d
00000210: 725f 40bd 9516 a3bd 62b0 f73d 7cf9 a23d
00000220: 2964 2c3e 5cfa f1bc e948 c23d b060 b23c
00000230: 885a 4fbc 9b88 2c3e 0a26 013e 2fc1 b63d
00000240: cccb 4c3b 903d 633d 1327 03bd f0c2 893c
00000250: 95c3 6f3c 70e3 30bb 2670 fabc a95e 60bd
00000260: e99e e5bb 9dcb 4f3d 0845 293c cd56 7abd
00000270: 4902 973d 54b9 b63d f4e8 0e3e e748 c33d
00000280: 202d 113d d843 84bd dd25 9dbb 1e83 113e
00000290: 200e 033e 9687 303e bb2e 863d 4fce a93d
000002a0: 42f7 bcbd 0e4f 9fbd 6b93 5f3d 0c9e e13d
000002b0: 873a 5d3d f6f1 a2bd 08ab fe3d 8aa2 b0bd
000002c0: 67b5 9abc d11d cb3d 163c ca3d a033 b3bd
000002d0: 90dc 3dbe f20f 3cbe 196a 613e 46ce 9f3e
000002e0: a499 c73e d086 643e e8cc e4bd 686a 5dbe
000002f0: fc71 2a3e 2fc7 1d3e 1e2d 6fbd d2b2 d5bd
00000300: ee42 69be 5d02 a1bd f392 163e 622c 3e3e
00000310: d4d7 d73d 095a c83d b1dd 15be 3f2f 603e
00000320: d74b 733e 3228 8d3e b754 923e f166 173d
00000330: 1ccc 713b e9e1 873e c22f 413e fd0a 88bd
00000340: 9560 aa3d 60c1 9f3d 91a0 b93e 2fc6 a03e
00000350: 5985 593e dc4e 803e a2a0 5a3e dede 233e
00000360: 6091 94bc 570f 973d b0aa 0a3c a696 233d
00000370: 50c9 223d 0aea 39bd 4af1 a7bc c843 18bc
00000380: 30fd d43b a80b 013c e081 c53b a661 92bc
00000390: 609c 8e3c d120 8dbd bd74 30bd ac1c c8bc
000003a0: 8eaa f2bc 50a7 e63b 48ba 9d3c 206b 7cbc
000003b0: c081 eabc 59d6 953d 16a4 643d 1410 2f3d
000003c0: 0c2b febc 4e87 6cbd c45b 4e3d 1783 843d
000003d0: f707 13bd a8be 65bc e93e 15bd 08dc 053d
000003e0: 9026 c6bc 1c30 f5bc a6a8 dd3c 6027 9abb
000003f0: d46b 7abe f160 25be 0981 333e 7797 a43e

fc.2.bias f4 [43]
0.0754095 0.14307295 -0.03156621 -0.101147026 -0.04774895 -0.0063546314 -0.2505869 -0.10661785
-0.068731084 -0.022580551 0.069258824 0.13648711 -0.12516354 0.12190503 -0.09550076 0.054283183
-0.24299502 -0.1255617 -0.0653902 -0.029513558 0.14313543 0.12583894 0.015998915 -0.104583256
-0.18587138 -0.1070294 0.14177181 -0.040706318 -0.24796098 -0.21926033 -0.23451589 -0.043243032
0.12604532 -0.08684822 -0.1584126 -0.12597121 -0.07032769 -0.06193965 -0.16586685 0.027478186
-0.093173176 0.0027819984 -0.03722043
00000000: 4c70 9a3d b781 123e 924b 01bd 2c26 cfbd
00000010: 6794 43bd 833a d0bb ed4c 80be 765a dabd
00000020: e2c2 8cbd d9fa b8bc 92d7 8d3d 47c3 0b3e
00000030: df2a 00be 58a9 f93d e795 c3bd 0b58 5e3d
00000040: b0d3 78be 3f93 00be 4ceb 85bd 6bc6 f1bc
00000050: 1892 123e ecdb 003e 2810 833c bf2f d6bd
00000060: 1155 3ebe 3b32 dbbd a12c 113e abbb 26bd
00000070: 7ce9 7dbe c885 60be ef24 70be 9b1f 31bd
00000080: 0612 013e 7bdd b1bd ea36 22be 99fe 00be
00000090: f707 90bd 6eb4 7dbd 00d9 29be ef19 e13c
000000a0: 94d1 bebd 3052 363b 7374 18bd

fc.2.weight f4 [43, 86]
-0.20969863 -0.20352075 0.0983136 0.14999181 0.00491515 0.0469375 0.036111813 0.048704028
0.28305426 -0.062237725 -0.00019757793 0.025778878 0.21641101 -0.344581 0.0052276314 -0.18626215
-0.010253451 -0.31956294 0.13122173 -0.16860719 0.118195295 0.058934037 -0.1964208 0.15313897
0.13411808 -0.0058551747 0.06906102 -0.039584428 -0.12149059 -0.32432267 0.17804888 -0.2858587
0.2337236 -0.29072207 -0.10190211 -0.349961 -0.15321784 0.069335684 0.16685238 0.028716296
0.098839186 0.04877304 0.008548531 -0.17869115 -0.19490987 -0.01820127 0.086270116 -0.14175545
0.07407105 -0.31148598 0.22748977 0.3604156 0.04115188 -0.075735316 0.07322375 0.06390498
0.04593998 0.06923503 0.09034732 0.14183731 0.071016304 -0.08228061 -0.02193259 -0.062361926
0.08646807 -0.2609046 0.041975636 0.064019 0.017071722 0.10481565 0.051792488 0.2135364
0.097539954 0.005511195 0.011737028 -0.08207558 -0.26389942 0.07037582 -0.007355613 0.20138207
0.02559815 0.052068528 0.14812954 0.03163873 -0.08839581 -0.047993608 -0.10713626 -0.18742146
0.28996876 -0.36734793 0.09533144 0.06553373 -0.1882424 0.08874856 0.25857174 0.045557335
-0.09789422 -0.0446306 -0.42360786 -0.11529165 -0.16405898 -0.0013261115 0.17840481 -0.2354093
0.37624127 0.06943806 -0.13406026 0.012694285 0.32703885 -0.02391497 -0.16256341 0.0828282
-0.0100352205 0.02160563 -0.27216384 -0.24283949 0.1380028 -0.2510924 -0.34683782 0.30650705
0.11526188 -0.294589 0.14081278 0.38726795 -0.19596072 0.06760589 -0.077566154 -0.06835644
0.047912117 -0.08471379 -0.17312656 0.063948795 -0.097580634 0.014265989 0.05860504 0.07178002
-0.20414622 -0.08148791 -0.045255788 0.3335496 -0.11572222 -0.09835189 -0.05582387 -0.04548672
-0.11379974 -0.08690319 0.03283797 0.052943274 0.25024137 0.36292487 0.024076186 -0.24155101
-0.02779999 0.045376044 0.09768712 -0.09064984 0.051232535 -0.13874179 -0.035845112 -0.07515254
0.045921575 -0.09116052 -0.606923 -0.0011732063 -0.21386978 -0.30724245 -0.10195518 0.03391688
0.12190425 -0.1436494 0.03179068 -0.012689041 -0.18490542 -0.0860089 0.1685672 -0.32978445
-0.010756461 -0.004654479 -0.14426632 0.014256276 0.0017449284 0.05954622 0.16643043 0.27817822
0.22525509 -0.28523204 -0.15998432 0.16063043 -0.102750346 0.073149584 0.08198732 0.19207476
-0.11574932 -0.1556888 -0.2436777 -0.14780374 0.17671737 -0.0846264 -0.04660363 -0.10892247
0.2585307 -0.1145341 -0.25852782 0.1868674 -0.28861448 -0.21464536 0.08327477 -0.3058069
0.31759545 0.27735338 0.07478182 -0.033243153 -0.019426662 0.07626475 -0.09160756 -0.2545109
0.0074183783 -0.10281195 0.07389453 0.0046025356 -0.014675711 -0.17873606 0.19221845 -0.15307607
0.08041777 -0.19239862 -0.10707621 -0.04207333 -0.023866814 0.087540865 0.07288189 0.028976928
0.08883782 -0.11021422 0.26321858 0.16648588 -0.10626764 -0.13366695 0.17931257 -0.056694042
-0.0063759116 -0.052163627 -0.04840722 -0.16777669 -0.095572405 -0.0007507885 0.06080648 0.07154127
-0.27317622 0.19764961 -0.17583168 -0.20164463 0.23676525 0.068584114 0.05016319 -0.14918259
00000000: 3dbb 56be be67 50be a458 c93d 7497 193e
00000010: 440f a13b 8941 403d fbe9 133d e07d 473d
00000020: 7dec 903e fcec 7ebd ec2c 4fb9 3a2e d33c
00000030: d99a 5d3e ec6c b0be 8d4c ab3b 81bb 3ebe
00000040: 17fe 27bc c19d a3be fd5e 063e 5da7 2cbe
00000050: 6010 f23d d164 713d 8922 49be 76d0 1c3e
00000060: 4056 093e c4dc bfbb dd6f 8d3d 4823 22bd
00000070: 0fd0 f8bd 9f0d a6be 7252 363e 125c 92be
00000080: 3d55 6f3e 86d9 94be 0eb2 d0bd 172e b3be
00000090: 23e5 1cbe deff 8d3d 5adb 2a3e 703e eb3c
000000a0: 336c ca3d 3dc6 473d 230f 0c3c d0fa 36be
000000b0: 7496 47be d41a 95bc 63ae b03d 5728 11be
000000c0: 90b2 973d 177b 9fbe 14f3 683e 6588 b83e
000000d0: e08e 283d 1e1b 9bbd 55f6 953d 9de0 823d
000000e0: 8f2b 3c3d 18cb 8d3d 0408 b93d cd3d 113e
000000f0: ff70 913d bd82 a8bd faab b3bc 386f 7fbd
00000100: 2c16 b13d 4a95 85be a5ee 2b3d 651c 833d
00000110: ffd9 8b3c 96a9 d63d 5c24 543d 49a9 5a3e
00000120: 07c3 c73d 4197 b43b aa4c 403c 3e17 a8bd
00000130: d31d 87be 3321 903d 5b07 f1bb 1a37 4e3e
00000140: 36b3 d13c cf45 553d 45af 173e 9d97 013d
00000150: dd08 b5bd f294 44bd 416a dbbd 69eb 3fbe
00000160: c976 943e 0715 bcbe 213d c33d 8c36 863d
00000170: 9ec2 40be cec1 b53d 8463 843e 549a 3a3d
00000180: c47c c8bd 93ce 36bd 21e3 d8be 071e ecbd
00000190: 14ff 27be ebd0 adba c0af 363e 230f 71be
000001a0: b2a2 c03e 8b35 8e3d 1847 09be b1fb 4f3c
000001b0: a371 a73e 54e9 c3bc 0677 26be d5a1 a93d
000001c0: c46a 24bc 4afe b03c 0f59 8bbe eaaa 78be
000001d0: 9b50 0d3e 2f8f 80be ba94 b1be 7eee 9c3e
000001e0: 6c0e ec3d 5fd4 96be 3a31 103e fc47 c63e
000001f0: eda9 48be f574 8a3d 01db 9ebd 76fe 8bbd
00000200: 7f3f 443d 6c7e adbd 1748 31be 96f7 823d
00000210: 5bd8 c7bd e5bb 693c d70b 703d 6701 933d
00000220: b50b 51be 22e3 a6bd 225e 39bd 03c7 aa3e
00000230: c5ff ecbd b76c c9bd 92a7 64bd 4850 3abd
00000240: d70f e9bd 4dfa b1bd 1b81 063d 0cdb 583d
00000250: a31f 803e 4ad1 b93e 6c3b c53c 2659 77be
00000260: cebc e3bc 3bdc 393d 2f10 c83d a0a6 b9bd
00000270: 35d9 513d 5412 0ebe 53d2 12bd 93e9 99bd
00000280: 4318 3c3d 5eb2 babd 4e5f 1bbf 45c6 99ba
00000290: ae00 5bbe e24e 9dbe e1cd d0bd 6dec 0a3d
000002a0: efa8 f93d d418 13be f236 023d b2e5 4fbc
000002b0: d957 3dbe 6f25 b0bd e19c 2c3e 82d9 a8be
000002c0: de3b 30bc 9a84 98bb 8dba 13be 2893 693c
000002d0: 15b6 e43a bde6 733d bd6c 2a3e 606d 8e3e
000002e0: 45a9 663e ef09 92be eed2 23be 4e7c 243e
000002f0: c66e d2bd 73cf 953d f8e8 a73d 3faf 443e
00000300: fb0d edbd e36c 1fbe a686 79be dd59 17be
00000310: 66f5 343e 9b50 adbd 73e3 3ebd be12 dfbd
00000320: 235e 843e db90 eabd c25d 84be 2b5a 3f3e
00000330: 47c5 93be fecb 5bbe f68b aa3d b992 9cbe
00000340: df9b a23e 4301 8e3e 3627 993d f929 08bd
00000350: aa24 9fbc b130 9c3d bf9c bbbd 414f 82be
00000360: de15 f33b 128f d2bd 0456 973d ded0 963b
00000370: 6572 70bc 9606 37be ead4 443e f9bf 1cbe
00000380: 12b2 a43d 2504 45be c64a dbbd 1655 2cbd
00000390: 5684 c3bc a048 b33d 1a43 953d 0661 ed3c
000003a0: 9af0 b53d feb7 e1bd 96c4 863e 467b 2a3e
000003b0: d9a2 d9bd fddf 08be b79d 373e 0338 68bd
000003c0: 06ed d0bb 87a9 55bd a646 46bd a7cd 2bbe
000003d0: 77bb c3bd 90d0 44ba 3710 793d 3b84 923d
000003e0: c1dd 8bbe a964 4a3e 380d 34be ee7b 4ebe
000003f0: 9772 723e d475 8c3d eb77 4d3d 52c3 18be
