resources/imgreco/inventory/ark_material.onnx (onnx, 198546 bytes, 8 tensors)

35 f4 [32, 3, 5, 5]
000000 5e 3b fc be b7 56 10 be fe e9 9d bf 37 8c 8f be
       -0.49264044 -0.14095579 -1.2337034 -0.28036663
000010 ae 0c a2 be e8 20 97 bf 40 27 ac 3f 6a 3c fd 3e
       -0.316503 -1.1806917 1.3449478 0.49460155
000020 1b 59 4c 3d e4 21 41 3f c5 8e 9e 3f 53 48 7b bf
       0.049889665 0.7544234 1.238732 -0.98157233
000030 38 53 a9 bf 2b e9 45 3f 5d be 48 3f 22 9b 42 3f
       -1.3228521 0.7730891 0.7841547 0.76017964
000040 17 2a 72 bf e7 1c 49 be b1 e4 80 3f eb 6b b5 3f
       -0.94595474 -0.19639932 1.0069791 1.4173559
000050 c1 4b 8f be 9a 8e a7 bf 85 53 d7 bf 7c 01 32 3f
       -0.27987483 -1.3090394 -1.6822363 0.69533515
000060 c3 99 e9 be 7b 6c a1 3e 1a a8 c9 3e 49 6e 21 3f
       -0.45625123 0.31528077 0.39386064 0.63058907
000070 66 fb 30 bf 67 a6 82 be e5 cc c4 3f 44 7e e0 be
       -0.69133604 -0.2551758 1.5375029 -0.43846333
000080 a8 25 a9 bf 9c 70 33 3e 50 72 b6 3f 55 1a 8d be
       -1.3214617 0.17523426 1.4253635 -0.27559152
000090 1a be 8f bf d4 3b 5d 3d 7b 07 40 3f c3 fe 81 3f
       -1.1229889 0.054012135 0.75011414 1.0155872
0000a0 ae d1 ef be df 5c ab 3f 6e 7f c4 bf f7 09 58 bf
       -0.4683966 1.3387717 -1.5351388 -0.84390205
0000b0 2d 6a 95 3e 6f ad 8a bf c8 9a ad 3f 0e 96 6a bf
       0.29182568 -1.0834178 1.356286 -0.91635215
0000c0 39 69 8d bf f7 5e b3 3f bd 83 0f 3f b8 d6 b2 3f
       -1.1047736 1.4013356 0.5606039 1.3971777
0000d0 c1 65 88 3f 06 81 73 bf db 2a c7 bf d4 0e de 3f
       1.0656053 -0.9511875 -1.5559953 1.7348275
0000e0 d1 e2 74 be e0 12 ac bf 98 0e 80 3f e3 dd 3c bf
       -0.23914649 -1.344326 1.0004454 -0.7377607
0000f0 e6 99 5b bf 63 66 40 3f ca 4b a7 3e 58 0d e7 be
       -0.85781705 0.7515623 0.3267501 -0.45127368
000100 ba e3 6a bf ce 1a e5 3f 02 ea 57 bd 2c bf a4 be
       -0.91753733 1.7898805 -0.0527134 -0.32177103
000110 fe 14 4a bf 6d 42 1f bf 3b b1 0a bf 48 94 98 3e
       -0.7893828 -0.6221073 -0.5417668 0.2980063
000120 3f b7 86 bf ce 1d 23 3e 41 00 9e 3f 45 78 14 bf
       -1.0524672 0.15929338 1.2343827 -0.57996017
000130 eb fe 91 3e 52 da 99 be 65 fd 1a bf 10 af bb bd
       0.285148 -0.30049378 -0.605429 -0.0916425
000140 24 5c bd 3e c9 24 ae 3e dd 97 2d bf d1 a1 68 be
       0.3698436 0.3401244 -0.6780985 -0.22717978
000150 77 28 b7 be 51 45 3e 3f d9 87 7c be 8c 3a 5d 3e
       -0.3577306 0.7432452 -0.24661197 0.21604365
000160 d8 81 8f be 96 9c af 3e 41 bc d0 3e 3f 81 01 be
       -0.2802875 0.34299153 0.40768626 -0.1264696
000170 ba 31 c8 3c d2 bb 2b 3f 78 c6 90 bc cf 26 2a 3e
       0.024437774 0.67083466 -0.017672762 0.16616367
000180 07 42 92 3d 83 27 57 3f ab 1e 15 3f fa e8 82 3f
       0.071415 0.84044665 0.5824992 1.0227349
000190 40 2d 47 bf b5 b2 05 bf 74 fb 52 3e 8f 22 37 be
       -0.7780342 -0.5222581 0.20603734 -0.17884277
0001a0 91 2a 1b bf 16 ae d3 3d ea 8a 56 be eb 41 11 bf
       -0.60611826 0.10335939 -0.20951429 -0.5674121
0001b0 90 56 83 be d0 36 58 3d 3b ef 53 3d bd 25 1e 3f
       -0.2565198 0.05278665 0.05174182 0.61776334
0001c0 68 2f 1b be 88 76 d1 be d7 79 88 be e8 12 bd be
       -0.15154803 -0.40910745 -0.26655456 -0.36928487
0001d0 db 99 a3 3e 50 2c d2 be ae 30 2a be d9 2f 2b be
       0.3195332 -0.41049433 -0.16620132 -0.16717471
0001e0 d6 a0 fb 3e 3b e7 32 bf b3 29 10 3f a3 d9 04 bd
       0.49146146 -0.6988408 0.5631363 -0.032434117
0001f0 6d 2b 13 be 76 e1 36 bf da d2 b9 be 80 68 a0 3e
       -0.14372034 -0.71437776 -0.3629368 0.31329727
000200 e1 2e 36 3e ed 8f 89 be cb a1 0d bf 80 7b 87 3d
       0.1779132 -0.2686762 -0.55325 0.06615353
000210 09 31 f5 be 16 f9 11 3e 0b 1b 06 3f f1 92 9a 3e
       -0.47888973 0.14255175 0.52385014 0.30190232
000220 ba e9 03 be a2 96 09 3e 64 c7 fd 3e fc 63 11 3e
       -0.12882128 0.13436368 0.49566185 0.14198297
000230 b9 a0 36 3f b8 cb 24 be 82 f3 fc 3e 83 1f 71 be
       0.71338993 -0.16093338 0.49404532 -0.23547177
000240 5b 43 52 be b8 5c 92 bc 6d 57 24 3f 03 04 ca bd
       -0.20533507 -0.017866477 0.641959 -0.098640464
000250 69 e0 3b 3f 84 8a a0 3d 71 ec dc 3e 5b 8e 08 3f
       0.733893 0.0783892 0.4314914 0.5334222
000260 f8 fb 0f 3e de 66 1a bf c6 bf 53 3e 43 b6 86 3e
       0.14060962 -0.6031321 0.20678625 0.2631093
000270 25 e5 0b 3e 94 b9 6f be 24 96 ab 3e a2 c8 69 3e
       0.1366163 -0.23410636 0.33512986 0.22830442
000280 5c f9 93 3e 08 f4 fe bb 18 ea 04 bf 0a da fd 3e
       0.28901184 -0.0077805556 -0.519197 0.49580413
000290 7c ee 03 bf 64 fa a4 3e 19 4c 9c 3e 28 44 f0 3e
       -0.51535773 0.32222283 0.30526808 0.46927
0002a0 71 eb 0e bf e2 85 39 3f d5 58 2d 3f bf 41 e5 3e
       -0.55828005 0.72469914 0.6771367 0.44776723
0002b0 26 42 a5 3e 4f 61 10 bf f4 c7 c6 be 08 33 cd bc
       0.3227703 -0.5639848 -0.38824427 -0.025048748
0002c0 3d 4b 83 3e 0d f5 0b 3e 37 b8 3b bf 9e b2 4b 3e
       0.2564334 0.13667698 -0.73327965 0.19892356
0002d0 49 7d 24 3e 4d 61 a2 3e b6 ce 3e bf 29 da 11 bf
       0.16063417 0.3171486 -0.74534166 -0.5697351
0002e0 3f 58 fa be d4 30 78 be b8 f5 3c be 18 64 f3 be
       -0.4889545 -0.24237376 -0.1845311 -0.47537303
0002f0 a3 4a c4 3c 7d 0a a8 be b1 ca 99 bd c8 a2 cc 3e
       0.02396137 -0.32820502 -0.075093634 0.39967942
000300 88 49 3e bf 76 7e 31 bf 11 01 e8 be fb b8 33 bf
       -0.7433095 -0.6933359 -0.45313314 -0.7020413
000310 1b 1b 84 3e 83 28 d6 be 70 d7 1b 3d 65 9e dc be
       0.2580193 -0.41827783 0.038047254 -0.43089595
000320 a9 fb ad bd 88 18 75 3d 3d 4a bd be 70 e3 01 be
       -0.08495266 0.059837848 -0.36970702 -0.12684417
000330 a1 3d 88 be 59 a6 b4 3e 6d a0 fd 3e da 56 9e bd
       -0.2660952 0.35283163 0.49536458 -0.07731409
000340 f8 94 52 be 41 8a 9e be 1d 34 da 3e 9e a1 fc 3e
       -0.2056464 -0.30964854 0.42617884 0.49342054
000350 81 9c c8 be ae 8b 0c 3f 91 92 1d be ed a6 2a 3d
       -0.39181903 0.54900634 -0.15387942 0.0416631
000360 e2 85 cc be 04 fc ef 3e 4f 29 0c bf 5b 9f 8a 3e
       -0.39945894 0.4687196 -0.5475053 0.27074704
000370 e7 68 9b 3e 9a 57 e5 3e 6e 6e 0d 3d f8 16 03 3f
       0.30353472 0.44793397 0.034529142 0.5120692
000380 14 03 02 bf 5c ca 83 3f 1a 9b e1 be c3 99 9f 3f
       -0.50785947 1.029613 -0.44063646 1.2468799
000390 79 1c 1c 3e 90 a3 57 3f b8 01 ef bd 2a 30 84 3f
       0.15245236 0.8423395 -0.1167025 1.0327199
0003a0 f7 d9 29 be 8b 0c 84 bf b1 cc 34 bf 48 07 7f bf
       -0.16587053 -1.0316328 -0.70624834 -0.99620485
0003b0 7c 46 29 3e 24 ef 37 bf 03 d4 b0 3f dd b4 6f 3f
       0.16530794 -0.71849275 1.3814701 0.9363535
0003c0 c7 2c 7e 3e 22 fa cd bf 79 15 d2 bf bd 53 28 3f
       0.24821769 -1.609196 -1.6412803 0.65752774
0003d0 f4 23 b4 3f c1 0f f0 bf 42 dd b1 be 73 19 a3 bf
       1.4073472 -1.8754808 -0.3473912 -1.2742141
0003e0 54 2c 6f bf 56 26 0b 3f ae 74 0a bf e9 54 a6 3f
       -0.93427014 0.5435537 -0.5408429 1.2994663
0003f0 c0 1e 19 3c 1c c2 50 3e c3 c0 b8 3f 87 5f d7 bf
       0.00934571 0.20386547 1.4433826 -1.6826028

36 f4 [32]
000000 07 d9 02 3f e2 bc 00 bf fb 88 4f 3f 36 69 29 bf
       0.5111241 -0.5028821 0.8106839 -0.66176164
000010 96 1b 8e bf 89 6b 38 be c3 05 b3 3f 9a d0 f0 3f
       -1.1102169 -0.18009771 1.3986133 1.881366
000020 5e 3f c6 3f ec 71 ff 3e 45 54 51 bf 36 be 05 bf
       1.5488088 0.49891603 -0.8176921 -0.52243364
000030 50 d1 75 3e fe 5a 0b c0 a7 90 5d 3e e0 27 a0 3f
       0.24005628 -2.1774287 0.21637212 1.2512169
000040 61 47 da 3e 98 19 d3 bf d6 de ef 3f 5b 13 5b bf
       0.42632583 -1.6492186 1.8739879 -0.8557641
000050 19 63 39 3f 9a b8 8c 3f f4 1e c1 3f 09 ee ef 3e
       0.72416836 1.0993836 1.5087571 0.46861294
000060 7b f1 c5 bf e9 08 ac 3f 92 e1 05 c0 64 95 a1 3e
       -1.5464319 1.3440219 -2.0918927 0.31559289
000070 af 01 01 40 23 a9 9e 3f b3 4a 74 3f 58 56 1e be
       2.0157278 1.2395366 0.9542648 -0.15462625

38 f4 [32, 32, 3, 3]
000000 92 ae af be c2 0a c4 3e 84 84 b2 bd f6 74 ee be
       -0.34312874 0.38289458 -0.087166816 -0.4657361
000010 f9 e2 27 3d 12 40 4c 3e de 29 a1 be 8a 86 10 3f
       0.040987942 0.19946316 -0.31477255 0.5645529
000020 57 2c e5 3d 65 40 af bd 18 4e bb be 40 e6 08 bd
       0.11190098 -0.08557204 -0.36583018 -0.03342271
000030 29 9c 25 3e 42 7e 02 bf b9 fd 81 3e 19 fc ec 3d
       0.16172852 -0.50973904 0.25388888 0.11571521
000040 ba d0 61 bd 76 ab e6 3d ef 77 c6 be 26 9a 15 be
       -0.055130698 0.11263172 -0.38763377 -0.14609584
000050 39 ca 7a be 7c c0 69 3d 14 d7 91 3e e6 b6 73 3e
       -0.24491204 0.057068333 0.28484404 0.23800239
000060 8e 17 e8 3d 05 a3 bf bd 47 89 83 be 4c 7f 8d bd
       0.11332618 -0.093572654 -0.25690672 -0.069090456
000070 fb 2e f9 bd 63 aa 23 3e 45 76 ca be ee c3 06 be
       -0.12167164 0.15982966 -0.39543357 -0.13160679
000080 f7 1d 15 bf 62 68 c7 be 93 ad 08 bf 79 ed 1f be
       -0.5824885 -0.38946825 -0.53389853 -0.15617932
000090 38 40 90 be 5b 8d 2f be bf e6 b7 3d 17 20 67 3d
       -0.28173995 -0.17143767 0.08979558 0.056427088
0000a0 f5 9c 8b bd be 69 8e 3e 61 a7 10 3e 7b 43 ce 3e
       -0.068170466 0.2781505 0.1412635 0.4028586
0000b0 cd 7e 73 3e 72 e9 39 3e f7 c3 0d 3f 3c 7f 8b 3e
       0.2377884 0.18155459 0.55377144 0.2724551
0000c0 65 e0 e9 3d de 68 3f bd fc c7 0a be 9b b9 83 3e
       0.11419753 -0.04673087 -0.1355285 0.25727543
0000d0 35 50 5d 3e 0d b0 e0 bd 48 c4 89 be e8 ec 16 be
       0.21612628 -0.10971079 -0.26907563 -0.1473881
0000e0 a0 2e e3 3e a3 55 6b 3e 00 23 0f 3e c8 7a a3 3d
       0.4437151 0.22981887 0.13978195 0.07982403
0000f0 ed 99 81 3e 6f 83 33 3e 18 57 51 bd 57 c4 a5 bd
       0.2531275 0.17530607 -0.05110845 -0.080940895
000100 dc df 59 bd 17 bd 85 3c fa 49 53 3d 8f 3d b0 3c
       -0.053192005 0.016325517 0.05158422 0.021513728
000110 7a 44 88 be 29 0a 82 be 50 b5 d9 be 21 06 6b 3e
       -0.26614743 -0.25398377 -0.42521143 0.22951557
000120 2e 84 fb 3e 2a 4f 5d 3e 3f 21 a3 be 90 23 a0 bd
       0.49124283 0.2161223 -0.31861302 -0.07819283
000130 cb c4 de 3e 4c fc 74 3e 2e 42 ed bd ec e7 0d bf
       0.43509516 0.23924369 -0.115848884 -0.5543201
000140 46 94 5f 3e 5d 4c 73 3e 09 b3 af bd 08 36 07 be
       0.21833906 0.23759599 -0.0857907 -0.13204205
000150 71 ae 16 bd 0d c4 5e be 5c 3f 58 3d 37 45 b8 3d
       -0.036787454 -0.21754475 0.0527948 0.08997577
000160 bb c7 b8 3e b5 b3 c7 bd 9c fb ce 3e 12 86 a4 be
       0.36089882 -0.09751073 0.40426338 -0.32133538
000170 d5 66 02 3e 4b 4a 07 3f 76 92 46 bc 71 d4 b7 be
       0.1273454 0.5284774 -0.01211988 -0.35904267
000180 94 da e5 3d 87 6d 34 be 00 ca 47 3c 22 61 e9 bd
       0.11223331 -0.17619906 0.012194157 -0.1139548
000190 8a c2 8f be 90 f6 9f 3e aa bc 27 3e 0b 54 ae be
       -0.2807811 0.312428 0.16380563 -0.34048495
0001a0 8d df 98 3e b6 7d 31 3f be a2 28 3f 55 2e e3 3e
       0.29858056 0.69332445 0.65873325 0.44371286
0001b0 e4 7a 52 3e e0 20 bd be 42 27 3d bd 90 2f 82 3c
       0.20554692 -0.36939144 -0.046180017 0.01589182
0001c0 c4 39 fb be 88 eb b1 be aa c0 06 be 44 b1 ce 3e
       -0.4906751 -0.3475001 -0.13159433 0.40369618
0001d0 c8 14 23 bf 42 d7 92 3e 04 4b ff 3d 6a bc 6a 3d
       -0.63703585 0.28679854 0.1246548 0.057308592
0001e0 d9 c4 8a 3e 37 fa 00 be 6d cb 8d 3e 40 27 ca 3e
       0.27103308 -0.1259545 0.27694264 0.3948307
0001f0 b6 1e 00 be 3e 32 fc be 62 00 a1 be 82 2a 3c 3e
       -0.12511715 -0.49257082 -0.31445605 0.1837559
000200 31 35 dc 3e ee 54 24 3e 5c a9 09 bf 15 f4 1a bf
       0.43009332 0.16048023 -0.53774047 -0.6052869
000210 08 ce a0 b9 27 ba 6d be 90 4c 82 3d 5f 40 35 bd
       -0.00030671083 -0.23215543 0.063622594 -0.044250842
000220 5c de a7 3e 74 0c 03 bf cb 6d 75 be a0 c0 91 be
       0.32786834 -0.51190877 -0.23967664 -0.28467274
000230 2e 77 b6 be 83 99 2d be 21 ed 4a be 9f 05 80 3e
       -0.35637802 -0.16953091 -0.1981702 0.2500429
000240 00 bb 97 bc 04 02 d3 3e f3 90 ba be 27 0f 03 bf
       -0.018521786 0.41212475 -0.36438712 -0.51194996
000250 7d 80 87 3e 9d fe 97 bd 50 3e de be d3 a3 50 bd
       0.26465216 -0.074216105 -0.43406916 -0.050937485
000260 dd a0 80 3d 15 99 c4 3d 3f e2 8c bd 2c b3 d4 3d
       0.06280682 0.095995106 -0.068790905 0.10385737
000270 0b 61 6c 3c 63 cc 0b 3d 99 d5 32 3d fc bc 15 3c
       0.014427434 0.034130465 0.043660734 0.009139296
000280 af 8d d9 3d 3f 6c 0e bc aa 72 47 3e 3c 08 5c be
       0.10622727 -0.0086928 0.19477335 -0.21487516
000290 18 bd e6 bd e2 a6 d1 3e ca 12 86 be e3 aa 40 bd
       -0.112665355 0.40947634 -0.2618621 -0.04703797
0002a0 f6 2a c6 3d 85 c8 44 3e 92 7f ff bc 4e c2 99 be
       0.09676163 0.19217117 -0.03118876 -0.30031055
0002b0 ed 7d 3a be 89 e1 f6 3c 7a 2c ab 3e 05 9f 46 bd
       -0.182121 0.03013684 0.3343237 -0.048491497
0002c0 20 49 96 3d 4f 82 4a be d7 3d fa 3d 13 1f d8 3e
       0.07338166 -0.19776271 0.12218826 0.42211208
0002d0 ac 12 00 3d 8e 60 7a 3d 03 0e 63 be ae 93 8c be
       0.031267807 0.061127238 -0.22173314 -0.2745642
0002e0 26 7f ba bc 98 2c 41 3e 95 9c a7 3d 64 e7 c9 be
       -0.022765707 0.18864667 0.081841625 -0.3943435
0002f0 29 8e 57 be 7d 48 0a 3e bd d5 bd 3e 0b b4 01 3f
       -0.21050324 0.13504215 0.37077132 0.5066535
000300 80 ef b2 3e 61 84 1c bf e5 10 05 bf 20 c9 26 be
       0.3494835 -0.61139494 -0.51978904 -0.1628766
000310 ef 2b 57 be 3c 65 11 be b6 ca c2 3d 34 bd cd bd
       -0.21012853 -0.14198774 0.0951132 -0.10045853
000320 ca b1 cf be 22 11 62 be c7 f2 1a bf 56 e9 ef be
       -0.4056533 -0.22076848 -0.605267 -0.4685771
000330 19 03 b1 3e cd 1f a6 3e 82 50 c9 be 87 f7 9e 3d
       0.34572676 0.32446137 -0.39319235 0.07762056
000340 a8 c5 5a be 06 0f c1 3e e9 87 07 3e e7 f8 92 3e
       -0.21364462 0.37706774 0.1323544 0.28705522
000350 39 01 fb bd 2f b2 82 3d 65 07 1f 3f d0 7d 25 3f
       -0.122560926 0.06381642 0.6212066 0.646451
000360 9e 2f be 3d c4 d9 27 3e 37 14 b5 bc aa 92 bd bd
       0.09286426 0.16391665 -0.022104366 -0.092564896
000370 c4 d7 bb 3e 4d f9 a0 be 9d 19 97 be b1 b3 6e be
       0.36688054 -0.314402 -0.2951173 -0.23310734
000380 07 93 8e bd 08 36 9b be 87 2d 2d 3e 88 6b d7 3e
       -0.06961637 -0.3031466 0.16911899 0.42074227
000390 6f 1d 0f bf 5e 17 3e be 69 4c b5 3e 4e 00 c0 be
       -0.5590429 -0.18563601 0.3540986 -0.37500232
0003a0 cc cf 0d bd 41 05 a7 3c 91 48 d2 3b 3f c6 88 be
       -0.034622 0.020388247 0.006417342 -0.2671375
0003b0 4d 89 8f be b3 ab 36 3d ba e4 00 be 31 cd a0 be
       -0.2803444 0.04459734 -0.12587252 -0.3140655
0003c0 6b 04 d2 bd 19 80 51 3e 95 77 b6 be 8f 3c 2f bf
       -0.10254749 0.20459022 -0.3563811 -0.6845178
0003d0 a8 e1 4e 3b dc 10 a5 bd 04 85 c8 be b4 f9 b2 3e
       0.0031567607 -0.08059856 -0.39163983 0.34956133
0003e0 66 05 2d 3d b9 c4 d0 be c5 3e 56 3e 0e 02 13 3f
       0.042241476 -0.40775087 0.20922382 0.5742501
0003f0 27 a4 1d be da 04 86 3e dc d6 86 be c9 96 c2 3e
       -0.1539465 0.26175576 -0.263358 0.38005665

39 f4 [32]
000000 bc 7f b2 3f 3c b1 82 bd 64 97 f5 3e ef f7 59 bf
       1.3945231 -0.06381461 0.47967064 -0.8514394
000010 ab 19 ba 3f ac 6b d1 3d 4c c5 30 3f 9a 73 ba 3f
       1.4539083 0.10225615 0.6905105 1.4566529
000020 e0 98 6e bd be 26 23 bf 99 85 1f 40 d8 6b 6d 40
       -0.05825126 -0.6373099 2.4925292 3.7097073
000030 78 98 2a 40 90 7f 54 3f 46 fa 18 3e 96 fd 02 be
       2.665556 0.83007145 0.14939222 -0.12792048
000040 68 33 91 bf 12 e0 5b 40 8c c8 d5 bf a4 34 a3 bf
       -1.1343813 3.4355512 -1.6701827 -1.275044
000050 70 4e 10 c0 58 40 f5 bf 0d 04 15 c0 4e 7e ec 3e
       -2.2547874 -1.9160261 -2.3283722 0.46190113
000060 0e f2 1d 40 67 83 98 bf c9 7a fb 3f 00 df 6d 3e
       2.4678988 -1.1915101 1.9646846 0.23229599
000070 8b 21 13 40 90 32 68 3e 27 b4 e5 3f 49 17 26 3f
       2.2989223 0.22675538 1.7945603 0.6487928

fc.0.bias f4 [174]
000000 6e 67 58 3d 25 76 06 bd 72 07 d2 3d d6 55 bf 3c
       0.052833013 -0.032827515 0.10255326 0.02335636
000010 89 ca 20 3d f8 9b e5 3c 60 24 2b bd 9c 58 05 3e
       0.039255653 0.028028473 -0.041782737 0.13022083
000020 3e 85 1b 3d ea 8e 23 3b 15 01 5c 3c 35 ae 36 bd
       0.037968867 0.002495701 0.013427992 -0.04459973
000030 d6 40 b6 bb 0d c4 d0 3d 50 dd 3c bd 79 d2 05 3d
       -0.0055619283 0.10193644 -0.046109498 0.032671425
000040 84 44 d5 3d 34 80 83 b6 08 00 7d 3c 3e 06 fc 3c
       0.10413459 -3.919029e-06 0.015441902 0.030764695
000050 08 5b 2a 3c 26 1c e5 3d 0f a2 a0 3d 1a 0c 26 bc
       0.01039768 0.111870095 0.0784341 -0.010134721
000060 16 5e 03 3d 34 21 17 3d 01 2a 99 3d 7c e4 61 3d
       0.03207215 0.0368969 0.07478715 0.05514954
000070 3f ca 89 3d f8 ca 30 bd bf 04 7e 3d 90 f8 f5 3c
       0.067280285 -0.043162316 0.062016245 0.03002575
000080 84 c9 a6 3d 52 9c 1d 3d 61 18 8d 3d 59 fd 70 3d
       0.08143905 0.038479157 0.068894155 0.05883536
000090 bf 30 0a 3e 32 62 30 3d cc 1d ea 3c 18 2a 22 bd
       0.13495158 0.043062396 0.028578661 -0.039590925
0000a0 bb dd eb 3d 3e 6b 9d 3c 28 d9 a1 3d e2 b1 b4 3d
       0.11516901 0.019216176 0.079027474 0.08822991
0000b0 a4 a0 65 bd 3c 00 9a bc b6 2a de 3d 0a c6 52 3d
       -0.056061402 -0.01879894 0.1084799 0.051458396
0000c0 28 89 c8 3d f0 fe fc 3d 75 90 04 3d 5f 35 80 bd
       0.097917855 0.12353313 0.032364327 -0.0626018
0000d0 52 ca 53 3d c1 9c c7 3c 3f dc f2 3d 07 56 3b 3d
       0.05170662 0.024366738 0.11858415 0.04573634
0000e0 88 95 88 3d 12 8c 05 3e 58 c0 4f 3d 10 8d 6a 3d
       0.06669146 0.13041714 0.050720543 0.057263434
0000f0 d6 1e 1f 3b 32 e2 2f 3d 58 70 4d 3d 59 83 97 3d
       0.0024279854 0.042940326 0.050155967 0.073980995
000100 9d cd d2 3d 4a f1 73 3d 84 86 d5 3d 8a 8e 89 3d
       0.10293124 0.059556283 0.104260474 0.0671664
000110 10 1f bc 3d d9 29 24 bb 10 eb b7 3d d1 6e 7f 3d
       0.09185612 -0.0025049357 0.089803815 0.062361542
000120 93 c6 1f 3d cb d4 e7 bc c4 e2 fe bc 40 0a 54 3d
       0.039007735 -0.02829971 -0.03111399 0.051767588
000130 98 89 c9 3d 06 06 bb 3d a5 84 84 3d fd 45 ae 3d
       0.09840697 0.09132008 0.064706124 0.08509443
000140 88 be d6 3d 9d 2c b1 3d a6 cc ae 3d b6 88 b2 3b
       0.1048556 0.086510874 0.08535127 0.005448426
000150 0b e0 cb bc ec b4 fc 3d 39 77 95 3d c4 7f bd 3d
       -0.024887105 0.123391956 0.072981305 0.09252885
000160 f9 ab 53 bc 12 53 23 bd 47 ca 77 bc ca cc 10 3d
       -0.012919419 -0.039874144 -0.01512391 0.035351552
000170 9e 94 6e 3c 0d d2 51 bc 60 6a d9 3d 0e f3 41 3d
       0.0145618 -0.012806428 0.106159925 0.047350936
000180 51 cf c6 3d 7a 51 c5 3d 59 b9 f9 3c 56 65 c9 3d
       0.09707511 0.09634681 0.030483888 0.098337814
000190 69 3e be 3d 92 e3 80 3d 25 f9 3c 3d 64 01 4a 3b
       0.092892475 0.062934056 0.04613604 0.0030823583
0001a0 9c 18 0b 3e bd 7c 95 3c c3 0f b2 3d 0a 21 96 3d
       0.13583606 0.018247956 0.086944126 0.073305205
0001b0 25 4e 5b bd 46 79 89 bd ff ce ca 3c d1 68 02 3d
       -0.05354132 -0.06712584 0.024756907 0.031838242
0001c0 26 d1 c0 3d 28 f2 a1 3d cf 2b 83 bc 27 e9 dd 3d
       0.09414892 0.07907516 -0.0160121 0.10835486
0001d0 10 f2 c5 3d 49 66 d0 3d d7 cf dc 3d 28 0c 59 3d
       0.096653104 0.10175759 0.1078183 0.05299011
0001e0 9d 78 16 3d fe 35 da 3d 7d fe 43 bd 04 dd c0 3c
       0.03673612 0.106548294 -0.04785012 0.023542888
0001f0 f5 ca 9e bd dc fc d9 bc 3f 2d 70 bc f2 ad 56 bd
       -0.07753555 -0.02660983 -0.014659225 -0.05241198
000200 5d 8f 04 3e 29 6f 87 3d 6d a4 00 3e c1 fb c4 3d
       0.12945314 0.06612999 0.12562723 0.09618331
000210 3c cd fc bc 9c 61 ed 3d ae 52 2b bc 50 66 00 3c
       -0.030859582 0.11590883 -0.010456724 0.007836893
000220 d6 77 24 3d 6b cf 3d 3d 52 14 40 3d f5 6e aa bc
       0.040153347 0.046340387 0.04689438 -0.020804862
000230 27 24 46 bd 5a a4 ed 3d 45 7a c5 3d 42 aa a7 3d
       -0.04837432 0.11603613 0.09642462 0.08186771
000240 2e 3d c4 bc 6d 22 72 3d 2f 65 cc 3d df 67 32 bb
       -0.023954954 0.059114862 0.09980237 -0.0027222557
000250 a9 b3 7d 3d 6f e0 a4 bc c1 76 22 3d 29 49 c5 bc
       0.061938915 -0.02012655 0.039664034 -0.024082737
000260 6c 2e 9f 3d 8d 6a eb bc 9c e3 91 3a d0 94 bf bc
       0.07772526 -0.02873733 0.0011130455 -0.023386389
000270 9b f7 e1 3d 64 84 50 bb b8 f4 cd bd 51 64 fc 3d
       0.11033555 -0.0031817192 -0.10056442 0.12323821
000280 45 2e a9 bc a1 54 95 bb 58 3f b6 3c a2 c4 a4 3d
       -0.020651946 -0.0045572077 0.022247002 0.08045317
000290 02 1f 15 3d a5 11 14 bd de 11 28 bd 98 e8 dd 3c
       0.036406524 -0.03614964 -0.041032664 0.027088448
0002a0 f0 ee fb bc 7d d8 6b 3c 49 96 b0 ba aa 67 24 bb
       -0.030753583 0.014394877 -0.0013472523 -0.0025086203
0002b0 d8 21 e3 3d 58 06 21 bc
       0.110904396 -0.009828173

fc.0.weight f4 [174, 128]
000000 08 21 0f 3e 72 06 0a 3e 04 b1 a6 bd a8 46 b7 bc
       0.13977444 0.13479021 -0.08139232 -0.022372559
000010 9b d5 69 bd 05 08 2a 3d 5d 78 1f bc ea 7b f1 bc
       -0.057088476 0.041511554 -0.009733287 -0.029478032
000020 07 55 81 3d ca c9 18 bb 23 74 9b bd 5e a2 82 3c
       0.06315046 -0.0023313635 -0.07590511 0.015946563
000030 cf 0a 1c bd 4b f2 11 3e ff f1 19 bd 9f 66 c4 3d
       -0.038096245 0.14252584 -0.0375843 0.09589886
000040 42 c1 35 be ca 53 1d bc 7b ee cb 3d 57 20 83 3d
       -0.17749503 -0.009602496 0.09957596 0.06402653
000050 a4 1f 10 bd 55 bc bd bd f8 7c 96 3d 7a 95 97 b9
       -0.035186425 -0.09264437 0.07348055 -0.00028912333
000060 37 d8 59 3d 84 aa 6a 3c b8 63 9e bc f8 28 18 3e
       0.053184714 0.014322881 -0.019334659 0.14859378
000070 ab 50 5a bd 49 4f 50 bd dd c3 29 3e 8a 35 65 bd
       -0.053299587 -0.050856862 0.16578622 -0.055959262
000080 6c 99 44 bd 33 38 5d 3c 85 2f 2b 3d f3 9a 8d bc
       -0.047997877 0.0135021685 0.041793365 -0.0172858
000090 44 f1 be 3d dc f0 d5 b9 6f ff 8c 3d b7 14 27 bc
       0.093233615 -0.0004080598 0.068846576 -0.01019781
0000a0 f9 78 fd bd 54 3a 1d be 44 86 38 3d ab 27 f6 3d
       -0.12376589 -0.15354282 0.04504992 0.12019285
0000b0 5f c1 fd 3c 56 94 81 3b 04 3f 02 3e 83 15 39 3e
       0.030975996 0.0039544506 0.12719351 0.18074612
0000c0 bd bb 52 bc fd 18 1b 3e ac f7 52 bb 5f e6 33 bd
       -0.012862143 0.15146251 -0.003219108 -0.04392087
0000d0 8f b3 bc bd 51 2f 46 3d ff 73 0b 3e 86 bd 9b bc
       -0.092139356 0.04838497 0.13618468 -0.01901127
0000e0 d4 1e 42 bd 0f 22 50 3d 0d 33 c1 3d b2 39 27 3e
       -0.04739268 0.05081373 0.09433565 0.16330603
0000f0 08 7c bc 3d cb 12 27 bc 4e 04 1c 3c 34 7b 16 3d
       0.092033446 -0.010197352 0.009522511 0.03673859
000100 8f 6d f4 3d 48 67 6f bd a7 6a 6c 3e 12 87 b3 3d
       0.11934959 -0.058448106 0.2308756 0.08765997
000110 fd d9 83 3c 3c 78 fe 3d a3 92 84 3d d7 51 b9 bd
       0.016095156 0.12425277 0.06473281 -0.09048813
000120 99 36 91 3c 5b 14 13 bd 35 86 ad 3d 86 61 b4 3d
       0.01772623 -0.035908084 0.084728636 0.088076636
000130 83 3b ed bd fe 75 9a 3c ac 13 a1 3d e0 0d cf 3d
       -0.115836166 0.018855091 0.0786508 0.10110068
000140 71 b5 48 3e 45 62 41 3e b6 96 65 3d 81 75 cd bd
       0.19600464 0.18885143 0.056051932 -0.10032178
000150 ca f3 6a 3c 53 96 2c bd 53 78 8b 3b 4a 0b 9e 3d
       0.01434035 -0.042135548 0.004256287 0.07716997
000160 18 8f 7d bd e2 d4 c1 bc 65 7e 72 be 4e 5a 73 bd
       -0.061904043 -0.02366108 -0.23681028 -0.059412293
000170 1f b1 0e bd 55 63 92 bd 5a e7 15 be 20 9a ac bd
       -0.034836885 -0.07147852 -0.14639035 -0.084278345
000180 e3 62 fa bd eb 3a a6 3d 61 96 ad 3c 63 a6 f6 3d
       -0.122258924 0.081167065 0.02118987 0.120434545
000190 4b 55 8e bd ea ca 03 be d2 bf f9 3d 1b 35 70 3d
       -0.06949862 -0.12870374 0.1219479 0.058644395
0001a0 1e d8 10 3d 68 34 2c ba 34 24 00 be e2 db 00 3e
       0.035362355 -0.00065690884 -0.1251381 0.12583879
0001b0 c6 ca a0 3d 8b 1a 0d 3d 4b 3b 95 3d 1a 40 41 3d
       0.07851176 0.03444914 0.072867 0.047180273
0001c0 a7 cf 8a bd 4d 5c 92 bd 52 1f 18 3e 86 b5 84 bd
       -0.06777888 -0.07146511 0.14855698 -0.06479935
0001d0 c1 ef 05 be 13 7d 1e 3d c9 c5 05 3e 3b 99 02 3c
       -0.1307974 0.0386935 0.1306373 0.007971103
0001e0 41 01 d7 bd 0a 9b d9 3c 1e 10 e3 bd 33 24 29 3e
       -0.10498286 0.026563186 -0.110870585 0.16517715
0001f0 18 92 23 3d ce cb 4d 3e 9e d5 17 3e cb 0b 8c 3d
       0.039934248 0.20097277 0.14827582 0.06838187
000200 6f 81 0a 3e 9d d3 a1 3d b2 15 36 3a 08 67 22 3c
       0.13525937 0.0790169 0.0006945982 0.00991226
000210 52 46 ff 3d de 95 d8 bd 18 d4 f1 3c 06 37 cc 3d
       0.124645844 -0.1057546 0.02952008 0.099714324
000220 78 76 98 3d ab 79 96 3d 4d 0a 8c bd ce 26 7c 3d
       0.07444471 0.07347425 -0.06837902 0.061560445
000230 14 45 be 3d 2e a7 3e 3c 29 c4 91 3d 8c c5 32 3d
       0.09290519 0.011636538 0.07117493 0.043645427
000240 b6 fc 8e 3d fd 1e 12 3c 6a 66 c4 3d 25 19 1c bd
       0.069817945 0.008918521 0.095898464 -0.038109917
000250 d2 b5 9f 3d 73 7b 91 3d a4 b2 36 3e ab 54 b5 ba
       0.07798351 0.07103624 0.17841583 -0.0013834437
000260 ec e1 e3 3d 8e 46 ee 3d 74 69 a4 bc 06 c9 0f 3c
       0.111270756 0.11634551 -0.020069815 0.008775955
000270 71 d2 8e bb 85 6e f6 3d d7 ce c3 bd 64 f8 44 bb
       -0.0043585827 0.12032799 -0.09560936 -0.003005528
000280 d3 62 2f bd 9b 36 80 3d 28 fe 1b 3e b2 8c 0c bd
       -0.042818855 0.06260415 0.15233672 -0.034313865
000290 82 ec f2 bd 87 b1 12 be 22 e1 00 3a e0 de 96 3d
       -0.118615165 -0.14325534 0.000491636 0.07366729
0002a0 38 98 bb 3d 35 fa aa bc e3 c7 d5 bb 3f 71 d0 3d
       0.09159893 -0.020871261 -0.0065240725 0.1017785
0002b0 a5 68 e1 3d 79 1b d2 ba bc 45 07 3e 08 e2 19 bc
       0.110062875 -0.0016029916 0.13210195 -0.009392269
0002c0 f2 03 18 3e bf 81 6c 3d 12 a0 44 3d a1 e6 06 bd
       0.14845255 0.057740923 0.048004217 -0.03293479
0002d0 7d ef 94 3c ac 35 d0 3d 05 01 86 3d 52 46 8f bd
       0.018180603 0.10166487 0.06543163 -0.069958344
0002e0 37 89 c5 bd dd 72 9b 3d 9b e9 43 3b 9a 1b e7 bd
       -0.09645312 0.07590268 0.0029893878 -0.112845615
0002f0 34 0b f9 bc c4 e0 11 3d 8b 54 93 3c cd bf 83 bd
       -0.03040085 0.035614744 0.01798465 -0.064330675
000300 8e 65 a7 bd a1 64 e2 bb 01 88 9d 3c bd 69 bf 3d
       -0.08173667 -0.0069089686 0.01922989 0.0934634
000310 f0 b0 14 3d 98 30 bb 3c d9 f3 a4 3d 70 0e d9 3d
       0.036301553 0.02285032 0.08054323 0.10598457
000320 d7 ff 41 3b b2 fb 05 3d f7 b9 a7 bd cf 38 8d bd
       0.0029601955 0.03271074 -0.08189767 -0.06895601
000330 4c 36 a0 bb 5d 46 fc bd 29 4d e2 3d 9d 1d e2 3d
       -0.004889285 -0.12318108 0.110498734 0.110408045
000340 e4 da 98 bd bb 05 d1 bd e8 f4 7d bd 07 99 6e bd
       -0.07463625 -0.10206171 -0.06200114 -0.058251407
000350 1c b7 0e 3c 27 34 e2 bd 05 a2 dd bd 51 d5 d3 3d
       0.008710649 -0.110451035 -0.108219184 0.10343421
000360 24 65 98 3b ba d7 69 3d 3e ad 4b 3a f5 41 68 bd
       0.004650729 0.0570905 0.00077696505 -0.056703527
000370 dd d5 24 bd 93 bf bd 3d d3 3b 9c bc ba 58 01 be
       -0.04024302 0.092650555 -0.019071495 -0.12631503
000380 8b c2 e2 bd 99 b0 22 bd 8b a3 22 3e 06 86 f8 39
       -0.110722624 -0.039719198 0.15882699 0.000474021
000390 bb e7 6b 3c 7d a3 42 bc 39 17 4e bd 47 10 e6 3d
       0.014398511 -0.011879799 -0.050315116 0.112335734
0003a0 80 b9 d3 bd ef 83 60 3d cb b5 93 3c 68 3f ce 3d
       -0.10338116 0.05481332 0.018031022 0.100706875
0003b0 c3 c7 83 3d 3f f6 af 3d 48 09 d8 3d 40 6f f6 bd
       0.06434586 0.085918896 0.10548645 -0.12032938
0003c0 ca a5 76 3c 2a a6 a0 bd ad 0a cf 3d 1b cf 8b bb
       0.015054176 -0.07844193 0.10109458 -0.0042666323
0003d0 b7 9e 0d bd 2c b7 ab 3b 68 7f 82 bc 69 2f 98 bd
       -0.03457519 0.0052403416 -0.015929893 -0.07430918
0003e0 45 2c fc 3d 69 9b 0a 3e ae 5f cd 3d 55 7b fb bc
       0.12313131 0.13535847 0.10028015 -0.030698458
0003f0 02 56 76 3d 15 40 38 3d b6 cc e6 3c 1f 3f 1f bc
       0.060140617 0.04498299 0.028173786 -0.009719639

fc.2.bias f4 [87]
000000 d4 f8 0c 3d ba 23 49 bc 5b 16 86 3d 8d 9d d1 3d
       0.03441699 -0.012276584 0.06547233 0.102351286
000010 9a 2e 44 3d b8 fc 7b bc ff d0 aa bc e0 54 c7 3c
       0.047896005 -0.015380077 -0.02085161 0.024332464
000020 67 99 cc 3d 21 8e ac bb 32 a2 2e bd 65 5d f6 bc
       0.09990197 -0.0052659665 -0.04263515 -0.03007383
000030 01 26 0b 3d 02 b5 65 3c 21 1b 41 bd 61 e8 9d 3d
       0.03397179 0.014020206 -0.047145013 0.077103384
000040 55 d6 82 3d 11 c3 91 3c 70 dc a0 3d 0e 05 25 bd
       0.06388537 0.01779321 0.07854545 -0.040288024
000050 b6 4f 7c 3d 1a f0 95 bd 11 0f 64 bd 92 68 95 bd
       0.061599456 -0.07321186 -0.05567843 -0.07295336
000060 04 aa b0 3d 1c 55 26 3c 6c d9 f7 3c b8 4c c4 bc
       0.08626178 0.010152128 0.030255042 -0.023962364
000070 05 7c 59 3c 6f c2 19 3d c5 2e b1 ba ea a8 93 3d
       0.0132741975 0.037538942 -0.0013517967 0.07209952
000080 5a 66 83 3d 0c 8d 55 3b a4 98 08 bd 6c 62 8d 3d
       0.064160064 0.0032585291 -0.033348694 0.06903538
000090 11 d7 d4 bc 91 f8 a9 bb 6e a1 20 3c 47 86 aa 3d
       -0.025981458 -0.005187102 0.009804113 0.083263926
0000a0 52 bd 18 bd 39 e9 d1 3d f6 d2 ae 3c 02 93 bb 3c
       -0.037289925 0.10249562 0.021340828 0.022897247
0000b0 51 ee 8c bd 20 3d b0 3c 48 d9 25 3d 23 82 f8 39
       -0.06881393 0.021513522 0.04049042 0.00047399206
0000c0 e4 be 6b 3d 53 55 49 bd a9 d7 c4 bd c8 45 24 3d
       0.057555094 -0.049153637 -0.096114464 0.04010561
0000d0 ba ff 9b bc 70 af 35 3d f7 9e 12 3d d3 78 35 bd
       -0.019042838 0.044356763 0.035796132 -0.04430468
0000e0 2c 2d b7 3c 6b 18 8c bc 48 bd 75 3c c0 4e 95 bd
       0.022360407 -0.017101487 0.014998741 -0.07290411
0000f0 c6 13 be bc 88 ea ec 3c b4 d8 4e bc 1c 8a 83 bc
       -0.023202788 0.028920427 -0.012624908 -0.016057067
000100 0b 2c c6 bd 2b b5 84 bd e6 97 51 bd 80 bc 1a 3c
       -0.09676369 -0.064798675 -0.051170252 0.009444356
000110 4b a7 1f bd 4d 5c a6 3c 04 73 3c 3b de 7b 4f bb
       -0.038977902 0.020307684 0.0028755078 -0.0031659524
000120 ba 31 40 bd d9 be 8a 3a f1 a9 12 3d 4f 7b db bb
       -0.046922423 0.0010585441 0.0358066 -0.006698049
000130 02 6b 24 bb e7 34 e0 3c 0e 9e 91 3c d9 bf 71 3c
       -0.0025088196 0.027368976 0.017775562 0.014755213
000140 ff f0 8d 3a 2c 9e fb b9 bd 24 da bb fa 22 13 bc
       0.0010829269 -0.00047992298 -0.0066572116 -0.008980507
000150 19 12 32 3d f2 44 d7 3c cc 80 37 bd
       0.04347429 0.026277993 -0.044800565

fc.2.weight f4 [87, 174]
000000 89 54 04 3e 65 05 f0 3d a6 76 e8 3d e5 dd fb 3d
       0.12922873 0.11719779 0.113507554 0.122981824
000010 3d 3a dc 3b c7 2a 51 bb 67 eb 2f bd 9e c8 89 bd
       0.0067208097 -0.0031916366 -0.042949107 -0.06727718
000020 b2 0e aa 3d 88 e6 15 bd e8 03 b1 3c e1 c6 a3 bd
       0.08303584 -0.036596805 0.021608308 -0.079969175
000030 f6 2b 81 bd a0 42 4c bd 25 d1 2c bd 0f 7b 33 bd
       -0.06307213 -0.049868226 -0.042191643 -0.04381853
000040 89 bd 0e be 39 32 57 bd c2 0b b7 bc de ce b6 bd
       -0.1393949 -0.05253813 -0.022344474 -0.089261755
000050 7b ad 84 3d ba 7e 19 be 53 84 62 bd e9 1d b0 3d
       0.06478401 -0.14989749 -0.055301975 0.08599455
000060 11 d9 42 bd 0b 32 2d be c2 8a 56 bd 01 d9 88 bd
       -0.047570292 -0.16913621 -0.052378424 -0.06682015
000070 4b 2b a9 bd 12 d1 98 3d 27 4e b5 bd 9c d3 89 bd
       -0.082602106 0.07461752 -0.08852797 -0.067298144
000080 08 60 02 bd 21 7c 31 bd ae 84 58 bd c5 32 e3 bd
       -0.031829864 -0.04333127 -0.05286091 -0.11093668
000090 95 d7 93 3d eb c2 04 3d bd cc 03 3e 67 98 de 3c
       0.072188534 0.03241245 0.1287107 0.02717228
0000a0 29 c5 c5 bd 19 73 09 bd 83 04 2a bd a7 17 72 3d
       -0.09656746 -0.03355703 -0.04150821 0.059104588
0000b0 81 00 91 bd 50 c2 96 bd 2c 48 03 3d b7 5e 63 bd
       -0.07080174 -0.07361281 0.03205125 -0.05551025
0000c0 1f 62 e3 3d 5c 71 91 bd e7 db 00 be c0 bd 1a 3e
       0.111026995 -0.071017 -0.12583886 0.15111446
0000d0 2a 8a 9c bd 84 a6 53 bd 5c d8 64 bd c8 71 bd 3d
       -0.0764354 -0.051672474 -0.0558704 0.09250218
0000e0 d9 c5 fb bd 85 4e a1 bd 14 4a 1f be ef d6 1f 3e
       -0.12293596 -0.078763045 -0.15555602 0.15609334
0000f0 eb ec d0 3d 36 42 c5 bd 72 18 1f be 08 e0 d1 3c
       0.102014385 -0.09631769 -0.15536669 0.025619522
000100 b5 cd 0d 3e 7c bd 57 bd 14 c1 0a 3e de 20 26 bd
       0.13848002 -0.05267094 0.13550216 -0.04055869
000110 a9 69 24 bd 2e dc 18 be 92 f3 22 3d 4d 23 90 bc
       -0.040139828 -0.14927742 0.039783068 -0.017594958
000120 16 99 16 be d5 89 01 be 41 a6 d9 3d ce e0 19 be
       -0.14706835 -0.12650235 0.106274135 -0.15027162
000130 b7 a2 4f 3c d4 a7 4d 3d f2 77 fa ba 61 a5 c3 3b
       0.012673072 0.05020888 -0.0019109233 0.0059706424
000140 ea 6c 9a 3d 4e 7d 6d 3d d7 67 94 3d 5b 60 a1 bc
       0.07540305 0.057980828 0.072463684 -0.019699266
000150 03 1b 99 3c 36 8f 22 bd e0 fb 0c 3e 7d ca 83 bd
       0.018689638 -0.039687358 0.13767958 -0.06435106
000160 22 eb 15 bc df 27 d6 bc 2e 8b 9c 3d 54 82 12 be
       -0.009150298 -0.026142059 0.07643734 -0.14307529
000170 70 fa b8 bd 0c 4d 07 be c9 4c 01 3e 1d c4 59 bd
       -0.09032142 -0.13212985 0.12626947 -0.053165544
000180 22 47 fa bd a3 94 49 bd eb 19 b2 bd 6e 21 18 3e
       -0.12220599 -0.049214017 -0.0869635 0.14856502
000190 5a 7d 1d bd 11 b5 5a bd a3 8b b7 3d 79 1d 78 3d
       -0.038449623 -0.053395335 0.089621805 0.060574982
0001a0 c7 bd dc 3d 82 39 cf bd 70 28 dc 3d 2e 49 92 3d
       0.10778385 -0.101183906 0.107499 0.07142864
0001b0 33 b9 e7 bc fd 91 01 3e 26 5b dc 3d f2 51 1b bd
       -0.028286552 0.12653346 0.10759573 -0.037919946
0001c0 61 27 69 3d 28 07 70 bd 01 34 12 be 89 22 2f 3d
       0.05692232 -0.058600575 -0.1427765 0.042757545
0001d0 fb 84 2b be 6a e2 09 3e a9 7c 6f 3d 4a 30 f1 bd
       -0.16749947 0.13465276 0.058468495 -0.117767885
0001e0 4b 5c 4f 3d 13 f7 89 3d 65 18 0b be 77 60 13 3e
       0.050625127 0.06736579 -0.13583525 0.14392267
0001f0 d1 7a 70 bd 52 69 43 bc 43 bd 08 3d 6e 0a b8 3c
       -0.058710877 -0.011926966 0.03338362 0.02246591
000200 e0 8a 1a bc 37 d1 05 3e 6d 5b 13 be 85 cd 6e 3d
       -0.009432524 0.1306809 -0.14390345 0.058301467
000210 0d ff 36 3d 23 66 5f 3d 09 67 17 be 71 4b 9e bd
       0.04467683 0.054540765 -0.14785399 -0.07729233
000220 69 d6 3a 3c 46 45 c1 bd e2 b0 6f bd bb ca ce bd
       0.011403658 -0.09437041 -0.058518298 -0.100972615
000230 a0 f2 a2 3d 1a fa 0e 3b 3c 71 94 bd d4 ac a4 bd
       0.07956433 0.0021816553 -0.0724816 -0.08040777
000240 c4 ec 06 bd 8c 5f df bd a9 f7 fd bc 7c 74 b9 bc
       -0.03294064 -0.10906896 -0.031001883 -0.022638552
000250 29 73 1d be 1b cd 8b bd 22 27 94 3c 13 64 af 3c
       -0.15375961 -0.0682623 0.018085066 0.021410024
000260 86 57 17 be 6c ab 7f 3d ce 4e 42 bd 4d 95 e6 3d
       -0.14779481 0.06241934 -0.047438435 0.112589456
000270 7d db f9 3c 64 9e 68 3d 06 47 7f bd f3 ce 3e 3d
       0.030500168 0.056791678 -0.062323593 0.04658408
000280 bc ee 35 bd f5 2f 84 3d f3 22 c6 bd 98 e4 17 be
       -0.044417128 0.064544596 -0.09674635 -0.14833295
000290 69 15 bc 3d e5 17 4d 3c d3 11 97 3d 77 6c a8 bd
       0.09183771 0.012517904 0.073764466 -0.08223813
0002a0 75 47 d8 bb 88 0d 5e bd e6 10 bd bd 54 c2 c6 3d
       -0.006600315 -0.054212123 -0.09231739 0.09705034
0002b0 f4 f2 e2 3b bb 04 d0 bd 4f 53 eb bd 93 d3 b2 bd
       0.006925935 -0.10157152 -0.11490499 -0.08731761
0002c0 f2 22 92 bd 96 75 a9 bd 0d fa e9 ba 9e b6 12 3d
       -0.071355715 -0.08274381 -0.001785101 0.03581869
0002d0 6c a5 e1 bd 8b d7 f7 bc 67 47 ed 3d f2 ce 89 3d
       -0.1101788 -0.030254146 0.115858845 0.06728925
0002e0 04 3d 23 be c8 60 bc 3c 8c 01 7f bd d5 ca 84 bd
       -0.15941244 0.022995368 -0.062257335 -0.06484
0002f0 71 00 d5 3d 5e 3f bf 3d 08 f8 43 3d f4 87 0c be
       0.10400475 0.09338258 0.047843963 -0.13723737
000300 5d ee 3f bd c2 4d 11 be ee d4 ca bd 32 e5 97 3d
       -0.04685818 -0.14189819 -0.09903894 0.074167624
000310 49 13 ba ba ef 66 f0 3d 6a 8d 91 3d 65 0f c8 3e
       -0.0014196421 0.11738383 0.07107051 0.39074245
000320 de c6 82 bc 12 f4 bc bd aa 66 8c bd 9d e6 b7 bd
       -0.015963968 -0.0922624 -0.06855519 -0.08979533
000330 16 82 92 bd b6 a2 86 b9 d6 ec bd 3d d2 fc b8 bb
       -0.07153718 -0.000256797 0.092736885 -0.005645373
000340 ce 05 ad 3d 6e aa 83 bc 09 5f b0 3d 1b d0 14 be
       0.08448373 -0.016072478 0.086118765 -0.14532511
000350 93 91 0f 3d cb 11 d0 bd 67 df e1 bd 7f 12 90 3d
       0.03505094 -0.10159644 -0.11028939 0.07034778
000360 b7 0a da bc b4 e3 d9 bc 89 55 9f bc 1a 24 ac bd
       -0.026616437 -0.026597835 -0.019449966 -0.08405323
000370 20 b1 9b 3d 66 c3 07 bd 76 e7 92 3c 13 53 a6 b9
       0.07602143 -0.03314533 0.017932635 -0.00031723882
000380 0d bf 32 be ad 47 da bd d7 b8 0b 3e d5 d7 83 bd
       -0.17455693 -0.10658202 0.1364473 -0.06437651
000390 6f 0c 0b bd 4c be 1f bd c5 5e 9a bd a6 2b 29 bd
       -0.033947404 -0.03899984 -0.07537607 -0.041301392
0003a0 81 66 f2 bc 02 7f c3 bc ad 05 75 bd 62 ff 3f 3d
       -0.029589893 -0.023864273 -0.059819866 0.04687441
0003b0 ae e1 86 be 9a 45 1a be 83 ab fd bd 4a 27 65 3d
       -0.26344055 -0.15065613 -0.12386229 0.055945672
0003c0 0e dc 0f be fc 8c b7 3c 2c 72 ff bd 4d 7d cb bd
       -0.14048788 0.022406094 -0.124729484 -0.099360086
0003d0 37 40 f0 bd 50 32 ab bd df a6 61 bd c4 27 89 3d
       -0.11730998 -0.08359206 -0.05509078 0.06697038
0003e0 89 1e d5 bc a0 40 6f 3d 41 fa e4 bc e1 49 2d 3c
       -0.026015537 0.05841124 -0.027951362 0.010576696
0003f0 ce 9c 93 3c 49 d2 8e bd 02 5c 8f bd 48 b4 76 bc
       0.018019106 -0.069737025 -0.06999971 -0.015057631
