resources/imgreco/inventory/ark_material.onnx (onnx, 200982 bytes, 8 tensors)

35 f4 [32, 3, 5, 5]
000000 bb 11 8c 3e 24 7e 14 bd e7 1a da be 03 94 bc 3c
       0.27357277 -0.03625311 -0.4259865 0.023019796
000010 f2 2e 15 3f 58 46 9e bd 9d cc 08 be b7 3e 21 bd
       0.5827476 -0.07728261 -0.13359304 -0.03936645
000020 d0 ea c9 be 51 13 cc bd 86 79 68 bf 78 52 3a be
       -0.3943696 -0.09964622 -0.9081043 -0.18195522
000030 1c f4 8d 3e 3e c5 15 3f b4 37 38 3f d7 84 67 bf
       0.27725303 0.5850409 0.71959996 -0.9043707
000040 27 40 2f 3f a3 cb 18 bf 9f 77 7e 3e 7f fa b6 bd
       0.68457264 -0.59685725 0.2485032 -0.08934497
000050 06 71 5c bf 38 8e 8e bd 07 7d 53 bf a7 f6 08 bf
       -0.8610996 -0.0696072 -0.8261265 -0.5350136
000060 03 c5 37 be ad d4 86 be 51 fe 18 3f 98 69 8b be
       -0.17946248 -0.26334134 0.59763056 -0.27229
000070 c4 0c 35 bf fe 09 5b 3d a7 c2 2f 3d f2 87 ef 3e
       -0.70722604 0.053476326 0.042910244 0.46783406
000080 31 ca 9a 3e f3 05 9c 3e bf ab a5 3e a0 82 dc 3d
       0.30232385 0.3047329 0.32357594 0.10767102
000090 0b dc db be 0f ca 81 bd 5b 83 f4 be ef 46 1f bf
       -0.42941317 -0.06337368 -0.47756466 -0.6221761
0000a0 89 7d d0 3e 00 46 93 3d 40 96 24 bf 73 bf 46 3f
       0.40720776 0.07191086 -0.64291763 0.7763588
0000b0 a9 74 46 3f 82 5d 38 3f 02 91 57 3e b9 f2 4d be
       0.7752176 0.7201768 0.2105141 -0.20112123
0000c0 69 79 cd 3c 87 30 8f be 99 69 3a 3e 8f 67 21 be
       0.025082307 -0.2796671 0.18204345 -0.1576216
0000d0 31 a5 31 bf b4 d4 a0 3e ab 20 02 3f e5 93 5f bf
       -0.6939269 0.3141228 0.508311 -0.87335044
0000e0 d1 04 be bd 7b c6 55 3e 71 1d c3 3e 77 2a 8a 3e
       -0.092782624 0.20876496 0.381084 0.26985523
0000f0 a5 dd 94 be 34 67 16 3e cf 92 11 3e 71 76 29 3f
       -0.2907535 0.14687806 0.1421616 0.6619635
000100 04 a4 db 3e f2 c5 4a 3e 11 39 ec be 02 35 43 3f
       0.42898571 0.19802073 -0.46137288 0.7625276
000110 9d 87 f6 be 6e 9a 6c 3f a4 92 84 be cb 59 03 3e
       -0.4815034 0.9242314 -0.25893128 0.12827222
000120 2c 74 85 3e f1 ad 1c 3f 8e bb bc 3e 3b 2a a5 be
       0.26065195 0.61202914 0.36861843 -0.32258782
000130 d0 bf c2 be 9a b2 9e bd f5 27 52 bf a1 33 62 be
       -0.38036966 -0.07748909 -0.8209222 -0.22090007
000140 63 87 5b 3f 51 d3 23 3f a1 1f 30 3e 1b 0b 02 3e
       0.8575346 0.6399432 0.17199565 0.12699549
000150 64 d4 71 3e 8c ad d6 3e 75 6e fe 3e dc 25 08 3f
       0.23616177 0.4192928 0.49693647 0.5318277
000160 47 e0 39 be 4b 5b 7b be 2b 9b 42 bf d1 c5 3c bf
       -0.18151961 -0.24546544 -0.7601802 -0.73739344
000170 0d fb 55 3e 93 70 5c 3f 98 fd 64 3f a5 9b d4 be
       0.2089655 0.86109275 0.89449453 -0.41524997
000180 bf 1b 98 bc 26 62 35 bf fb c9 a4 3e e5 3b e6 3d
       -0.018567918 -0.7085289 0.3218535 0.11241893
000190 65 c6 24 bf 72 52 3f bf 19 88 cc bd 4e 64 ac be
       -0.64365226 -0.74735177 -0.09986896 -0.33670276
0001a0 41 7b 00 3f db 91 ac 3e 6e ab 69 be ae 0b 73 3e
       0.5018807 0.3370503 -0.22819301 0.23734924
0001b0 ba ba 74 3d d2 cb 60 bf 2f 49 2b 3f 5a 11 11 bf
       0.05974839 -0.87811005 0.66908544 -0.566671
0001c0 22 86 25 bf 9b 34 be be 5a 05 8c 3e da f2 52 bc
       -0.64657795 -0.3714951 0.27347833 -0.012875283
0001d0 f7 17 21 3f 3e 2f dc be 6f ef 20 bf 08 8d 28 3f
       0.6292719 -0.43004793 -0.62865347 0.65840197
0001e0 d6 7d 41 bf 53 53 9e be 64 5b 0a 3f 5f df db 3e
       -0.75582635 -0.30922946 0.540457 0.42943856
0001f0 35 fa 86 be 69 65 18 bf f6 80 12 bf ef 08 4e be
       -0.26362768 -0.5952974 -0.5722803 -0.20120595
000200 19 da 3d bb bb a8 ef 3e b6 c4 31 3d cd 1c 8e bd
       -0.0028969108 0.4680842 0.04340049 -0.06939087
000210 d8 9f 98 3e e1 69 98 be 85 55 04 bf 07 fb dd bd
       0.2980945 -0.2976828 -0.5169299 -0.10838895
000220 54 60 37 bf 8e d3 3d 3f 7f c9 da bd 24 2a 27 3f
       -0.7163136 0.7415093 -0.106829636 0.65298676
000230 3d 1f 07 3f ef f6 4d be 81 23 3d 3d ae 59 46 3f
       0.5278204 -0.20113729 0.046176437 0.7748059
000240 7d 29 89 be 4c 23 65 bf 0a c2 b1 be f1 8a 96 3e
       -0.26789466 -0.89506984 -0.34718353 0.2940288
000250 e7 ed 0e 3f bd 81 4e bf b1 d9 da bd a6 92 c0 3e
       0.5583176 -0.80666715 -0.106860526 0.37611884
000260 da 2f 7f be 77 19 97 bd 88 40 a6 bd 48 f0 27 be
       -0.24920598 -0.07377904 -0.08117777 -0.16400254
000270 97 49 bc 3d fd b2 59 3e e4 de a2 3e e0 f1 58 3e
       0.09193724 0.21259685 0.31810677 0.21186018
000280 3e b0 1d 3e 88 ac 8b be 84 95 b5 3e 8a 60 55 3c
       0.15399262 -0.27280068 0.35465634 0.013023505
000290 8e 73 78 be 36 f7 b5 3d f4 9b 5d be 5c a7 86 be
       -0.2426283 0.08885042 -0.21641523 -0.2629956
0002a0 50 d5 85 be c1 7e 62 3e 6f 2e 98 be 40 6a 90 3e
       -0.26139307 0.22118665 -0.29722926 0.28206062
0002b0 30 ae 7d 3e 23 b5 5e bd b8 94 37 3e a6 8d 48 3e
       0.24773479 -0.054371964 0.17927825 0.19585285
0002c0 88 6e b7 3c b5 39 52 bd c3 9c c0 3e ac cb cb bd
       0.022391573 -0.051324565 0.376196 -0.09950957
0002d0 ac 23 af be de 08 ba 3e 79 2b 9f bd bb 7b 97 3e
       -0.34206903 0.3633489 -0.077719636 0.29586586
0002e0 00 28 5c 3e ec bf b6 3e d7 96 e1 3c 40 27 4f 3d
       0.21499634 0.356933 0.027537746 0.05057454
0002f0 c7 58 66 bd 72 92 68 3d b2 f4 f4 3d 12 99 7a be
       -0.05623701 0.056780286 0.119607344 -0.24472454
000300 3b a5 48 3d 0a da 5e be 63 91 a9 3e 11 89 ea 3e
       0.0489857 -0.21762863 0.33118734 0.45807698
000310 31 8b 8d bd 70 b2 ca bd b4 eb 39 3c 31 22 77 3e
       -0.06911314 -0.098973155 0.0113477 0.24134137
000320 c4 d0 26 3e 7b 1e 57 3d 61 62 87 be 15 cd 27 be
       0.16290575 0.052519303 -0.26442245 -0.16386826
000330 da e5 67 3e b1 6f 91 bc 23 cc 3f be 33 5a 92 3e
       0.22646275 -0.017753454 -0.18730216 0.28584442
000340 2b 0c c8 3e c3 aa ec 3e 2f 7b 17 be 6f a6 9d 3e
       0.39071783 0.4622403 -0.14793085 0.3079104
000350 9e ad 88 3e dc ad 73 3d a2 35 07 3e 0c 1b 3b 3e
       0.2669496 0.059491977 0.13204053 0.18272036
000360 a8 79 73 3d 68 a0 c7 3e d5 dd 93 be 95 a1 8f 3e
       0.059442192 0.38989568 -0.28880182 0.28052965
000370 42 29 0c bd e3 de 41 3d 44 28 6c be 4e 9a c5 3e
       -0.034219034 0.047331702 -0.23062235 0.38594288
000380 c7 94 af 3c ef 85 95 be af b0 96 bd 77 eb d7 3d
       0.021433247 -0.29203746 -0.073579185 0.10542958
000390 66 66 92 be fa 50 1b 3e 7d fb 86 be 5a 72 fd bd
       -0.2859375 0.15167609 -0.26363745 -0.123753265
0003a0 f9 cb a5 3c db c0 76 3e c0 54 a1 be e5 68 bd bd
       0.020238863 0.24097006 -0.31509972 -0.09248523
0003b0 8b b3 21 be 76 2c b0 be 90 16 d2 be 3e 12 82 be
       -0.15791146 -0.3440892 -0.4103284 -0.25404543
0003c0 f1 9b 91 3e b4 f1 fb bd e6 cb a3 be 29 d0 b1 3e
       0.28439286 -0.123019606 -0.319915 0.34729126
0003d0 af b3 b4 be a6 ae 8e be dc ad 1e bf 4b 48 f3 be
       -0.35293338 -0.2786762 -0.6198404 -0.47516093
0003e0 f6 fb 50 be 2c 94 18 bf 99 15 0a 3f 53 18 7e 3e
       -0.20408615 -0.5960109 0.53939205 0.24813966
0003f0 4b ca 9a 3e eb ed 06 3f 35 e4 98 be b6 5c 64 3d
       0.30232462 0.52706784 -0.29861608 0.05575248

36 f4 [32]
000000 e1 c0 71 bf 0e 51 a6 3f af d2 0c c0 2d 74 d6 3f
       -0.94434935 1.2993486 -2.200359 1.6754204
000010 09 07 0a c0 d0 e7 4a 3f 08 de 62 3f fc a2 93 3f
       -2.1566794 0.7925997 0.8862004 1.1534114
000020 12 86 d6 3d f6 5e 0e 40 a4 37 81 3f fa d6 3f 3e
       0.10474791 2.224546 1.0095105 0.18734351
000030 3c a8 06 3d e5 c2 a7 3f e8 05 cd bf d6 14 13 3f
       0.032875285 1.3106352 -1.6017427 0.5745367
000040 b9 ea 86 3d e4 47 dd be c1 2c 77 3d 5b e1 02 40
       0.065877385 -0.4321891 0.060345415 2.0450046
000050 8d ad dd 3f b8 a3 fa 3f f1 30 8f 3f 9a 47 5b bf
       1.7318588 1.9581213 1.1186811 -0.8565613
000060 1f 07 8c bf 4f 5b d7 bd 6c b8 96 bf 31 1b c0 bf
       -1.0939673 -0.105154626 -1.1775031 -1.5008298
000070 2b 8e 75 be 5b aa 5e bd 17 57 a6 bf 9b 6b 0c c0
       -0.23980014 -0.054361682 -1.2995328 -2.1940677

38 f4 [32, 32, 3, 3]
000000 8a 37 22 be ed dd e1 3d 0e 21 4f be d2 a0 96 be
       -0.15841499 0.11028657 -0.20227453 -0.2941957
000010 e4 94 07 3e a1 03 4c 3e 94 87 b9 3a a1 59 01 3c
       0.13240391 0.1992326 0.0014154785 0.007894904
000020 cd cf 1a 3e 07 23 70 bc 86 46 52 bd 15 e7 66 be
       0.15118332 -0.014656789 -0.051336788 -0.22549088
000030 71 91 db 3e f0 3a 92 3e 26 da 86 3e fb 8a c1 3d
       0.428844 0.2856059 0.2633831 0.094503365
000040 3d 0a 98 be 39 56 6c be 40 c9 98 bd d5 ca e4 3d
       -0.2969531 -0.23079766 -0.074602604 0.111715
000050 15 1c 25 be 02 da 2a be 0f 31 d7 3e e1 cd 63 3e
       -0.16123994 -0.16684726 0.42029616 0.22246505
000060 94 5d 08 be 32 a5 e0 3e f2 3f e4 be 99 32 f1 be
       -0.13316947 0.43876034 -0.44580036 -0.47108915
000070 21 e5 9b 3e a1 1e db 3d 2f 63 fe 3b cd c3 03 3e
       0.3044825 0.106992014 0.0077632884 0.12867661
000080 d7 20 1d be 5b 24 9d 3e 8b d0 fd 3e 58 02 68 3e
       -0.15344559 0.306918 0.49573168 0.22657144
000090 b0 b0 10 3e c1 6b 7c 3d 0c bd 52 3e c7 c9 ac 3e
       0.14129901 0.0616262 0.20579928 0.33747694
0000a0 7e 06 a6 bc fe 0e 34 3e 17 38 61 be fb 94 d5 bd
       -0.020266768 0.17583844 -0.21994053 -0.104288064
0000b0 4a 1c c4 be db cd 04 be a4 1c 15 3e ed 7d 02 be
       -0.38302833 -0.12969153 0.14561707 -0.1274335
0000c0 62 87 b3 3d f4 e0 c7 bd 4d 1a b7 3e be eb 2b 3e
       0.087660566 -0.09759703 0.35762253 0.16789147
0000d0 30 c0 b8 3e 6c f5 52 3b 8e c4 9b be d9 d4 cf be
       0.36084127 0.003218974 -0.30423397 -0.40592077
0000e0 40 f8 54 3e 70 d4 9f bd 2d ab bd bc 6a 75 0d 3e
       0.20797825 -0.07804191 -0.023152912 0.13814321
0000f0 74 c9 67 be a3 27 49 be 88 fd a0 be 61 ce 07 3d
       -0.22635442 -0.19644026 -0.3144343 0.033155803
000100 32 b6 ca be c6 0a ef bd a6 d1 8f 3e b6 58 33 be
       -0.3959213 -0.11671977 0.28089637 -0.1751431
000110 a5 c3 7e bd f0 8d da 3d 23 fa 69 3e de 9e e0 bc
       -0.0621983 0.10671604 0.22849326 -0.027419504
000120 fb 30 9e be 32 09 46 3e 1d 4a ad bd 57 be 3a 3e
       -0.30896744 0.19339445 -0.084614016 0.18236671
000130 ae f9 80 3d fd 8f 12 bf 52 96 fa bd 8e ff b5 be
       0.062976226 -0.5725096 -0.122357026 -0.35546535
000140 51 cd 0b 3e b1 db 05 be 72 3f 50 bc 7a 64 22 3e
       0.1365254 -0.13072087 -0.012710439 0.15858641
000150 43 45 67 3e f5 6e f6 3e 57 0c bb bc 8a 99 ac be
       0.22585015 0.48131528 -0.022833033 -0.3371089
000160 d5 4c e3 bd 8c 00 56 3d 70 54 83 be 25 c5 a1 be
       -0.11098639 0.052246615 -0.25650358 -0.31595722
000170 03 00 97 3e 28 21 79 3e 77 05 6f be 50 4c e7 be
       0.29492196 0.24329054 -0.23341928 -0.4517541
000180 41 8c 2b 3e 2c 2a 06 bf aa e7 a8 be c0 9b d7 bd
       0.16752721 -0.524081 -0.32989246 -0.10527754
000190 6f 1e a4 3e 2c a3 f6 bd 77 30 b7 3d c0 84 aa 3d
       0.3205447 -0.12042841 0.08944791 0.08326101
0001a0 09 db ae bd f1 1a 0b 3d de 2a d4 bb 5b c3 a6 bd
       -0.085378714 0.03396124 -0.0064748367 -0.0814273
0001b0 5e 28 91 3e e0 a0 99 3e d5 aa 98 3e 06 c7 74 be
       0.2835111 0.3000555 0.29817834 -0.23904046
0001c0 19 45 af 3e b2 99 7e 3d 08 c8 9d be 42 51 12 3c
       0.34232405 0.062158294 -0.30816674 0.008930506
0001d0 82 ef 68 be f4 7b ca bd cf 32 8b 3d 2e a0 c4 3d
       -0.22747615 -0.098869234 0.067968 0.09600864
0001e0 1e 1a 1e 3e 4a bb 15 bf bd 29 a3 3c c2 7f ce be
       0.1543965 -0.58488905 0.019917363 -0.40331846
0001f0 db ec 0d 3e 30 93 c3 3c 25 cc 62 bd b3 a1 b9 be
       0.13859884 0.023873895 -0.05537047 -0.3625618
000200 fc bb ee bd 01 0c 73 bd de 89 30 3e 6b 70 63 3e
       -0.11656949 -0.05933762 0.17240092 0.22210853
000210 7e f1 08 bc 85 b8 c8 3e 20 58 9f 3e eb f3 b3 3e
       -0.0083583575 0.39203277 0.31121922 0.35147032
000220 1c cb f7 3d d6 c9 d1 be 6e d7 1f bd 9a c5 2d 3d
       0.12099287 -0.409743 -0.03902381 0.042424776
000230 89 df 36 be 9a 30 9b bd 25 75 a2 3d 02 e6 4b be
       -0.1785871 -0.075776294 0.079325 -0.1991196
000240 6f 52 8f be ff c0 95 be 51 fd 80 bd 8f 5d 25 be
       -0.2799258 -0.29248807 -0.06298316 -0.16148971
000250 8a e7 85 bd 9f a8 83 be 95 8c 1b 3e c4 20 84 3e
       -0.06538303 -0.25714585 0.15190347 0.25806248
000260 3a 08 64 3e 86 bf 2e bd a2 7f 05 3d a1 42 a7 3e
       0.22268763 -0.04266312 0.032592423 0.3266802
000270 e5 ed 1d bf b0 0c b5 3e ba 1b 7e be fb 0c 69 3e
       -0.61691123 0.35361242 -0.24815264 0.22758858
000280 8b a3 8f 3e d9 b2 42 3e 61 ae 8c 3e ef 5b ce 3e
       0.2805446 0.19013537 0.2747679 0.40304515
000290 50 74 f5 bd 50 6e 0c 3e 13 49 84 bd fa f3 41 3d
       -0.119850755 0.13713956 -0.0645925 0.047351815
0002a0 3f 5e cb 3e a0 4f 9d 3d 38 f7 6c 3d 93 30 4c 3e
       0.39720342 0.07681203 0.057852954 0.19940405
0002b0 21 2c d8 3d 31 0c 35 be 7c b2 c2 bc 99 13 8c be
       0.10555292 -0.17680432 -0.023766749 -0.27358702
0002c0 97 22 aa bd 92 64 85 3e 2e ec bd be a7 c0 de 3c
       -0.08307379 0.26053292 -0.37094253 0.027191473
0002d0 d2 d5 b1 be f1 3a 46 be 5c 11 93 3e 1d 0b db bc
       -0.34733444 -0.19358422 0.28724182 -0.026738698
0002e0 b4 65 d2 3e 59 49 64 be cf d1 63 bd e7 c9 df 3e
       0.41093218 -0.22293605 -0.05562001 0.43708727
0002f0 d6 42 3e 3d 65 22 e0 3e e2 9e ef bd 07 09 63 bd
       0.04645046 0.4377624 -0.11700226 -0.05542853
000300 03 47 32 bc f9 52 81 be b5 30 08 be de 87 e6 be
       -0.010881188 -0.25258616 -0.1329983 -0.45025533
000310 ff 33 15 3e 6f 71 11 3d f9 c1 a9 3d 66 15 39 3e
       0.14570616 0.03550857 0.082889505 0.18074569
000320 3a e6 cd be be d7 6e 3c 8f 5c 8f 3e cd 1b ae be
       -0.4021471 0.014577804 0.28000304 -0.34005585
000330 79 c6 c2 3e ca 74 27 3e d8 04 41 3e 68 66 8e 3d
       0.38042048 0.16353145 0.18849504 0.06953126
000340 de 5c bb bd a8 0a 64 3e de 6e 6a be 18 75 10 be
       -0.091485724 0.2226969 -0.22893855 -0.14107168
000350 9d 01 fe bd 80 74 0e be 82 6d 4f 3d 1e d4 76 bd
       -0.124026515 -0.13911629 0.050641544 -0.060260884
000360 2a 6b a9 be 0e 80 8e 3e a3 32 0f be fb 1f 1e be
       -0.33089572 0.27832073 -0.1398416 -0.15441887
000370 c3 ea a2 3e a5 e7 1b 3e 8b 09 20 be 34 cc d6 bd
       0.31819734 0.15225084 -0.1562864 -0.104881674
000380 76 47 43 3d 3e 3a b2 bd bf d3 b0 3e af 24 7c 3e
       0.047675572 -0.08702515 0.3453655 0.24623369
000390 ca fe d4 be de 12 b1 bd b6 9a 25 bf 92 9a e8 3e
       -0.4160064 -0.08646177 -0.64689195 0.45430428
0003a0 9a 46 20 bf 98 63 9a be 3a f7 29 bc ed 67 2c bc
       -0.6260773 -0.3015411 -0.010373885 -0.010522825
0003b0 52 28 e4 3d 7e 07 e7 be ae 3e 25 3e 04 c0 5c 3e
       0.11140503 -0.45122904 0.16137192 0.21557623
0003c0 12 af dd 3e 53 e4 fd be d1 af 96 3e 28 91 fb 3d
       0.4329763 -0.4958826 0.29431012 0.12283546
0003d0 04 6e 9a bd df 6e 81 3e 70 c4 3e be 21 fd 42 3d
       -0.07540515 0.252799 -0.18629622 0.047604684
0003e0 e0 29 91 be ab 20 63 bd da ef 97 3e fe ec ce be
       -0.2835226 -0.055451076 0.2967518 -0.40415186
0003f0 43 65 07 3e 3a 40 bc 3e 08 77 1e be ad bf c4 bd
       0.13222222 0.3676775 -0.15475094 -0.09606872

39 f4 [32]
000000 06 24 b9 be 5c 2f 08 40 5e e0 cc bf dc 45 13 40
       -0.36160296 2.1278906 -1.6005971 2.3011389
000010 a2 49 dc bf a1 98 c5 bf 7e 4f 77 bf 98 c5 d9 3f
       -1.7209971 -1.5437204 -0.9660567 1.7013426
000020 dc ee 33 40 f6 00 81 be 65 c9 30 3e be 6e 36 40
       2.8114538 -0.25196046 0.17264326 2.8505092
000030 d9 5e 5c 3e 13 77 18 c0 e8 31 20 3e 52 05 d9 3f
       0.21520557 -2.3822677 0.15644038 1.6954749
000040 c3 66 a2 3f 32 6a c5 be 6d 63 c9 3f 9e da 66 3f
       1.268761 -0.38557583 1.5733467 0.90177333
000050 e4 37 72 3f e2 4f 5a 40 79 a1 ff 3f cf 8a d6 bf
       0.9461653 3.4111257 1.9971153 -1.6761111
000060 38 c8 46 bf e2 56 71 be b9 f9 22 3f 37 28 0d 40
       -0.7764926 -0.235683 0.63662297 2.2055795
000070 9e 89 ad bf da df 08 40 ce 20 06 c0 54 fb 39 bf
       -1.3557622 2.1386628 -2.0957522 -0.7264912

fc.0.bias f4 [176]
000000 0c dc 93 3d b6 c9 f5 3d 92 ce 76 3d 1e 78 75 3d
       0.07219705 0.12001364 0.060255595 0.059929006
000010 e8 cb 08 3d e8 50 34 3d ee ab b2 3d db 51 6e 3d
       0.033397585 0.04402247 0.08724199 0.058183532
000020 90 13 61 3d d7 e2 10 bd ab 60 04 bc b9 d8 c2 3d
       0.054950297 -0.03537258 -0.008079688 0.09513993
000030 e4 19 07 3d 9c 16 e1 3d 53 89 74 3d 1f ed 52 3d
       0.032983676 0.109906405 0.059701275 0.051495668
000040 29 dd f8 3d 17 8f 48 3c a0 b0 24 bc 62 59 61 3d
       0.12151558 0.0122411465 -0.010051876 0.055016883
000050 17 29 8a 3b 49 fc 05 3d 10 42 a2 3d fc d6 98 3d
       0.004216324 0.0327113 0.07922757 0.0746288
000060 3a 54 bb bb fb 51 81 3d bf 5b f3 3d a2 b7 95 3d
       -0.0057168277 0.06314465 0.118827336 0.07310416
000070 cb 4f 46 3d a6 c9 0c bd e7 52 79 bc 6a eb 63 3a
       0.04841594 -0.034371994 -0.015217519 0.0008694442
000080 50 ed dd 3c 4a 82 8a 3d 6f ae 37 3d f5 63 11 bd
       0.027090698 0.06763132 0.044844087 -0.035495717
000090 43 98 19 bc b9 c0 a1 3d 42 81 ce 3c 31 e9 96 3d
       -0.009374681 0.07898087 0.02520812 0.073686965
0000a0 42 80 c0 3d 5c 95 bc 3d dc 25 3c 3d fc e5 17 3d
       0.09399463 0.092081755 0.045934543 0.037084565
0000b0 ac 7c f1 3d 7c a7 ab bc ba 78 0e 3d cf e5 2c bc
       0.117913574 -0.020953886 0.034783103 -0.0105528375
0000c0 36 6b 9b bc 84 27 88 3d e0 17 3b 3d c3 19 05 bb
       -0.01897202 0.06648162 0.045677066 -0.0020309545
0000d0 5f 28 3e bc 22 5d ab 3b 88 c4 ac bc b7 60 9a 3d
       -0.011606305 0.005229608 -0.021089807 0.07537978
0000e0 33 a2 84 3d a4 9e 5a bb 56 36 01 bb ad 6c d4 3d
       0.064762495 -0.0033358717 -0.0019716225 0.10372291
0000f0 ad 54 ff 3c e4 67 8f 3d 6f 94 3e bd 9c ab 8d 3d
       0.031168306 0.070022374 -0.046528276 0.069174975
000100 ed 99 c0 bc 25 ef 9b 3d 52 15 ce 3d f2 5d 82 3d
       -0.023510898 0.076139726 0.1006266 0.06365575
000110 4f 07 f0 3d b0 3b 26 3d 0b 8f 6b 3d 2f d3 0a bd
       0.11720144 0.040584266 0.057509463 -0.033892807
000120 6e d3 a8 3a dc 48 20 3d 64 c7 57 3d 28 3b 01 bd
       0.0012880394 0.039131984 0.052680388 -0.031550556
000130 cb 31 aa bc f5 3c a5 bc 58 bc cb bc 47 7a 5a 3d
       -0.020775696 -0.020170668 -0.024870083 0.05333927
000140 5b fb 05 3e 6c bc 05 3e 70 9e 9b bc b3 c1 9f 3c
       0.13084166 0.13060158 -0.018996447 0.019501543
000150 a1 72 5f 3d 35 ab e4 3d c5 07 7f 3d c2 71 da 3b
       0.054552678 0.11165468 0.06226327 0.006666393
000160 a9 31 35 3d 8c 92 6a 3d af 8b 1a 3d 78 4d 5d 3c
       0.044236813 0.057268664 0.03773087 0.0135072395
000170 c5 6c e7 39 e1 ef 86 3d cd e2 43 3d 6a 80 1a 3d
       0.00044140793 0.06588722 0.047823716 0.03772012
000180 c2 70 eb 3d bd 58 76 bd 79 0d a3 3d 5b 67 00 3d
       0.11496116 -0.06014322 0.07961554 0.031348567
000190 1d 26 a2 bb c9 31 d9 3d 88 cf d8 3d 7a 7a 69 bb
       -0.004948391 0.10605199 0.105864584 -0.003562598
0001a0 25 a3 f5 bc bb c4 91 3c e0 6d c1 3d 7a 2d 9f bc
       -0.02998502 0.017794004 0.09444785 -0.019430865
0001b0 a9 25 3f bc 33 10 0e 3c 3f 01 6b bc 37 90 b5 3c
       -0.011666694 0.008670854 -0.014343559 0.022163494
0001c0 4f 95 0c 3d 1f c0 59 3d 2d 43 a0 3c d8 91 cb 3c
       0.03432208 0.053161737 0.019563282 0.024849817
0001d0 e5 f1 e4 3c 00 73 84 bc 90 a9 d0 3d 1b 6c 92 3d
       0.027947376 -0.016168118 0.101885915 0.07149526
0001e0 2e 0a 8d 3d 19 0c 5c 3d 5c 11 79 3d 06 0e ef bb
       0.06886707 0.053722475 0.06080757 -0.007295373
0001f0 44 b7 73 3c 2c fe 5f 3b 21 43 f4 3c 92 88 78 3b
       0.014875237 0.0034178598 0.029817166 0.00379232
000200 f6 67 29 3d 97 d7 81 3d 63 72 73 bd a9 86 e2 3c
       0.04135891 0.063399486 -0.05943526 0.027652102
000210 7e b6 c7 3d 62 d5 19 3d 82 74 db bc 0b 1b f3 3d
       0.097516045 0.037557013 -0.026788954 0.118703924
000220 89 41 2e 3d 31 2c f1 3d 3f c3 f6 3d b2 99 e6 bb
       0.042542968 0.11776007 0.12048959 -0.007037365
000230 f2 a7 9f 3d 10 87 3b bd 26 71 b8 3c ed c0 09 3c
       0.07795705 -0.045783103 0.02251489 0.0084078135
000240 0f 3f 24 3d c1 2c be 3d 68 34 b6 3d 37 73 a6 3d
       0.0400992 0.0928588 0.088967144 0.08127444
000250 75 48 d8 3d 62 c3 d0 3b 80 c2 b6 b9 10 23 f3 3c
       0.10560695 0.0063709477 -0.0003485866 0.029679805
000260 9b bb af 3c 7d bf 56 3d c1 21 14 bd 08 8c ae 3c
       0.021451762 0.05242871 -0.036165003 0.021307006
000270 e8 fc 76 bd 16 f7 85 3c 77 61 00 3e 73 c8 09 3e
       -0.060299784 0.016353171 0.1253718 0.13455372
000280 72 ca e6 3d e2 bd b5 3d a3 c0 cb 3d f2 36 7f 3d
       0.11269082 0.08874108 0.09948852 0.06230826
000290 23 ae 80 3d 49 9d 21 3c d4 b5 96 3d 12 f8 0f bd
       0.06283214 0.00986416 0.073589 -0.035148688
0002a0 d9 7d 08 bc 55 b7 93 3d 22 a8 11 3d d7 c5 ea 3d
       -0.008330786 0.07212702 0.035560735 0.11463516
0002b0 a1 64 65 3d 9f e6 f6 3d 70 ac 0b 3d 49 36 2e bd
       0.05600417 0.12055706 0.034099996 -0.04253224

fc.0.weight f4 [176, 128]
000000 ed 25 4c bc 7b c3 4b 3d 36 ad a0 bd d9 46 86 3d
       -0.012460214 0.04974697 -0.07845537 0.06556482
000010 fe b0 35 3d 27 12 06 3d 26 78 9e 3d c5 50 40 3c
       0.044358246 0.032732155 0.0773776 0.011738007
000020 2d dd 15 bd 35 b4 d7 3d 5b 84 2c bb 45 fc 70 bd
       -0.036587883 0.10532419 -0.0026324007 -0.058834333
000030 d0 5e 0a 3d ef 06 80 bd b4 80 3b bd 0b 24 d2 bd
       0.033781826 -0.062513225 -0.045777038 -0.10260781
000040 2a 33 b2 3d f0 d3 6b bc ff 72 78 3d 19 b9 1e bd
       0.08701165 -0.014393792 0.060656544 -0.03875074
000050 27 f5 48 3d 6c 17 14 3d 0f 9f 1d bc ce a2 c5 bd
       0.04906192 0.03615515 -0.009620442 -0.09650193
000060 46 f5 91 3c 2e ef 87 bd c2 85 53 bd eb 9c f7 3d
       0.01781715 -0.06637417 -0.051641233 0.120904766
000070 93 0c e0 3c 7e 00 ac 3d 62 98 de bd d2 5b 04 3d
       0.027349746 0.083985314 -0.108689085 0.03231413
000080 1b f8 f0 3d b0 6f 1c 3d bd f9 a2 3d ac 27 25 3e
       0.11766072 0.03819245 0.0795779 0.16128415
000090 47 94 e1 3d 28 f9 1d bd f1 fe c4 3d 90 b4 9a 3d
       0.1101461 -0.038567692 0.09618939 0.07553971
0000a0 e4 74 66 bd 76 16 ff 3b b1 04 10 bd a0 c3 a9 bd
       -0.05626382 0.00778466 -0.035160724 -0.08289266
0000b0 87 79 6a 3d a3 75 e5 3d 22 c2 17 bd b5 eb c4 bb
       0.057244804 0.11204078 -0.037050374 -0.006009544
0000c0 8a ee ed bc e1 bb fa 3c 0f e6 ac 3c ba 17 d3 3d
       -0.029044408 0.030607166 0.021105794 0.1030726
0000d0 07 ab 7a bd 9c 1f 14 be 59 4b 3f 3d 97 f9 1b 3d
       -0.06119826 -0.14465183 0.046702716 0.038079824
0000e0 58 c4 3d 3d 05 e1 d0 3d 5f 94 49 3d 50 1a 88 3c
       0.046329826 0.10199169 0.049213763 0.01661411
0000f0 e5 33 26 3c 79 bd 80 3d bd c0 25 bc b6 a4 45 3c
       0.010144209 0.06286139 -0.010116753 0.012063196
000100 58 5a 91 bc 3c 0e ac 3d 62 a6 65 3d 9f e4 f8 3d
       -0.017743275 0.084011525 0.05606688 0.12152981
000110 76 89 9b bd fd 23 4c bd 4a 9d c1 3d cb 50 d4 3d
       -0.07594578 -0.04983901 0.09453829 0.103669725
000120 47 e5 8d bd 13 11 94 bd d6 d1 89 bd fd b1 c5 3d
       -0.06928497 -0.07229819 -0.06729476 0.09653089
000130 80 ec b3 3d 20 36 f4 bc a0 a3 ca 3d 20 5c 8b bd
       0.08785343 -0.029810965 0.0989449 -0.06804681
000140 3a 84 98 3d d4 53 3f 3d 5a b5 fc 3c a7 d5 81 3d
       0.07447095 0.046710804 0.030848194 0.06339579
000150 1d 6a 82 bd 5f e3 13 3d cc 19 18 bc 84 c4 25 3d
       -0.06367896 0.03610551 -0.009283494 0.040470615
000160 d7 04 06 3e f8 e3 f5 3c 9d 6f a2 3b 4d e1 39 3b
       0.13087784 0.03001593 0.004957153 0.002836305
000170 89 0c 2f bd fd a7 55 3d 82 5d 4b 3c eb 94 8b 3c
       -0.042736564 0.05216216 0.012412431 0.017038783
000180 69 63 8c bd 3f c2 91 bc c4 69 a8 3d e9 31 b3 3d
       -0.068548985 -0.017792819 0.08223298 0.08749754
000190 79 cf 0d 3e ef e0 3b bd 93 84 0e 3d a9 25 55 3d
       0.13848676 -0.04586881 0.0347944 0.05203787
0001a0 95 ab 9e bc bb f8 a0 bd 5d d4 94 bd 4d 20 45 3d
       -0.019368926 -0.078599416 -0.072670676 0.048126508
0001b0 97 b3 71 3d 9d 66 ae bc 78 a3 42 bc be f6 5d 3d
       0.05900916 -0.021289164 -0.011879794 0.05419039
0001c0 60 ad ae 3d e4 17 89 bc 3e 63 b2 bd 42 ee 8b bc
       0.085291624 -0.016735025 -0.08710335 -0.017081384
0001d0 9d 7d ad 3d a6 08 21 3b 9d 7d 0a 3e 5b f8 b2 bd
       0.084712245 0.0024571805 0.1352448 -0.08738776
0001e0 5b 63 bc 3d b2 72 1b 3c ba 1a 24 bd 08 c7 9d 3d
       0.09198638 0.009487795 -0.04006455 0.07703978
0001f0 84 cf 5a 3d ea 3a d0 bd 48 65 09 bd e8 0a ed 3c
       0.05342056 -0.10167487 -0.033543855 0.028935865
000200 3a 5a f5 ba 19 d9 b6 bc 49 9f 95 3d 3d 83 f4 bc
       -0.0018718906 -0.022320317 0.07305772 -0.029847736
000210 25 2e 81 bd 7d 31 a8 bd f7 49 19 bd e6 a4 9f 3d
       -0.063076295 -0.08212564 -0.037424054 0.07795124
000220 d0 c8 ea b6 81 c8 df bd d2 df 0f 3d 8e 9b 4d bc
       -6.997121e-06 -0.10926915 0.03512556 -0.012549294
000230 ed 84 16 3d 85 1d 8d bd f5 e5 8f 39 6b fe 7c 3d
       0.03674786 -0.06890396 0.00027446417 0.06176607
000240 86 1a 81 3d d8 fb ab bc cb 4f 2e 3c 82 1f cd 3d
       0.06303887 -0.020994112 0.010639141 0.10015775
000250 56 8f cc 3d 31 74 5c bc ca b2 1b 3e 8a 33 2c 3c
       0.09988277 -0.013455437 0.15204921 0.010510335
000260 6c 45 e5 3c 33 bd 86 3d aa ef 7f bd 0d 9c eb 3d
       0.027987204 0.06579056 -0.06248442 0.11504374
000270 a7 2b ea 3c d7 53 d1 3c ff 11 c4 bd 5a 28 87 bd
       0.028585268 0.025552673 -0.09573745 -0.06599493
000280 ee 21 2f bd 85 99 08 3c 5b 3c d2 3d 09 43 e5 bc
       -0.042756967 0.008337383 0.10265418 -0.027986066
000290 c7 4f 98 3b ab f1 8b bb a9 d1 1a 3d ba 81 f6 3c
       0.004648182 -0.0042707524 0.037797604 0.030091155
0002a0 1e 20 68 3d d5 e9 48 bc 3e df 6e 3c cc 8a 5d bd
       0.056671254 -0.012262781 0.014579592 -0.054087445
0002b0 7b 0e 43 bd 51 f1 a0 bc fb 34 f1 3a 96 f6 1b be
       -0.04762123 -0.019646319 0.001840263 -0.15230784
0002c0 eb f8 96 3c 20 f5 b2 3d 21 c8 a7 bb 98 a7 13 3d
       0.01842924 0.0873816 -0.005120293 0.0360485
0002d0 a5 1d 16 3e e1 f7 87 bd 75 e5 7a 3d 84 5c ce 3d
       0.14659746 -0.06639076 0.061253984 0.1007624
0002e0 9e 3b da 3d 6d 08 2c 3d 17 ac c2 bd d6 c6 95 3c
       0.10655902 0.042000223 -0.0950548 0.018283289
0002f0 97 7c f2 bb 2f 4c 0d 3d d7 9c a0 3d 66 bf 00 3c
       -0.007400106 0.034496482 0.07842415 0.007858133
000300 f2 7e 8e 3d 43 83 0f 3d e2 ae 02 3e 25 87 9a 3d
       0.06957807 0.03503729 0.12762025 0.07545308
000310 8c 2f c1 3c a3 e2 84 3d d7 68 f7 bc a0 e6 84 3d
       0.023582242 0.0648854 -0.030201359 0.06489301
000320 38 e3 d1 bc 60 d6 e7 bc 1f b3 95 bd 0a 74 8f bd
       -0.025621042 -0.028300464 -0.07309555 -0.070045546
000330 26 7c 1a 3d 86 ad a1 3d e9 50 1f 3d d0 13 6c bd
       0.037716053 0.07894425 0.03889552 -0.057636082
000340 51 46 56 3d bf 98 92 bc 3a a5 ca 3d 8b 1e 0a 3e
       0.052313153 -0.0178951 0.09894796 0.13488214
000350 68 b5 9f 3d 1e 59 34 bd 72 01 e1 bd 55 df 46 bd
       0.07798272 -0.0440303 -0.10986604 -0.04855283
000360 5c 2d 86 3d 7e 46 c8 3c 61 b0 05 bd 4e d4 ab 3d
       0.0655162 0.024447676 -0.03263891 0.08390103
000370 fd d8 95 bd 29 3f 8b 3d 17 02 ab 3d bd f7 f3 3d
       -0.07316778 0.06799156 0.08350008 0.11912487
000380 64 8a f3 3d be c1 d2 3d 27 7e 3b 3d 8f a5 b6 3d
       0.1189163 0.1029086 0.045774605 0.089182965
000390 a4 d3 82 bc 82 97 01 3e 72 9c 4c 3c 8d 17 d2 bc
       -0.015970059 0.12655452 0.012488471 -0.025645996
0003a0 37 f6 f1 3c 55 68 f0 bd 12 63 80 bd c6 c5 52 3d
       0.02953635 -0.1173865 -0.06268896 0.051458143
0003b0 f6 9a d9 bc 70 a9 30 3d b0 13 6d bd 0c 60 d8 3d
       -0.026563149 0.04313034 -0.057880104 0.105651945
0003c0 65 49 13 3e 57 9a f9 bc d8 d1 a1 bd fb eb e5 3d
       0.14383467 -0.030469103 -0.07901353 0.1122665
0003d0 ee 56 0e bd 69 fe 91 3d 31 5b ac 3d 11 7c 32 be
       -0.03475087 0.07128603 0.08415831 -0.1743014
0003e0 8a 63 6c 3d 44 18 8a 3d 86 4a 45 3d 19 ad 94 3c
       0.057712115 0.067429096 0.048166774 0.018148946
0003f0 ca 6f 4a 3d fa 08 33 3d be 58 5a 3c 66 f2 00 3e
       0.049423017 0.043709733 0.013326822 0.12592468

fc.2.bias f4 [88]
000000 dd 45 c1 3c f2 15 58 bd d2 c3 bf 3d c6 5f 04 bd
       0.023592884 -0.052755304 0.09363522 -0.0323179
000010 f3 e9 10 bc 97 3c 30 bd 64 00 1b bc ca 85 1e 3d
       -0.00884484 -0.043026533 -0.009460542 0.03870181
000020 7c 1d d3 3c 33 72 b8 bc 6d f1 82 bb ee 73 e0 3c
       0.025770895 -0.022515392 -0.0039960654 0.02739903
000030 43 a1 d1 3c 2a 1a c1 3d 38 17 6b 3d e7 32 f4 bb
       0.02558959 0.094288185 0.05739519 -0.007452357
000040 ac 26 2f 3d a3 72 a3 bb 0a 3e e5 bc 9b b8 bc 3d
       0.04276149 -0.004988031 -0.027983684 0.09214898
000050 8e c4 c6 3d 19 90 16 3d 9d 81 8f bd 54 49 2a 3c
       0.097054586 0.036758516 -0.07007144 0.010393459
000060 e9 4f fb bc 1a b4 8e bc 79 b5 a7 3d 50 1b 8d 3d
       -0.030677753 -0.017419863 0.0818891 0.06889975
000070 fd f1 06 3d 7c bb 9f 3c 96 66 a5 3c 68 9d 0f 3d
       0.03294562 0.01949858 0.020190518 0.035062224
000080 6e d5 55 3c c8 39 2f bd 94 3a a6 3d c6 3a 4d bd
       0.013051374 -0.042779714 0.08116642 -0.05010488
000090 22 63 99 3d 0c 6e 72 bd 54 2a 2e 3d b7 f2 a1 3d
       0.07489611 -0.05918698 0.042520836 0.07907622
0000a0 86 d2 0b 3d ca 35 0f bd cb e7 f3 3c 6d 87 a8 bc
       0.034136318 -0.034963407 0.029773613 -0.020572389
0000b0 57 59 3b 3c b9 7b 34 3a 66 fd 56 3c ea ce 42 3d
       0.0114348745 0.0006884891 0.013121938 0.04756061
0000c0 8d a7 c0 bd 01 e2 38 3d 61 a2 e1 3c 77 02 5f bc
       -0.09406958 0.04513741 0.027543249 -0.0136114275
0000d0 d6 bc 1c bd 6f 22 bb bd 6a 11 b9 bd ac ae 84 bd
       -0.038266025 -0.09137427 -0.090365246 -0.064786285
0000e0 22 59 43 bc 83 b1 ed 3c d7 d8 68 bd 60 e3 fd bc
       -0.011923106 0.029015308 -0.05684742 -0.03099221
0000f0 ca 48 b9 bd 08 17 07 bd f7 74 86 bd ec 05 bf bc
       -0.090470865 -0.03298095 -0.06565278 -0.023318253
000100 6a 89 1c 3d 5b a5 ba bd 3c 85 a5 bc aa 86 0e bd
       0.038216986 -0.0911357 -0.020205133 -0.034796394
000110 23 c0 72 3c 15 51 a2 bc 20 2f 93 bd ae 4b c3 bc
       0.014816317 -0.019814054 -0.07186723 -0.023839798
000120 34 5e 21 bd 5b 66 a6 bd 2c 6f 10 3d a1 49 18 3d
       -0.03939648 -0.081249915 0.03526227 0.037179593
000130 84 3c 56 bc 40 44 1e 3d db a9 11 3b b2 22 d9 bc
       -0.0130759515 0.038639307 0.0022226486 -0.026505802
000140 03 8e ac 3c 1f 3f b3 bd 48 12 11 3d fc 25 13 bd
       0.02106381 -0.08752274 0.035417825 -0.035924897
000150 bb 9f 8e 3d 14 fd 08 bb ac 0e c5 3c c0 72 28 bd
       0.0696406 -0.00209028 0.024054848 -0.04112506

fc.2.weight f4 [88, 176]
000000 9d 28 7c 3b 74 8f 9a 3c b8 5c 88 3c ae 29 40 bc
       0.0038476356 0.018867232 0.016645774 -0.011728687
000010 35 7c bc 3b 13 48 a3 3c 7d cd 32 3d 2f 96 0a bd
       0.0057521113 0.019931829 0.043653 -0.033834632
000020 e2 e6 f0 bc 5f 90 4d 3d c4 59 16 be 14 66 df 3c
       -0.029406969 0.05018651 -0.1468268 0.027270354
000030 76 32 87 3d 07 14 c5 bd f4 fc 9d bd 56 56 c3 bc
       0.066014215 -0.096229605 -0.077142626 -0.02384488
000040 d5 f2 43 bd cb 9d 28 be 74 27 32 3d 6c 2e 10 bd
       -0.047839005 -0.16466443 0.043494657 -0.03520052
000050 fe 76 22 bd ab 1d b1 3c dd e8 9d bd 87 ef c5 3d
       -0.03966426 0.021620592 -0.07710431 0.09664827
000060 e0 51 fa bd a6 d6 78 bd a4 aa 89 3d 3d c6 be 3d
       -0.12222648 -0.06075158 0.06722 0.09315155
000070 b9 2a 11 be 67 57 08 3e 26 41 ed bd 71 07 1c 3d
       -0.14176454 0.13314591 -0.11584692 0.038093034
000080 91 13 09 be 8f 12 f6 3d 0c 5e e8 3d d1 72 d1 bb
       -0.1338637 0.120152585 0.11346063 -0.006391861
000090 a6 14 86 3c f5 01 94 3d 64 d9 aa 3d 64 c6 04 bd
       0.016367268 0.07226936 0.08342245 -0.032415763
0000a0 76 8c a3 bd 59 64 d1 bd 70 36 83 bc 39 67 d6 3c
       -0.07985775 -0.10224218 -0.016017169 0.026172267
0000b0 3b 8d fe bd 6c a5 e9 bc 9b e7 cc bd 54 a0 fc 3c
       -0.12429281 -0.028521262 -0.10005113 0.03083817
0000c0 68 a4 a0 bd 2a cc 9f 3c 0a 3f 7b 3b 1c 5f 86 be
       -0.07843858 0.019506533 0.0038337135 -0.26244438
0000d0 36 d6 fc 3d f8 8b 8d 3d 72 cb 92 3c ca 9f 05 3e
       0.12345545 0.069114625 0.017919276 0.13049236
0000e0 04 d2 13 be b9 ed b3 3d cd a0 e0 bd 57 bf da 3d
       -0.14435583 0.087855764 -0.1096817 0.106810264
0000f0 5e 6e 91 3c 4a 2d e7 bd ea a2 8c bb a8 8c 09 be
       0.017752822 -0.11287935 -0.004291882 -0.13432562
000100 43 f5 d2 bc ed eb 9a 3c 79 49 ea bd ff 6b be 3d
       -0.025751716 0.018911326 -0.11439795 0.09297942
000110 2b 30 c4 bd fe f4 95 bd 51 43 8f bc 14 7e b3 3c
       -0.095795 -0.07322119 -0.017488154 0.021910705
000120 0b ce 3c 3d 43 90 8d 3d e6 a5 fa 3c 98 46 5e bd
       0.046094935 0.06912281 0.030596685 -0.054266542
000130 a6 28 ad 3d d3 77 1b be c4 6f 0f 3e 13 bf 0a 3e
       0.08455019 -0.15182428 0.14007479 0.13549452
000140 50 87 15 bd 66 e6 83 bc 59 ee 1d be 5e e0 09 be
       -0.036505997 -0.016101073 -0.15422954 -0.13464496
000150 04 3e 1c be 14 d4 b9 bd 71 96 4f 3c 68 07 e2 bd
       -0.15258032 -0.09073654 0.012670145 -0.11036569
000160 33 06 68 bd 38 34 12 be 0c 66 bd bd 6a 26 a3 3d
       -0.056646537 -0.14277732 -0.092479795 0.07966311
000170 bf 14 03 bd 63 e1 7b 3d f7 f1 db 3d 26 8e ba bd
       -0.032002207 0.061494242 0.107395105 -0.09109144
000180 e4 c2 96 3d 84 19 de 3d 17 5c 88 bd 30 67 8d 3e
       0.07361391 0.108447105 -0.0665819 0.27617788
000190 d7 98 b3 bd 8e 9b 0e be d2 91 95 bd c0 db 98 bd
       -0.08769386 -0.13926527 -0.07303204 -0.07463789
0001a0 5d 70 8e 3d 0c c8 cb 3d 62 17 e8 bd 73 bd f9 bd
       0.06955025 0.09950265 -0.11332585 -0.12194338
0001b0 50 e6 bf 3c 5b e2 93 bc ed 9b 8a bc 32 0b 07 3c
       0.023425251 -0.01805227 -0.016920054 0.008242415
0001c0 85 6e bb bd be 0f d2 bd 74 8e 2e be 65 a9 04 ba
       -0.09151939 -0.10256909 -0.17046529 -0.0005060642
0001d0 81 6d 5e bd d9 cc fc 3d 46 72 4f 3d 2b b4 5e be
       -0.05430365 0.12343759 0.05064609 -0.21748416
0001e0 19 48 a2 3d fa 2d 06 bd 7c 13 a1 bd 90 62 4c bd
       0.07923908 -0.03275869 -0.078650445 -0.049898684
0001f0 af bc 1a bd b0 f5 c0 bd 1b 2d f0 bd 21 6e 03 3c
       -0.0377776 -0.09421861 -0.11727353 0.008021862
000200 ff cf 56 3d 37 8b 8d bd 94 f2 db 3d 88 cd 1c bb
       0.052444454 -0.06911319 0.107396275 -0.0023926217
000210 40 30 8d bd fb 05 eb 3d d9 69 6e bd 0c fd a9 3d
       -0.068939686 0.1147575 -0.058206413 0.08300218
000220 50 fa 1b 3d 5a 30 9a bd 34 16 fc 3d f3 0d 5c 3d
       0.038080513 -0.075287536 0.123089224 0.05372424
000230 d5 da e9 bd 8a c2 f7 3c 55 83 12 3d 57 c1 0d be
       -0.11418692 0.03024413 0.03576978 -0.13843285
000240 37 08 0c bd 33 a4 89 bd a6 35 e6 3d 07 80 72 3b
       -0.03418752 -0.06720772 0.112407014 0.003700258
000250 89 14 ed be a7 a0 f2 bd d0 48 ff 3c 29 a3 2c bd
       -0.4630473 -0.11847048 0.03116265 -0.04214779
000260 61 59 cf 3d 99 69 02 be 7c ec 02 be bd 30 09 3e
       0.101244695 -0.12735595 -0.12785524 0.13397498
000270 26 17 fc 3c 0d 9b 8e 3c 1e 9a c9 3d a1 18 85 3d
       0.030772757 0.017407918 0.09843849 0.06498838
000280 ec 44 6e 3d 74 38 4a 3c e9 45 47 bc 28 ac 98 3d
       0.058171198 0.012342561 -0.012162664 0.07454711
000290 cd fb ca bd b7 e2 2b 3d e6 20 b8 3c 6b 47 b9 3b
       -0.099113084 0.04196426 0.022476625 0.0056542656
0002a0 6e f1 89 bd f2 da b0 3c 63 12 37 3d cd 7c a7 3d
       -0.06735502 0.021588776 0.04469527 0.08178101
0002b0 c1 b4 4e 3d e3 66 1c bc e8 96 d3 bd 43 84 b8 bb
       0.05046535 -0.0095460145 -0.103315175 -0.005631001
0002c0 ff e5 bc bd e8 9c 7a bc 95 eb 59 3d 7e 48 ee 3d
       -0.09223556 -0.015296198 0.053203184 0.116349205
0002d0 74 01 09 be 6c b2 08 bc 29 6b f0 3d 81 c6 17 be
       -0.1337946 -0.00834332 0.11739189 -0.14821817
0002e0 51 b8 f9 bd f5 22 38 bd 52 a0 3a 3d c0 3c 06 3b
       -0.12193359 -0.044955213 0.04556305 0.0020482987
0002f0 45 d4 49 bd b3 34 54 bc fa ea cf bd dc 9d e8 3d
       -0.0492747 -0.012952018 -0.1015224 0.11358234
000300 0d 6c d1 bd 22 cf 57 bd df e2 06 bd ee dc d2 bd
       -0.10225687 -0.05268777 -0.032931205 -0.10296045
000310 11 62 56 3d f5 0f e9 3d 18 24 8e bd b2 1a c4 bd
       0.052339617 0.11379997 -0.06940478 -0.09575404
000320 14 99 d5 bd b2 4a 9a 3d 34 50 4a 3d 9c 6a b8 bd
       -0.10429588 0.07533778 0.049392894 -0.09004709
000330 db 88 2d bd 04 89 cd bd 92 41 d2 bd 63 ff cb bd
       -0.042366844 -0.10035899 -0.10266413 -0.099608205
000340 f2 40 97 bc 9b 17 b4 bd 73 22 0e be e3 d5 0a be
       -0.018463586 -0.08793565 -0.13880329 -0.13558154
000350 b3 0d 81 bd a6 93 ec 3d 8b f9 2a bd 72 2f ac bc
       -0.06301441 0.11551599 -0.04174189 -0.021018717
000360 e2 1b 33 3d 93 bc 03 bd b7 f0 20 3c 0b 71 cb bd
       0.043727763 -0.03216226 0.009823016 -0.099336706
000370 b6 67 08 be e8 1d 7a 3d cc 63 e0 3c 41 be f9 bd
       -0.13320813 0.061063677 0.027391337 -0.12194491
000380 9b 2a 14 be 91 88 39 bd 13 8e c9 3c 41 b5 02 be
       -0.14469378 -0.045296255 0.02460388 -0.12764455
000390 be d6 98 3b b7 91 92 bd 2a e5 60 3c 07 db de 3d
       0.004664271 -0.07156699 0.013726512 0.1088162
0003a0 1d d2 9b 3c 63 89 be bc 71 0e 8b 3d f0 7f cf 3d
       0.019021088 -0.02325887 0.06789864 0.10131824
0003b0 c7 11 99 3c 31 bb 91 3b 9b 4f a3 3d 61 92 13 be
       0.018685235 0.004447364 0.07974168 -0.14411308
0003c0 0f b0 c2 bd cd 88 b1 3d 10 dc 38 be be 59 3c 3c
       -0.09506237 0.08668671 -0.18052697 0.011496006
0003d0 65 35 06 3d e4 b3 cf bd 6a c8 05 3e 18 b9 e8 3d
       0.032765765 -0.10141733 0.13064733 0.11363429
0003e0 db a1 b0 3d 6a 04 08 be 7f 94 83 bc 32 04 fd 3c
       0.086246215 -0.13282934 -0.01606202 0.03088579
0003f0 7d ad a4 bc d0 b7 71 3d 56 f1 b5 bd 89 d1 01 3c
       -0.020102257 0.059013188 -0.08883922 0.007923492
