resources/imgreco/inventory/ark_material.onnx (onnx, 999411 bytes, 8 tensors)

conv.0.bias f4 [10]
00000000: 3f74 a3bd 4b68 a5bd 145c b03c 3b66 5e3d
00000010: 0834 5ebd 6097 6d3d db8c aebd 3787 96bd
00000020: 546d 0e3d dc1b 4f3d
-0.079811566 -0.08076533 0.021528281 0.054296713 -0.05424884 0.05800569 -0.0852296 -0.07350009
0.034772232 0.05056368

conv.0.weight f4 [10, 3, 5, 5]
00000000: 2944 103b b8f1 e23d 8b36 adbc 7564 c23d
00000010: 322f ccbc 682d 12bd 6cf6 7f3d 39a2 c73d
00000020: 4cf8 7b3d d80c 473d 13d3 5abd 0a09 a8bd
00000030: 0a1f e23d 9962 35bd 4d9b e6bd 550f 4b3d
00000040: ba8e b6bd 9705 32bd dbaa 563d aa9e d7bc
00000050: 483f 7ebd c056 cc3d b7b9 803c ed49 a2bd
00000060: cbf8 b23c c937 563d 2742 b93c 511a bfbd
00000070: 1d2b 693d c3ca 823d 51ba 003d 16f7 603a
00000080: c9f8 87bd a2fa 19bc fc38 d43d 95a2 2f3d
00000090: 5846 0c3d afbf d3bd efb7 1a3d dce6 d73d
000000a0: eddd bd3c e858 6f3d daa9 843d f722 d0bd
000000b0: 742e e7bd 313b b2bd 94ef 9a3d a5a3 eebd
000000c0: de2e 61bd 1b46 0b3d 2964 37bd f32e aeb9
000000d0: fde2 9bbd 4cbe 4ebd 0454 823d cbe1 f7bc
000000e0: 427d aabd a38c 96ba 3eb7 933c 9c99 f7bd
000000f0: b670 dcbd 185d c43d 0cb5 bdbc 3403 5cbc
00000100: 3f55 02bc 7637 8abc 81aa 0abd 2668 b5bb
00000110: 6616 63bd 4bfd b3bd 4bf1 5e3d 85f7 d43c
00000120: 8973 a73d 3ba2 cebd 63a7 6dbc 1766 91bd
00000130: 1ce1 2c3d 8210 a73d 968f 903d eb1f 9ebd
00000140: 2d61 623d 560f 973d 32f3 46bd 3654 db3c
00000150: de6a 903d 8df2 2c3d 10cd ac3c 3859 73bd
00000160: 20eb 473d 8f36 35bd 3a7b 4ebd 2f00 95bd
00000170: 3716 eebd 3743 e03c df21 a1bd f048 e03d
00000180: 3a86 28bd b495 f8bd c2ab b1bd 044d 8b3d
00000190: 9a86 fc3c 5f74 ba3b b9f4 543d cdd0 183d
000001a0: 9916 27bd 68fd 9ebc 4ec1 993d 8958 943a
000001b0: 65a8 5ebd bf80 b9bd 2a62 b33d 194b cf3d
000001c0: cf2f ea3c a0d5 07bd 0591 483d 371c 833d
000001d0: e6ef 343d e0f4 a5bd 9ff2 e3bd 52dc da3c
000001e0: 7f47 72bd 31b4 c1bd b621 8abd cbe2 96bd
000001f0: ec0b 09bd 5c1e eabc 0623 cc3d 13a7 68bb
00000200: 7b81 993d 1ce6 33bd ce15 9b3d ff6b a5bd
00000210: 27d1 21bb 4e85 debd e68d d6bd ad71 1dbd
00000220: 8afc a53d 5f3d ad3d fc10 dfbd f31c a3bc
00000230: b6e9 bf3d cb3c b5bd 0b41 cebd 278b da3c
00000240: ab97 c63c ef86 66bd 948e 48bd 5b22 26bd
00000250: 76ae 413d a6a9 e3bd 5418 00be f178 8abd
00000260: d2b3 c03b 51d5 953d 5af0 9e3d c214 eebd
00000270: 878f afbd b39a 8bbd c7aa 823d f135 f4bb
00000280: dc2b db3c 6288 05be 2594 e0bb 6388 8f3d
00000290: 1c01 d5bd 058b 6d3d 0bd4 6abd 3c8f 22bd
000002a0: 4568 6cbd a142 8ebc e8d4 06bd ad95 893d
000002b0: 3342 063d 1482 4bbc fd8a b53d bb21 d13d
000002c0: b416 3f3d bf88 a7bd 7c15 9e3d ca41 e63b
000002d0: 24c1 983d b669 963d 597c b23d fdf6 943d
000002e0: 4365 80bc 5f09 3b3c 41cc 8b3d a7a8 af3d
000002f0: efb5 6f3d 7076 76bd 1913 37bd e736 663d
00000300: da27 acbd cd13 e8bd 38d0 003d f47a 5e3d
00000310: f97a 173d eab1 dbbd bd58 d2bc b5a2 8f3d
00000320: abec 61bd 6496 563d 59de b1bd ee95 82bd
00000330: 1f9a 61bd d75d 83bd 7877 303c e45c afbd
00000340: 6a44 bbbd 27f3 25bd 59cc 153d ecb3 883b
00000350: eb59 bfbd a3b2 4e3d 8ad2 1f3c 78d0 b53d
00000360: 0b80 9b3d 0676 00be 384d 803d e3b8 ce3d
00000370: 08dd 743c a856 8e3d ecbf 973d 445c e0bd
00000380: f693 8cbd 2a09 8e3d 6e51 93bd ef02 debd
00000390: 9fdb 9c3d 67d9 6ebc 71da 2a3d 5b57 8dbd
000003a0: 45b3 8d3d c873 c03d 40cc f5bc 44d7 953d
000003b0: b16b 9b3c b018 e1bc 31f1 e8bd 865d f73c
000003c0: 7ea4 76bd f069 48bd 6534 d8bd 75a4 573d
000003d0: 3c5f 91bd 5b53 b1bd 48f5 cfba 3eed b0bd
000003e0: 95ca f9bd 3fc6 b3bb bfa6 913d 2184 fbbd
000003f0: 37cf 8fbd 1a1f debd 3e5f 81bd 546d 4a3d
0.0022013283 0.110812604 -0.021144172 0.09491817 -0.024924848 -0.035687834 0.062490866 0.097477384
0.06151609 0.048596233 -0.053423952 -0.08204849 0.110410765 -0.044283483 -0.1126009 0.04957517
-0.08913942 -0.043462362 0.052409034 -0.026320774 -0.06207207 0.09977484 0.015713556 -0.079242565
0.02184715 0.052299295 0.022614552 -0.09331191 0.05692588 0.0638633 0.031427685 0.00085817405
-0.06639249 -0.009398134 0.103624314 0.04287966 0.034246773 -0.10339295 0.03777307 0.1054208
0.023177112 0.058434397 0.06477709 -0.10162919 -0.11288157 -0.08702696 0.07565227 -0.116523065
-0.054976337 0.034002405 -0.044773255 -0.00033222846 -0.07611654 -0.05047445 0.06363681 -0.030259034
-0.08324672 -0.0011486005 0.018031713 -0.120898455 -0.107636854 0.09588069 -0.023157619 -0.013428498
-0.007954895 -0.016872149 -0.03385401 -0.005536097 -0.055441283 -0.08788546 0.054429334 0.025996933
0.081763335 -0.10089537 -0.01450524 -0.0709955 0.04220687 0.081574455 0.07058637 -0.077209316
0.055268455 0.07375972 -0.048571773 0.026773553 0.07051633 0.042223502 0.021093875 -0.059411258
0.048808217 -0.044241484 -0.050410487 -0.07275426 -0.11625331 0.0273758 -0.078677885 0.10951412
-0.041143633 -0.121379286 -0.08675338 0.06801799 0.030825902 0.005690142 0.0519912 0.037308503
-0.040793035 -0.019407943 0.07507573 0.001131789 -0.054359812 -0.090577595 0.08758958 0.101217456
0.02858725 -0.033162713 0.048966426 0.06401866 0.044174097 -0.08103347 -0.11130261 0.026716385
-0.059150215 -0.09458197 -0.06744711 -0.07367476 -0.033458635 -0.02857893 0.09967618 -0.0035499975
0.074953996 -0.04392062 0.07572518 -0.08077239 -0.0024691315 -0.108652696 -0.10476284 -0.038438488
0.08104809 0.08458971 -0.108919114 -0.019911265 0.09370749 -0.08849486 -0.10071 0.026677681
0.024242243 -0.056281026 -0.048964098 -0.040560108 0.04728552 -0.11116342 -0.1250928 -0.06761349
0.0058808113 0.073160775 0.07760687 -0.11625053 -0.085722975 -0.06816616 0.063802294 -0.0074527194
0.026754312 -0.13040307 -0.0068535977 0.070084356 -0.10400602 0.057993907 -0.057331126 -0.03968738
-0.057716627 -0.017365756 -0.032917887 0.067180015 0.032777976 -0.01242115 0.088644005 0.10211512
0.04665251 -0.08180379 0.077189416 0.0070268856 0.07458714 0.073443815 0.08715124 0.07273672
-0.015673285 0.011415808 0.06826068 0.0857709 0.058523115 -0.060171545 -0.044695947 0.056204703
-0.084060386 -0.11331902 0.031448573 0.054316476 0.03698251 -0.10727294 -0.02567708 0.07013456
-0.055157345 0.052389517 -0.086849876 -0.06376253 -0.055078622 -0.06414383 0.010770671 -0.08562639
-0.09143908 -0.04051509 0.036571834 0.004171839 -0.09343322 0.05046333 0.009754786 0.08877653
0.07592782 -0.12545022 0.06264728 0.10093858 0.014945276 0.06950122 0.07409653 -0.10955098
-0.06864159 0.06935342 -0.07193266 -0.10840403 0.07659077 -0.0145782 0.04171223 -0.06901427
0.069189586 0.093970835 -0.03000462 0.07316449 0.01897225 -0.027477592 -0.113741286 0.030195963
-0.060215466 -0.048929155 -0.105568685 0.052647073 -0.07098243 -0.08658477 -0.0015865946 -0.08639
-0.121968426 -0.0054862793 0.071118824 -0.12281061 -0.07021945 -0.10845776 -0.06316994 0.04942067

fc.0.bias f4 [320]
00000000: 97af 93bc 7727 583b cc45 8fba a807 5e3c
00000010: 3e07 59bb 25ea ca3c ebf3 fdbb 6d6d 3f3c
00000020: fb2b f43c 4668 c6bb 2811 b3bc 43b6 743c
00000030: b2d3 2a3d e7d3 f4bc 8c8c 2a3c dc6c 9c3b
00000040: 5935 ebbc a3c6 08bc b80d c33b 811e 213c
00000050: 032b 6339 572d d4bc fc18 95bc 93d0 23bd
00000060: 57d7 9e3c cd6c 2cbb 11ba b039 2c24 e9bc
00000070: 5ef2 803d 5cca 423c 2dfd 84bc d42e b63c
00000080: 85f5 b53c 99f7 2abc e400 153d 52b4 ad3b
00000090: 4d4e febb 0afd 6c3b 5566 92ba 6439 b2bc
000000a0: 3279 e8bc 953f febc 0aa5 023d 98ea 513c
000000b0: a775 693c 2b99 f8bb 6609 e5bc 7246 87bc
000000c0: 6b27 b8bc eea9 863d 1b08 623b 78b1 26bd
000000d0: 1dc9 c2ba 7f78 13bc 8c7a b33b 4a0c e03c
000000e0: 5eb8 973c db7d a1bc 43e0 823c a675 0e3c
000000f0: ff7a dcbb 2771 03b9 00dc a2bc bbf4 193d
00000100: e7c0 453c fd7b 2d3c f9a9 8abc 7252 8cbc
00000110: 54a8 52ba fca1 d2bc 3b41 d7bb 1ee8 9cbc
00000120: bd1e da3c 61c8 88bb c0aa d83c 8ff9 0f3d
00000130: 5f9f b0bc f8f8 023d 0dc2 023d 0649 3b3a
00000140: 2293 c1bc 52e1 de3c e554 bbbc 18d4 e23c
00000150: 02ff 963a a126 e9bc 3c8e f63c fc50 0a3d
00000160: 8e38 dbbc 074c a83c 90dd 1cbd 8092 1fbd
00000170: 44f5 1c3d ba72 afbb f2d2 373c 5643 243c
00000180: b5e1 ff3c 05b8 983c 8dcd e3bb 49f8 1e3d
00000190: 9e3b 48bc a5f6 a0bc 4367 18bd ca66 02bc
000001a0: 02bc e03c 1049 0fbd fb3f 263c 6531 2cbd
000001b0: 80ae 90bc b8f0 0fbd 1460 f43b 09a4 823c
000001c0: 448e 6fbb c1a9 003d 0eb8 d6bb 9f1d 18bd
000001d0: 35a4 513b 643a 01bc 74c4 f1bc 5ae3 f8ba
000001e0: 972c e8bc 76a4 fc3c 4af7 9c3c 6b63 03bc
000001f0: d2d4 a93c 6bcc edbb 27a2 eb3c 5b07 27bc
00000200: 5c56 d1bb d109 74bc eb41 483a c394 7fbc
00000210: 2fec ffbc aa29 81bc f4bb 85bb db3f 073d
00000220: 6dd6 6c3a 0a4f be3c ee10 38bc a13c 063b
00000230: d2f1 87bc f22b acbc 5d05 e1bb c7b3 033b
00000240: d55d 553b 4068 2dbc 6f19 823c 4338 993b
00000250: 4412 0f3d 9c01 00bd 5992 a33c f03b 0bbc
00000260: 6aa7 103c 58bd d7bc 6595 0a3d 3cb1 d6bc
00000270: c9fe c43c be25 f1bc 04eb ae3a 699b 853c
00000280: 4fb9 e4bb 1738 dcb9 bf7f b8bc 334b 013d
00000290: 6217 2bbd 680f 4abc 81f1 8439 1c09 893c
000002a0: 6bc6 ce3c 04e0 f9bb fa2a ee3c 334e 20bb
000002b0: 7ff5 9fba 3c17 cd3c 3b4b 893c 0b8c 393d
000002c0: 389b c9bc a9cd 3f3b a754 383d ea25 553d
000002d0: 9a91 b2bb 5ce1 5cbc ae71 113c d94a cdbc
000002e0: b728 1d3d fcc4 01bd 3140 df3c be5f e63c
000002f0: bc0b 98bc 9f88 f0bc 4108 123d fa85 f3bb
00000300: a727 22bd 2747 fdbc f60b 0abd 0aa6 063d
00000310: dca0 093d 353b 1dbc 952c 24bd 4cc1 093d
00000320: 2d3c d9ba ee74 323b f542 bcbc 755b 2abd
00000330: c874 3f3c c7ff f2bc cc3c d1bc 79cb b8bc
00000340: 6130 a33b c465 143d 6bb2 c33c 3925 0b3c
00000350: d5e1 c8bc d4c1 733c 7159 82bc 272c 0fbd
00000360: a1d7 153d 5715 19bd d159 1e3d bef5 0d3d
00000370: 6f90 97bc 77df 163d 3f43 41bc f224 c13c
00000380: 067b 9d3c 29e7 9e3c 38db 41bc d930 8c3b
00000390: 3323 f53c fbc6 7dbc 69a0 77ba 0b9d c4bb
000003a0: 898c 1ebd ae08 28bd 2c79 0c3b 6843 8a3c
000003b0: 1a9f f5b9 3211 2a3d 2dc7 85bc 1bf7 af39
000003c0: 932d af3c c2cd b8bb f657 103d a3e4 78bc
000003d0: d3d3 0fbc 0650 fbbc 782c 41bc 5de0 4d3c
000003e0: 4625 703c fc0e 063c a407 993c 4005 dcbb
000003f0: 6271 c2bb 5a98 f83c ce07 b03c 88d9 db3b
-0.018028064 0.0032982507 -0.0010930835 0.01355163 -0.003311589 0.024769852 -0.0077500246 0.011683804
0.029806128 -0.006054911 -0.021858767 0.014936033 0.041705795 -0.0298862 0.010409486 0.0047737192
-0.028711962 -0.00834814 0.005952563 0.009833933 0.0002166443 -0.025900526 -0.01820039 -0.039993834
0.019389791 -0.0026309968 0.00033707966 -0.02845963 0.06296228 0.011889067 -0.016234005 0.022239126
0.0222118 -0.010435008 0.036377802 0.005301037 -0.007760799 0.0036161565 -0.0011169413 -0.021755882
-0.028378103 -0.031036178 0.031895675 0.012812279 0.014249242 -0.0075866184 -0.027958583 -0.016513083
-0.022479733 0.0657538 0.0034489695 -0.04069659 -0.0014860962 -0.0090008965 0.005477255 0.02734961
0.01852053 -0.019713333 0.015976077 0.008695042 -0.0067285295 -0.00012535286 -0.019880295 0.03758691
0.012069917 0.010588643 -0.016926752 -0.017129157 -0.0008035947 -0.025712006 -0.0065690554 -0.01915365
0.026625985 -0.0041742777 0.026448607 0.035150107 -0.021560369 0.031975716 0.031923342 0.0007144365
-0.023629729 0.02720705 -0.02286763 0.027689025 0.001152009 -0.028460803 0.03009712 0.03376864
-0.026760366 0.020544065 -0.038297236 -0.038958073 0.03831984 -0.0053542526 0.011219727 0.01002582
0.031235555 0.018642435 -0.006951994 0.038811002 -0.012221245 -0.01964886 -0.037207853 -0.007959077
0.0274334 -0.034981787 0.01014709 -0.042039294 -0.017661333 -0.035141677 0.0074577425 0.015947359
-0.0036553303 0.03141189 -0.0065527027 -0.037137624 0.0031988744 -0.007887457 -0.029512621 -0.0018988654
-0.028341575 0.03084014 0.019160885 -0.008019309 0.020731363 -0.0072570345 0.028763844 -0.010194625
-0.0063884687 -0.014894919 0.0007639217 -0.015599432 -0.03124055 -0.015766937 -0.0040812436 0.03301988
0.00090346375 0.023231048 -0.011234505 0.0020482915 -0.016594801 -0.021017049 -0.0068670944 0.002009617
0.003255715 -0.010583937 0.015881268 0.0046758964 0.03492953 -0.031251535 0.019967245 -0.008498177
0.008828977 -0.026335403 0.03383388 -0.026207559 0.024047272 -0.029436942 0.0013345187 0.016309457
-0.0069800983 -0.0004200346 -0.022521852 0.031565856 -0.041770346 -0.012332775 0.00025356936 0.016727977
0.025241097 -0.0076255817 0.029073227 -0.0024460673 -0.0012203901 0.025035493 0.016759505 0.04529957
-0.024610147 0.002926687 0.045002606 0.05203811 -0.005449486 -0.013481464 0.008877201 -0.025060104
0.038368907 -0.031682 0.027252289 0.028121825 -0.018560283 -0.029362021 0.035652403 -0.0074317427
-0.039588597 -0.030917717 -0.033702813 0.03287319 0.033600673 -0.009596636 -0.04008158 0.033631608
-0.001657372 0.002723034 -0.022981146 -0.041591126 0.011685558 -0.02966298 -0.025541686 -0.02255796
0.0049801324 0.036229864 0.023888787 0.008492761 -0.024521748 0.014877755 -0.01591179 -0.034954216
0.036582593 -0.037373867 0.038659874 0.034658186 -0.018501488 0.036834206 -0.011795818 0.023577187
0.019223701 0.019397335 -0.011832051 0.004278284 0.02992401 -0.015489335 -0.0009446205 -0.0060001663
-0.038708244 -0.041023903 0.0021434529 0.016877845 -0.0004684858 0.041520305 -0.016330326 0.0003356271
0.021384036 -0.0056397626 0.035240136 -0.01519123 -0.00877853 -0.030677807 -0.011790387 0.012565699
0.014657324 0.0081822835 0.018680401 -0.006714493 -0.0059339264 0.030346084 0.021488097 0.0067092814

fc.0.weight f4 [320, 640]
00000000: f78c 613b d3e1 28bd 184e fbbb c7f1 9ebb
00000010: 126d e13b 5b1c acbc c7ac e33c da5e 22bd
00000020: b7dd 2dbd 2c1d fa3c c3ea 413c 5a44 ebbc
00000030: 1711 953c c418 be3b 794e 153c ae7f 293c
00000040: 5d8e 1dbd 0c63 9abc 9257 d43c 19ca ed3c
00000050: e5a6 f13c 9845 653c 2493 82bc 50bd 3abd
00000060: d5d1 03bb 62a4 063d 0146 ce3c 771d a23c
00000070: a430 efbc f5a7 a4bc 7f46 5abd 24ad 2dbd
00000080: 8af9 0c3c 6748 293c 555c 193c e254 64bc
00000090: 44a1 063d 7afd c43c b7d2 573c 2091 e93c
000000a0: 52e0 44bb 2bc9 d23c 5d28 313b 53ad c33c
000000b0: 3053 08bd fb7f 833c 736e 55bd e3fe bcbc
000000c0: 0bbc 19b9 bd33 0d3b 6976 7e3c 6457 893c
000000d0: 1d79 973c e4b5 04bd 576f 9439 f68d 98bb
000000e0: e528 24bd cfa5 0f3b a0f0 10bd 9e29 b93c
000000f0: bbad afbc c768 47bc 36b8 38bc 927f 9dbc
00000100: 048e f7bc 0d43 f93c b5bc c9b7 eb21 353b
00000110: 0e6e c33c 38df ba3c 2616 853c 7e84 fd3c
00000120: abfb bf3c 3e46 24bd e0bc e9bc 1927 53bc
00000130: a085 933c a48d c83c 75c4 fa3c 8569 223d
00000140: 4b1e 55bc 6866 95bb 338f bc3c ce93 aebc
00000150: e80b aebb 63ea 253d f0fc 4a3c 83c0 b7bb
00000160: 3a97 463c 934e 1cbd 7e03 7d3a f3fc 56bc
00000170: e7ba 17bd 68fb 2f3d 9ad1 1dbb 1cc3 073b
00000180: 6da5 9a3c 0fe2 61bb 04fc df3c d470 4d39
00000190: f818 e23c 42b0 0a3c 90da 88ba a144 a1bc
000001a0: fa52 2cbd ce19 53bd 5465 2cbd 321c f43c
000001b0: 38a8 2dbd 135e 19bc a40c 7cbc f678 cdbc
000001c0: 5512 05bc e08f 633c 5aef e33b 923f d53b
000001d0: 8309 0fbd 54e9 d6bc 808d 70bc e9cd a3bc
000001e0: 3b9a bdbc 7aa3 e43b a588 0f3c 82ae ac3c
000001f0: 4d49 5cbc 285f ecbc 69ad cb3c a783 84bc
00000200: a597 8bbb cf82 d7bc 5386 dc3c 296a c6bb
00000210: 8ec9 7dba ecbe 7f3c f925 a63a db02 1fbb
00000220: 32b6 523c 4b00 4cbc ea65 bc3a 35c6 d73c
00000230: ee7b c0bc ab40 21bd e198 8fbc 2acd 6c3c
00000240: 60bb 32bd 2c39 f9bb 6f20 18bd dd2e d1bb
00000250: 6a6f cc3c 3078 4cbc 4e2c cb3b 73be 853c
00000260: 0f5d 203c 6170 923c 91bd dabc 08e3 3cbc
00000270: 8c65 30bd 6189 c9bc 9d08 febc 09ad bfbc
00000280: d410 0bbd dbfd 22bc ee37 6d3c 678d 0dbd
00000290: a5e7 913a 0e23 49bd 2fb0 b23b 577b 973c
000002a0: 231f f23c 5acb b4bc 75c0 203c 5ea7 67bc
000002b0: 0539 fabc 7729 c5bc 43af 0abd a6bc 5fbb
000002c0: 8fc8 823b 5deb 1ebd 9136 b0bc f0a6 2bbd
000002d0: 8554 99bc ad9f 253d ccab 99bc 8ac7 3abd
000002e0: e136 8abc 56b2 523b 3973 d23c 718a de3c
000002f0: dc1c dcbc 0312 a53c d0b9 a8bc c8fd 443c
00000300: 0cdd ee3c f532 3dbd 9906 323b 32e5 753c
00000310: fece 80bb b376 4fbc b644 d53c 93ed c0ba
00000320: 2ca3 51bb 476c 0b3d dd46 ddbc d430 12bd
00000330: 969b df3c d6c5 71bc 8f50 49bd 5fa5 863c
00000340: e3ab e03b f380 7c3d 1650 533d 35ed 533c
00000350: be56 953b 61f9 b2bc dd8d 08bc 0db4 123d
00000360: 64ca df3b 8ba6 f9bc 5532 043d 9d9b abbb
00000370: 6973 a7bc fee2 2abd bbd9 133d 44f8 c1bc
00000380: 56a7 53bd 766c 4cbd 0950 b93a 89e0 993c
00000390: 7ab4 723d 0be5 babb 564c 743b 76ca f93c
000003a0: 7ff7 393c fac2 49bd 7716 9bbb 5d32 d83c
000003b0: 29a5 f03c 6bb7 113d 7d62 e23c 3683 0f3c
000003c0: 6631 293b 82dc 30bd ba16 333d dafb 343d
000003d0: 2360 2b3d f7eb 0cbb 299f 6c3c 1328 b13b
000003e0: e88a d03c c5ee b23c 790d 2dbb 3b9f dfbb
000003f0: 655f 4fbc 9824 f6bc 52e0 0c3d c846 f73c
0.0034416297 -0.041230988 -0.0076692216 -0.0048505994 0.0068794573 -0.021009615 0.027792348 -0.03964124
-0.042447772 0.030531488 0.011835757 -0.028719116 0.018196626 0.005801292 0.009112948 0.010345383
-0.038465846 -0.018846057 0.025920663 0.029027032 0.029498527 0.013993643 -0.015939303 -0.0455907
-0.0020114083 0.03287161 0.025179865 0.01978944 -0.029197998 -0.02009962 -0.053289887 -0.042401448
0.008604417 0.0103322035 0.009360393 -0.013936253 0.03286864 0.024046648 0.013172797 0.028511584
-0.0030040932 0.02573069 0.0027032115 0.023886358 -0.03328246 0.016052237 -0.052107286 -0.023070758
-0.00014661269 0.002154573 0.015531161 0.016765304 0.018490369 -0.032400027 0.00028311714 -0.004655595
-0.040078063 0.0021918898 -0.035385728 0.022602852 -0.021445146 -0.012170977 -0.011274388 -0.01922587
-0.030219086 0.03042748 -2.404894e-05 0.0027638625 0.02385619 0.022811517 0.016245913 0.030946966
0.023435434 -0.04010605 -0.028532445 -0.01288774 0.018008053 0.024481602 0.030611256 0.039651413
-0.013007711 -0.004559327 0.023017501 -0.021310713 -0.005311478 0.04050673 0.012389407 -0.005607666
0.012121016 -0.03816087 0.00096517045 -0.013121831 -0.03704348 0.04296437 -0.002408123 0.002071566
0.01887771 -0.0034467017 0.02734185 0.00019592355 0.027599797 0.008464875 -0.0010441113 -0.019686045
-0.04207132 -0.05153828 -0.04208882 0.0297986 -0.042396754 -0.009360808 -0.015383873 -0.025082093
-0.0081220465 0.013889283 0.006956023 0.0065078223 -0.03492118 -0.026234306 -0.014682174 -0.019995647
-0.023144832 0.0069774957 0.008760606 0.021079306 -0.013445211 -0.028853968 0.024862962 -0.016176058
-0.004260021 -0.026307492 0.02691952 -0.0060551357 -0.0009681218 0.015609484 0.0012676112 -0.0024263177
0.012860822 -0.012451242 0.0014373634 0.02633963 -0.023496594 -0.039368313 -0.017528953 0.014453212
-0.043635726 -0.0076056924 -0.037140306 -0.0063837604 0.02495547 -0.012479827 0.00620035 0.016326165
0.009787812 0.017875852 -0.02670172 -0.011528738 -0.043065593 -0.02460164 -0.031009967 -0.02339794
-0.033951595 -0.009948219 0.014478667 -0.03455868 0.0011131658 -0.049105696 0.0054531316 0.01849143
0.029555863 -0.022069622 0.00981151 -0.014139025 -0.030544767 -0.024067624 -0.03385855 -0.0034139543
0.0039911936 -0.03879868 -0.021510394 -0.04190725 -0.01871706 0.04043548 -0.018758677 -0.04560045
-0.016871871 0.0032149754 0.025689708 0.027165623 -0.02686923 0.02015019 -0.020596415 0.012023397
0.029158138 -0.046191175 0.0027164577 0.015008258 -0.0039309254 -0.012662577 0.02603374 -0.001471924
-0.0031988127 0.03403881 -0.02701133 -0.035691097 0.027295869 -0.01475664 -0.049149092 0.016436277
0.006856428 0.061646413 0.051590048 0.0129349725 0.0045574596 -0.021847429 -0.008334604 0.03581624
0.0068295468 -0.030474922 0.032274563 -0.0052370564 -0.020440774 -0.041720383 0.036096316 -0.023677953
-0.051673256 -0.049908124 0.0014138232 0.018783825 0.059254147 -0.0057035736 0.0037276945 0.030492049
0.011350512 -0.04925821 -0.0047329026 0.026391203 0.02937563 0.03557531 0.027634853 0.0087593105
0.0025816797 -0.043179043 0.043722846 0.044185497 0.04183973 -0.002150295 0.014442244 0.0054063885
0.02545686 0.02184237 -0.0026405735 -0.0068244017 -0.012657021 -0.030046746 0.034393616 0.030185118

fc.2.bias f4 [120]
00000000: d4cd 82bb e86e edbc 56e6 3d3b cab6 193d
00000010: 1f1e 44bd df93 31bd e6b4 d53c 679d 81bd
00000020: 5919 fa3c 9173 5a3d 34be 263c 3cda 133d
00000030: f4a6 e9bc b518 4c3c e616 023c 317b 343c
00000040: a146 06bc 4177 853c 0d5f 17bc 7d82 61bd
00000050: 87ee 953b 1c95 4fbd 57cd fabc 73b1 8bbd
00000060: d51d 95bc 041f f2b9 0852 de3c b12c 833d
00000070: a564 a33b 8d9b 54bd f0c2 b0bc 4315 6ebd
00000080: e167 d7bb 300d 7e3c fc3e 263a 5941 0fbc
00000090: e362 3dba 9a3b 0ebd c543 e33c 3f6d 15bc
000000a0: fbe4 2ebd abeb 4dbd e431 953b 293c 72bd
000000b0: 2b9d 643c 82e6 6c3d 492f 893c 4229 82bc
000000c0: 2305 563a 52fb 83bc 060b 5a3c 5bd3 4ebd
000000d0: e409 1f3d f886 7d3b 64b2 bcbc c306 06bd
000000e0: 2030 da3c da64 a93c fbac cd3c 7f6a 0e3d
000000f0: a410 213b e8f0 05bd c693 ce3c 15e9 533c
00000100: f3a1 e23c dbe3 d6bb fe8a 043b 2c9e 873c
00000110: ba1b 3ebd 1c01 4b3d 7322 f73b 44dd b0bb
00000120: 5f20 61bd 84a0 013d 03f1 153d d952 b2bc
00000130: 254c f8bc 68f2 4eba 1783 a13c 828c 103d
00000140: 93a2 1abd 28fa c13c 0d6f 30bc 43e9 0dbd
00000150: 35da fd3a c0e0 a13c 7fc0 ecbc 7cd6 5bbd
00000160: d304 b93c c337 f4bc 64c3 09bc 2db2 273c
00000170: fc40 8fbc e7d4 16bd 3945 5a3d 3c96 cf3c
00000180: f909 283d f9e2 62bc fd08 f5bc 5c69 f53c
00000190: 3ddb 393d 265d fc3c 7fc3 353d fdc4 53bb
000001a0: db76 c2bc f536 fbbc c328 47bd 9e04 21bd
000001b0: 93da 803c 5900 8e3c c5e7 fbbc 7564 3cbd
000001c0: 45a0 cf3b d146 3bbd 2559 24bd bb92 a63c
000001d0: 9b8a a93c 2fff 543d 4537 7cbc 80eb 7fbd
-0.003991822 -0.028983548 0.0028976402 0.037527837 -0.04788029 -0.04335391 0.026087236 -0.0632885
0.030529665 0.05333287 0.010177184 0.036096796 -0.028521992 0.0124570625 0.00794003 0.011015699
-0.00819555 0.016292216 -0.0092389705 -0.055056084 0.004575554 -0.05067931 -0.030615492 -0.06820955
-0.018202702 -0.00046180945 0.027138725 0.064050086 0.004986363 -0.051906157 -0.021577328 -0.058125746
-0.0065736626 0.015506074 0.0006341783 -0.008743607 -0.0007224513 -0.03472481 0.027742276 -0.009120285
-0.04269884 -0.05027358 0.0045530666 -0.059139404 0.013953487 0.057837017 0.01674618 -0.015888814
0.00081642176 -0.01611105 0.013308292 -0.050494533 0.03882779 0.0038685184 -0.023034282 -0.032721292
0.026634276 0.020677973 0.025106898 0.03476953 0.002457657 -0.03270045 0.025216948 0.012933989
0.027665114 -0.006557924 0.0020224447 0.016554914 -0.04641316 0.049561605 0.0075419485 -0.0053974707
-0.054962512 0.03164722 0.0366068 -0.02176802 -0.030309746 -0.0007894398 0.019715829 0.03529025
-0.0377527 0.023678854 -0.010768664 -0.034646284 0.0019367399 0.01976049 -0.028900383 -0.053671345
0.022585308 -0.029811746 -0.008408401 0.0102353515 -0.017487042 -0.036824133 0.053288672 0.025340192
0.041025136 -0.01384806 -0.029911513 0.029957466 0.045375098 0.030806135 0.044375893 -0.003231346
-0.023738315 -0.030665854 -0.048622858 -0.039311044 0.015729224 0.01733415 -0.030750165 -0.04599424
0.0063362443 -0.045721833 -0.040124077 0.020333638 0.020695975 0.052001175 -0.015394037 -0.06248045

fc.2.weight f4 [120, 320]
00000000: 93e8 413d d09c 8f3c 21fe 213d b6a8 e63c
00000010: 2c1b 50bc 1ac7 a3bb 7cdd 51bc 9950 54bd
00000020: 70e9 82bc 6289 55bd d9c0 1fbd e551 39ba
00000030: 68db 213d b881 e6bb fba9 21bc 6810 4cbc
00000040: 8568 003d 4b0d 373d c508 a8bb 4e32 5ebd
00000050: 592b 89bc bbb8 ddbc efa6 6f3b 95af 3fbc
00000060: 688a 443d 7081 95bb 839b c0bc 7e18 ea3c
00000070: ea50 2ebd 04e9 663c 8f38 1f3d bc36 89bd
00000080: 5a5f d4bc 69f4 393d efc5 47bd 2a0f aa3d
00000090: 9600 25bd 7c93 7cbd f7fa 0c3d 38d1 e3bb
000000a0: d41e 53bd ca70 c63c a031 d8bc d319 4dbd
000000b0: 5aac 483d 3557 d4bc 1054 e0bc eb62 74bd
000000c0: 3c8c c7bc c695 b03c eb41 ef3c fc9d 003d
000000d0: 2e85 cfbc 31cf dd3b 8dec de3c 2d92 d73c
000000e0: 74bd 3c3c 5a3e d2bc ce08 2bbd 3914 4b3d
000000f0: 400d e13b ef71 6c3c d4dc 0cbc 0a6b 2d3a
00000100: afae 5abc bd5d 93bc 5d5d 583d 9cf1 59bd
00000110: 81a8 093d 1a3f e9bc 19a1 00bb 37ae fbbc
00000120: 952b 9bbd 5e40 033c 5257 86bc b414 633d
00000130: ce1f 17bd 6e3f a2bc b9bc e9bc 5b33 1c3d
00000140: 826d 3e3d 2637 67bc 5ca2 78bd cee3 d9bc
00000150: 5091 c93c 376e 623c 3920 3a3d f5db 83bc
00000160: 08c5 2e3d bf97 08bd 88fd 27bd cc0d 1dbd
00000170: aa7f 16bd eddc 473d 35ec 373d 27f5 9ebc
00000180: 9e78 9abc 47bb b7bc 4c54 18bd eca5 3fbd
00000190: 1be5 0a3d ec36 2b3d 5d0f 3e3b b425 07bd
000001a0: 0422 383d face 3a3d d904 bd3c 5cdb a8bc
000001b0: 093a 1a3d e56a 48bd 0592 143c 76ae 203d
000001c0: 6be4 a03c cd61 32bd 4c7c 37bd 7859 ecbc
000001d0: 8217 3cbd 18ae 223d c307 2ebc c4bf 6abd
000001e0: 47ae 16bd e406 433c 0304 093d e936 d43b
000001f0: 4b3b 15bd 6bae 9b3c 7fb8 b13d 169c 183d
00000200: 6b9f 833d ea04 c33c b88d 61bd 2d5f 79bd
00000210: 2e60 7cbb 5fb3 3a3d 2736 debc 090d 32bb
00000220: 3bc1 3bbd 6bc2 de3c e6ac 6fbd 133f bdbb
00000230: 769a 60bd 8b03 983c a257 b23c aeb2 a53c
00000240: 6e31 96bb 0be7 a63c e872 f73b 104c 7bbd
00000250: 11cb af3c 7726 d53b 931a c9ba 212e 70bc
00000260: 3a4c a2bc 9a7b 42bd 7088 683c ba6b a3bc
00000270: a843 d83c c1d5 42bc ac46 cfbc 62c5 793c
00000280: 776f 1abc 9862 063d 1053 8dbb ac7d 97bc
00000290: 03ef e9bb f771 263d 7d11 433d 8089 ecbc
000002a0: 54ef 1fbb 8c7f c2ba 84af 293d 7840 af3b
000002b0: 20fa 353c c502 d43c e434 edbb a46c 3bbd
000002c0: 3af0 4f3c 853a 40bd bb84 4e3d 6788 79bd
000002d0: 0095 e33c 0d4b 9abc 880c 993c 7ae5 3d3d
000002e0: 98a0 43bc f51f 0cbd 4ef7 9c3c 04ea 663b
000002f0: a475 08bc 0956 bebd 128e 7abc 992b 88ba
00000300: af71 5c3c e561 1b3c d07f e33c 9f14 473c
00000310: 66c0 90bc 851c c9bc a829 76bd 7471 123c
00000320: ff4a 8c3c 7667 453c 76a8 fcbc a239 473c
00000330: c826 343d 1c30 f0bc 2e4e 3a3d 0477 df3c
00000340: 4281 193c 7522 66bd eec4 de3c 84ba 363d
00000350: 47c1 1e3d 193e 433d 4335 c7bc 8d80 05bd
00000360: ef58 083b 2c37 68bd a706 a43c c97a 283d
00000370: 1769 dd3b 95ba 8bbd b9e1 fdbb 0966 063d
00000380: d9e2 743d d547 283d d772 45bc 5810 de3c
00000390: 5235 f8bc 3ff9 063d f58a 10bb af8a 083c
000003a0: 790b 2c3d 485c f73b e961 acbc 5ff1 b73c
000003b0: 1921 963c 9c80 863d 2986 313d 3cf1 963c
000003c0: a5ad be3c 1f8a e43c cf04 36bc 0fc5 96bc
000003d0: 283d 2f3d 4c86 ad3c cb5e 6dbd e15a 0e3d
000003e0: 7d2a 383d 3400 443c a07e 44bd d680 43bd
000003f0: d266 3ebc 6016 083d 93cf 263c b85e 5fbc
0.04734094 0.017530829 0.039548997 0.02815662 -0.012701791 -0.0049981 -0.012809154 -0.051834676
-0.015980452 -0.05213297 -0.039002273 -0.0007069393 0.039515883 -0.0070345066 -0.009867187 -0.012455083
0.031349678 0.04469041 -0.0051279985 -0.054247193 -0.016744303 -0.027065625 0.0036568006 -0.011699577
0.047983557 -0.0045625493 -0.023511654 0.028576132 -0.042557634 0.014093641 0.038872298 -0.06699893
-0.025924373 0.045399103 -0.04877275 0.083036736 -0.040283762 -0.06166409 0.034419026 -0.006952431
-0.051543072 0.024223704 -0.02639085 -0.050073456 0.048992492 -0.02592049 -0.027383834 -0.059664648
-0.024358861 0.021555793 0.029206237 0.031400666 -0.02533206 0.006769084 0.027212406 0.02631482
0.0115197785 -0.025664497 -0.041756444 0.049579833 0.0068680346 0.014431461 -0.008597571 0.00066153763
-0.013347312 -0.017989034 0.052823413 -0.053208932 0.033607963 -0.028472472 -0.0019627272 -0.03072272
-0.07576672 0.008010952 -0.01639906 0.055439666 -0.036895566 -0.019805636 -0.028532373 0.038134914
0.046491154 -0.0141122695 -0.060701713 -0.026597884 0.024605423 0.013820223 0.045440886 -0.016096095
0.042668372 -0.03334784 -0.04101327 -0.038343236 -0.036742844 0.048794676 0.044903 -0.019404007
-0.018856343 -0.022428168 -0.037189767 -0.046789095 0.0339099 0.041800424 0.0029000856 -0.03299494
0.044954315 0.045607544 0.0230736 -0.020612411 0.037653003 -0.048930068 0.009068017 0.03922888
0.019640168 -0.0435503 -0.044796273 -0.028851256 -0.045920856 0.03971681 -0.010621968 -0.05731179
-0.036787298 0.011903498 0.03345109 0.0064762724 -0.0364335 0.019004067 0.08677768 0.03725823
0.06426891 0.023806054 -0.055066794 -0.060881782 -0.0038509476 0.045581218 -0.027125431 -0.0027168414
-0.045838576 0.027192315 -0.0585145 -0.0057753413 -0.054834805 0.018556377 0.021770302 0.020226803
-0.004583529 0.020373842 0.0075515397 -0.061351836 0.021459134 0.0065048295 -0.0015343003 -0.0146594355
-0.019811738 -0.047481157 0.0141926855 -0.019948829 0.026399449 -0.011891783 -0.025302254 0.015244814
-0.009425989 0.03280887 -0.0043128803 -0.018492542 -0.007139088 0.04063603 0.0476241 -0.028874159
-0.0024404125 -0.0014839037 0.04142715 0.0053482614 0.011106998 0.025880227 -0.007238971 -0.045757905
0.012691552 -0.04693081 0.05041955 -0.0609211 0.02778101 -0.018834615 0.018682733 0.046361424
-0.011940144 -0.034210164 0.019160893 0.00352347 -0.008328829 -0.09293754 -0.015292661 -0.001038897
0.013454839 0.009483789 0.027770907 0.012150913 -0.017669868 -0.024549732 -0.06009832 0.008938182
0.017125605 0.012048593 -0.030842047 0.012159737 0.043982297 -0.029319815 0.045484714 0.02727843
0.009369196 -0.056185205 0.027193513 0.04461147 0.038758542 0.047666643 -0.02431739 -0.0325933
0.0020804962 -0.05669324 0.020022703 0.041132722 0.0067569125 -0.06822697 -0.0077478555 0.032812152
0.05978665 0.04108413 -0.012051306 0.027107403 -0.030298863 0.032952543 -0.002205548 0.008333846
0.04200313 0.0075488426 -0.021042781 0.022453962 0.018326329 0.06567499 0.043340836 0.018425576
0.02327616 0.027897893 -0.011109545 -0.018404512 0.042782933 0.021182202 -0.05795173 0.034754638
0.044962395 0.011962939 -0.04797232 -0.04773029 -0.011621194 0.033224463 0.0101813255 -0.013633423

fc.4.bias f4 [43]
00000000: 6177 1e3d b23f 5cbd adf0 2b3d 7e78 113c
00000010: 927d 0a3d daee 083d 5e70 673d a907 b03d
00000020: fdba 9b3d b876 a83c 053a 763d 5f66 893d
00000030: 11cb 943d eb1e fb3c 7502 b03d 8d9a 84bd
00000040: 2dc2 043b 752d df3c fda0 9cbc a473 283d
00000050: 7a09 38bb 550b c63d 2eb1 c0bc 3240 073c
00000060: c1ac 1b3c 4278 7d3d 6d2f 7a3d a384 913d
00000070: 3f0c 813d 14f4 5d3c cb91 7c3d 5918 d23c
00000080: ba17 13bd cfbd 88bd ec19 2a3d de29 7cbd
00000090: 271b eb3a e50a b73c cbde 373d c1a8 b13d
000000a0: fb2c 0ebd c3ca 5f3d 36a1 5d3d
0.038688067 -0.053771682 0.041977573 0.008878825 0.03381116 0.03343091 0.056503646 0.08595211
0.076040246 0.020564422 0.060113925 0.06708979 0.07265294 0.030654391 0.08594219 -0.06474791
0.002025734 0.027243355 -0.019119734 0.04112591 -0.002808182 0.0967013 -0.023521986 0.008255051
0.009501637 0.061882265 0.061080385 0.071053766 0.06301164 0.013546962 0.061662477 0.025646375
-0.0359113 -0.06676828 0.041528627 -0.061563365 0.0017937169 0.022344062 0.044890206 0.086747654
-0.034710865 0.054636728 0.05410882

fc.4.weight f4 [43, 120]
00000000: c083 78bb 96ee 973c f3d9 96bc 507e b33d
00000010: 75b5 bf3c ac20 743d 4d2c 303d 779c 2b3d
00000020: e077 923d 9964 76bc a0a9 b7bd bdf3 743d
00000030: 74c2 153c a979 cbbd 043d 8c3c fabb aabd
00000040: 0885 83bd 4318 babb 60b9 be3d 8621 d03c
00000050: efb0 11bd ecdc b2bd b40f b23c 0168 38ba
00000060: b51a 243d 1105 553d 0992 10bd 4263 823d
00000070: 1521 a33c c733 4dbd b7bb bd3d f62f 2f3d
00000080: 0252 9abb 2567 35bd eafb 88bd f425 133d
00000090: 954b 3a3d 14e8 8ebd 9bfc cebc b8d0 a3bd
000000a0: 4f05 88bd 8920 373d cd0e 893d a25f 6bbd
000000b0: 980f abbd c0a7 e0bc 2066 cc3c b8e6 c33c
000000c0: 099b 7ebd f55d 983d c3ff 3b3d 6840 94bc
000000d0: 8396 613d c9e6 49bd bacf 853d c1f6 b8bc
000000e0: d9ca 7a3c fe97 893d 87fa 853b 8f3a 82bd
000000f0: 0c6e 9e3d ff13 8bbd a983 d23d a342 b4bd
00000100: 39ad 5cbc c79b 93bd 2ad8 d4bd 75ce 943c
00000110: c118 693d dd46 d5bc b38c 8e3d 3fbe 143d
00000120: 8bf2 873c 6290 ea3d 83ee 11bd 26b3 40bd
00000130: 3bad b73d 187a 98bb a84d 9f3c 25b4 913b
00000140: 00cb 6e3d 65f4 71bd ceb2 b13d 9bae 453d
00000150: bf61 f9bd e6d1 663d c135 d43a e1a6 1c3d
00000160: b72b a3bc 5b2c 81bd e112 173d c3eb 0f3d
00000170: a908 7a3d 4f0c 603c ae0e 91bc 8acb ac3c
00000180: d27d 1e3d 9b60 46bd 0f66 40bd 32ea b73d
00000190: 135a 92bc 46b3 003d c612 f0bc ecd4 763c
000001a0: 4121 b2ba 781b f0bc b1fe 8b3d 2f33 2e3d
000001b0: 89cd a13d ac23 c1bd ea9c cdbb 3816 80bd
000001c0: ca09 46bc 4552 923d 43b7 943d f23c 3d3d
000001d0: 892f 293d 1eb5 023c 4b38 2d3d cdec 223d
000001e0: 810c aa3d 35b4 3b3d c96c 09bd 7aad a63c
000001f0: 335f 98bd c67c 663d 57b9 15bd 5132 0bbd
00000200: d44c aabd 0817 b23d 9991 243d f58c a23d
00000210: bdc3 533c a9e9 d23c 020d 9abd 6cc5 1fbb
00000220: 71ad c8bc d5d7 15bd 1f88 9fbd 4bfc 343d
00000230: c249 90bd 413c be3d 82f2 a83d 7183 5c3d
00000240: 5866 dd3c 50e1 a83d 98ad ebbc 8518 373c
00000250: 1133 913d ee0b b73c 5422 663c b805 8a3d
00000260: 7366 323d 78f7 92bd bc2e a03d d8fc 40bd
00000270: fc23 6dbc 2b20 633d 230a e03b 7e3b 593c
00000280: 4c01 873d 211a aabd 47ea b5bb 5fa1 87bb
00000290: 54e0 273d 5219 a43d 6b7c 96bd 2984 063d
000002a0: 430c 86bd 01b6 97bd 5a81 d53c 620a 9dbc
000002b0: 5cae a0bd 9854 e9bb 16c1 863d 842d e0bd
000002c0: 859c 1e39 b4bd 143d 76ac 92bd 6d90 aebb
000002d0: 22b7 9bbd 1aa1 c5bd b2ae e73d 5ff0 6d3d
000002e0: 4537 a73d 1919 313a aa5f b2bd e4a3 4dbb
000002f0: c38f a13d 9fd6 233b 70bd 9dbd 3f67 c1bd
00000300: d978 2b3c ebc8 933c 0e7d 19bd 8c3f b6bc
00000310: 5fd2 a5bd c5c4 913a c2ce c1bd d0d1 ffbc
00000320: 394e 6cbd 5ecf 223d ffcf c6bc 5f4b 99bd
00000330: 5d76 16bd 4429 74bd 8d8f 0fbd 7c2a b13d
00000340: df33 22bd f16b a33c adf8 75bd f4fa 12bd
00000350: 55b4 673d 9c64 8f3d b4ee 8ebd 0910 c4bb
00000360: 4ec5 9f3d c744 bcbc 6db9 b73d e327 e33c
00000370: 5676 03bd 034d 353d 60a9 b63d af6b cf3c
00000380: d71b 583c a132 723d 5818 a73d c263 c8bc
00000390: a04a f13d bc41 10bd b425 ee3b 2503 4d3d
000003a0: 6ca2 35bd 3111 593d 9e1b fe3d 391a f1bc
000003b0: 756e 74bd e3a0 b53d 23c3 933d 80e0 63bc
000003c0: 3b48 e2bc dbda bd3c 4904 22bc 4d3f 9cbd
000003d0: 3b6a 2cbd 15ae c03b b93f 80bc 28ed bf3b
000003e0: 23f3 a6bd d196 c1bc a260 8dbc e03e 053d
000003f0: 0a35 f93d c94a d23d b141 8c3d f831 a23d
-0.0037920326 0.018546384 -0.018414473 0.087643266 0.023401955 0.05960147 0.043011 0.041897263
0.071517706 -0.015038633 -0.089679 0.05980276 0.0091405995 -0.09935314 0.017118938 -0.08336635
-0.06421858 -0.0056791618 0.09312701 0.02540661 -0.035569128 -0.08733544 0.021736003 -0.0007034541
0.040064532 0.052006785 -0.03529552 0.06366588 0.019913236 -0.050098207 0.092643194 0.04277035
-0.004709483 -0.04428782 -0.06688674 0.035924867 0.045482237 -0.06977859 -0.025266936 -0.07998794
-0.066416375 0.044708762 0.06692276 -0.05746425 -0.08352584 -0.02742374 0.02495104 0.023913726
-0.06215957 0.07439796 0.04589821 -0.018097118 0.05507518 -0.04929236 0.06533761 -0.022578599
0.015307152 0.06718443 0.004088703 -0.063588254 0.077358335 -0.06790923 0.102790184 -0.088017724
-0.013469034 -0.072074465 -0.103927925 0.018164853 0.056908373 -0.026034767 0.0696043 0.036314245
0.016595146 0.1145332 -0.035627853 -0.04704585 0.08968588 -0.0046532266 0.01944621 0.0044465237
0.058299065 -0.059070963 0.086766824 0.04826222 -0.12176847 0.05635252 0.0016190336 0.038245086
-0.019918306 -0.06307288 0.03688324 0.03513695 0.061043415 0.01367481 -0.017707195 0.021093149
0.03869421 -0.048431974 -0.04697233 0.08980216 -0.017865216 0.03142097 -0.029305827 0.015065413
-0.0013590233 -0.029309973 0.06835688 0.04252928 0.07900531 -0.09430632 -0.006274809 -0.06254238
-0.012087295 0.07144598 0.07261517 0.0462007 0.0413051 0.007977752 0.042290013 0.039776612
0.08303166 0.045826156 -0.03355101 0.020346392 -0.07440033 0.056271337 -0.036553707 -0.033983532
-0.08315435 0.08695799 0.040177915 0.07937042 0.012925086 0.025746183 -0.07522012 -0.0024379147
-0.024496766 -0.036582787 -0.07789635 0.044185918 -0.07045318 0.09288836 0.0824938 0.05383629
0.02702634 0.082461 -0.0287693 0.0111752795 0.07089818 0.022344556 0.01404627 0.06739372
0.043554734 -0.07176107 0.07821414 -0.04711613 -0.014473911 0.0554506 0.006837146 0.013258813
0.06592044 -0.08305765 -0.0055516097 -0.00413911 0.04098542 0.08012642 -0.073479496 0.03284088
-0.065453075 -0.07407761 0.026062656 -0.01916999 -0.078457564 -0.00712068 0.06579797 -0.109461814
0.00015126362 0.036313727 -0.071618006 -0.0053272755 -0.07603289 -0.09649868 0.11312617 0.058090564
0.08164839 0.0006755754 -0.08709653 -0.0031378204 0.078887485 0.002499975 -0.07702148 -0.09443521
0.010465824 0.018040141 -0.037472777 -0.022247098 -0.08096766 0.0011121264 -0.09463264 -0.031227976
-0.057691786 0.039748542 -0.024269102 -0.07485079 -0.036733974 -0.059609666 -0.03504901 0.086506814
-0.03960025 0.019948931 -0.06005161 -0.03588386 0.056568462 0.070016116 -0.06979123 -0.005983357
0.07801305 -0.022982014 0.08970914 0.02772898 -0.032095276 0.044262897 0.089190245 0.025319902
0.013190231 0.059130315 0.0815894 -0.02446163 0.11781812 -0.03521894 0.007267678 0.050051827
-0.04434435 0.05299491 0.12407611 -0.02943145 -0.059675653 0.08868577 0.07214954 -0.013908505
-0.027622333 0.023175647 -0.009888717 -0.07629261 -0.042093497 0.005880127 -0.015655385 0.0058571286
-0.081518434 -0.023631485 -0.017257992 0.032530665 0.121683195 0.102681704 0.06848467 0.07919687
