resources/imgreco/inventory/ark_material.onnx (onnx, 107197 bytes, 8 tensors)

35 f4 [32, 3, 5, 5]
000000 68 1a da be c2 f1 66 bf b2 2e f5 3e d5 9d c6 3e
       -0.4259827 -0.90212643 0.47887188 0.3879229
000010 97 36 57 bf 4f cb c0 3e 03 ca 60 3f ba c4 0c 3f
       -0.8406767 0.37655112 0.87808245 0.5498768
000020 ea 0f 00 3f 58 2f f5 be 9b 44 89 be 54 53 93 3e
       0.5002428 -0.47887683 -0.26810154 0.28774512
000030 62 47 50 bf b6 5d 0a 3f a2 28 24 3d cc f6 1b bf
       -0.8135892 0.5404924 0.040077813 -0.6092346
000040 0f 33 e1 be af 4a bb 3c 71 19 23 3f 93 d0 27 3f
       -0.43984267 0.02286276 0.63710696 0.65552634
000050 76 89 0d bf f9 bc 74 3f 92 2d 20 bf a4 9d b5 3e
       -0.55287874 0.9560085 -0.62569535 0.35471833
000060 15 1b 41 3f 89 d0 9b bf f1 de e9 3e 25 61 94 3e
       0.7543195 -1.2173015 0.45677903 0.28980365
000070 45 5c 0a 3f d1 46 27 bf 8d 81 f9 be 31 29 4f bf
       0.5404704 -0.6534243 -0.48731652 -0.8092223
000080 f5 e8 13 be d1 e0 20 3f ab 9f 8c be cd 25 ef be
       -0.14444335 0.6284304 -0.27465567 -0.46708527
000090 37 8b 8d bf 73 f9 0a bf c0 51 31 3f db 0f 6b bf
       -1.105811 -0.5428688 0.69265366 -0.9182107
0000a0 8b 25 a0 be 03 56 bf bd 4a 64 60 3e 75 8b a6 be
       -0.31278643 -0.09342577 0.21913257 -0.32528272
0000b0 ed 55 6d bf 66 06 21 bf f1 ab 33 3f 28 1f 50 3f
       -0.9270924 -0.6290039 0.70184237 0.8129754
0000c0 e1 54 7e bf 92 45 dc be 1b 76 39 bf c2 a4 3f bf
       -0.99348265 -0.43021828 -0.7244584 -0.74860775
0000d0 9b e7 f5 be 61 f4 ad 3d f6 90 8b 3e a9 68 89 3e
       -0.48028263 0.08493877 0.27259034 0.26837662
0000e0 24 26 d4 bd 45 63 44 3f 9b a3 7e 3f f9 25 97 be
       -0.10358837 0.76713973 0.9946839 -0.29521158
0000f0 28 72 e3 3e d6 60 da be 50 cc 54 3f f4 0f 71 3f
       0.44423032 -0.42652005 0.83124256 0.9416497
000100 61 d8 3f 3e a8 5d 35 3f 93 b2 df be a6 45 eb 3e
       0.18734886 0.70846033 -0.4369093 0.45951575
000110 7f 94 27 be 14 bd c2 bd 06 69 94 3f 60 d4 d2 be
       -0.1636524 -0.0950872 1.1594551 -0.41177654
000120 71 c2 8c bf 64 a7 69 3e 46 24 4d bf e2 82 39 bd
       -1.0996839 0.2281776 -0.80133474 -0.045290835
000130 e7 44 ef 3e 01 5f 2e bf 8c 07 bb 3e 5f e6 33 bf
       0.46732256 -0.68113714 0.36529195 -0.70273393
000140 50 af 1c bf 3e 15 28 be 05 5c 35 bf 0a b5 72 bd
       -0.61205006 -0.16414353 -0.70843536 -0.059254684
000150 99 e5 3a bf cf 3f b4 3a c0 1c 66 3d 5f ba 0b bf
       -0.7300659 0.0013751927 0.056179762 -0.54581255
000160 0b ec 04 3f b2 0a 08 bf ea ab 02 3d c4 fa 77 be
       0.51922673 -0.5314132 0.03190223 -0.24216753
000170 8d 92 97 3e 07 16 ee 3d e7 ad f6 be 77 dd 69 be
       0.29603997 0.11625295 -0.48179552 -0.22838388
000180 cd f9 c1 3e 03 1c 12 bf 7d f3 08 bf 45 a1 7b be
       0.37885895 -0.5707399 -0.53496534 -0.24573238
000190 ed 28 00 3f ec 90 b8 be 22 79 eb bd b4 26 95 be
       0.5006245 -0.36048067 -0.114977136 -0.2913109
0001a0 96 15 62 be 88 79 b3 3d 01 2b 13 3d 8c 9b cf be
       -0.22078547 0.087634146 0.035929684 -0.4054836
0001b0 ae 8e 8d be 2b a0 02 be d4 a8 cd 3e 61 53 4a 3e
       -0.27647918 -0.12756412 0.40167868 0.19758369
0001c0 fd 13 15 3f 8d 76 16 3c 16 43 79 be a1 ca 41 be
       0.58233625 0.009183538 -0.24341998 -0.18924953
0001d0 5e 5c 88 3e 8b 77 1d 3f 5c 4c 83 bd df 40 25 3e
       0.2663297 0.61510533 -0.06411049 0.16138028
0001e0 51 d4 4c bd db a7 3e 3d b8 45 ed be 23 d3 7d 3e
       -0.05000717 0.0465468 -0.46342254 0.24787574
0001f0 97 08 7c 3e c3 4c cd be 43 d9 a0 3d 31 8a 94 3e
       0.24612652 -0.40097627 0.078539394 0.29011682
000200 8b 97 92 3e 59 ec 3c 3d 0e f2 82 bd ba 6b 05 be
       0.28631243 0.046123836 -0.063938245 -0.13029376
000210 48 c6 10 3f 10 cc 77 3d 9c 1f 11 3d ff 12 12 3f
       0.56552553 0.060497344 0.035430536 0.57060236
000220 70 92 fb 3d 52 e9 e5 3c ab c7 c1 3e 00 81 63 be
       0.1228379 0.028065357 0.37847647 -0.22217178
000230 23 21 16 be c1 dc aa be 8c 6b 3f be c6 f8 93 3e
       -0.14661078 -0.33371547 -0.1869337 0.28900737
000240 5e 4e 91 bd e9 2e 17 3f 03 35 d5 be 72 91 b6 be
       -0.070950255 0.59055954 -0.41642007 -0.3565784
000250 3a 1a 2b be 17 dd b9 3e 9b 9a ae be fe fb 32 be
       -0.16709223 0.3630149 -0.3410233 -0.1747894
000260 c4 54 dc 3e 70 ee 9d bd b4 a4 3e 3d 78 c3 a5 3e
       0.4303342 -0.07711494 0.046543792 0.32375693
000270 78 47 17 3e af a1 7d 3e c9 3d b0 3e 73 27 b5 bd
       0.14773357 0.24768709 0.34422138 -0.08845415
000280 47 9e 2b 3e 08 57 f5 3e 9b e0 87 be d5 e8 ac 3e
       0.16759597 0.47917962 -0.26538548 0.33771387
000290 af 83 62 be 71 1a 4d be 6d 53 bc 3e 1f a9 29 be
       -0.22120546 -0.20029618 0.367824 -0.16568421
0002a0 12 65 b2 3e fa 5a e9 3e 65 13 d8 3e cf 6d 9d 3d
       0.34842736 0.45577222 0.42202297 0.0768696
0002b0 ad cd bf be d0 d9 ab 3c 8b 15 ab be 7b 68 05 3f
       -0.37461606 0.020977885 -0.33414873 0.5211255
0002c0 3c df 12 3c b5 91 37 be 93 bc 78 3c 82 81 c8 3e
       0.008964356 -0.17926677 0.015181678 0.39161307
0002d0 79 3d d5 3e b8 be 83 bd 86 c7 1b be b8 af f5 3e
       0.41648462 -0.06432861 -0.15212831 0.47985625
0002e0 46 8a 29 3e 4d 58 7f bd 0b 48 ca be 5c 06 30 bd
       0.16556653 -0.06234007 -0.3950809 -0.042974815
0002f0 58 db 6d be 6e 45 a6 3e ef e4 28 bd e6 61 b3 3e
       -0.23228204 0.32474846 -0.041233953 0.35035628
000300 33 10 ae be dd 31 36 be 13 6a a0 3e c7 04 d6 3d
       -0.33996734 -0.17792459 0.31330928 0.1045013
000310 6a bb d3 be 7f a7 8d 3d 02 73 89 3e 41 54 d1 be
       -0.41353923 0.06916713 0.26845556 -0.40884593
000320 74 e6 86 be 93 61 6e be fa b5 b0 bd 7c 3d 03 bd
       -0.26347697 -0.23279409 -0.08628459 -0.032041058
000330 fc 15 63 bd 76 01 5c 3e 30 33 8a be 8c 99 5c 3e
       -0.055440888 0.21484932 -0.26992178 0.21542948
000340 85 03 ee be 11 15 54 3e 07 21 8e be 4e 6a fb be
       -0.4648706 0.20711161 -0.27759573 -0.49104542
000350 0c 80 ed be 15 83 c4 3e b4 db f2 be 23 e6 3d be
       -0.46386755 0.38381258 -0.47433245 -0.18544821
000360 d7 b0 c0 3c d5 d5 a1 be cd a7 cd be 94 7b 84 be
       0.023521824 -0.31608453 -0.40167084 -0.25875533
000370 5d 27 0d be 81 49 16 be 9f 3f 2a bf 83 23 b0 be
       -0.13784547 -0.14676477 -0.6650333 -0.34402093
000380 8d 71 9b ba e2 29 27 bf d7 79 75 bf 74 14 11 be
       -0.0011859402 -0.65298283 -0.9588904 -0.14167958
000390 5e 83 08 bf 57 ff 7d 3e 97 8b 82 bf eb fd 9e bf
       -0.5332545 0.24804436 -1.019885 -1.242124
0003a0 e7 0d 70 3f 8c 8b fb bf 50 31 2c bf 38 66 03 3f
       0.93771213 -1.9651961 -0.67262745 0.5132785
0003b0 39 f3 b1 3f 9a 2b 9a bf bf 28 00 3f c8 72 69 be
       1.3902351 -1.2044556 0.50062174 -0.22797692
0003c0 82 fb bd 3f 18 db d5 3f 71 77 d5 bf 46 cf cf 3f
       1.4842379 1.6707487 -1.6677076 1.623513
0003d0 ca f2 d6 3f 40 80 db bf 3d 3c 45 3e d1 32 05 bd
       1.6792843 -1.7148514 0.1926126 -0.032519165
0003e0 8b ba aa bf e7 9b d5 3f d3 10 01 bf 80 be 21 3f
       -1.3338178 1.6688203 -0.50416297 0.63181305
0003f0 09 6e 7a bf 0b 6a 97 bf 6f 44 20 3f 69 ad cc 3f
       -0.9782415 -1.1829237 0.6260442 1.599042

36 f4 [32]
000000 30 c2 a0 3f ac ba 91 3f 51 de 77 3f d8 0f e8 3d
       1.2559261 1.1385093 0.968236 0.11331147
000010 19 37 c3 be b1 a7 22 3f cb 95 86 3f cd d8 c8 bf
       -0.38127974 0.63537127 1.0514463 -1.5691162
000020 1f 27 7f 3f ef 4f fc 3d 69 f8 d7 bf 88 8c 0f 40
       0.9966907 0.123199336 -1.6872684 2.2429523
000030 51 e5 15 bf 45 cf 36 bf 2b 38 3f 3f 28 13 63 bf
       -0.58553034 -0.7141002 0.7469508 -0.88701105
000040 a3 10 f2 bf c9 dc 31 bf a1 81 11 bf ee 44 01 c0
       -1.8911327 -0.69477516 -0.56838423 -2.0198321
000050 1b 1b fd 3f c2 0d a0 bf cc 14 fd 3f 01 fd 04 40
       1.9773897 -1.2504199 1.9771972 2.0779421
000060 b4 48 e0 3f 8e 37 0c c0 90 3c b3 3e 10 9c b7 3f
       1.7522187 -2.1908908 0.35007143 1.4344501
000070 74 dc bd be b7 c3 65 bf 48 6a 18 be 11 9c 33 3e
       -0.37082255 -0.8975176 -0.14884293 0.17540003

38 f4 [32, 32, 3, 3]
000000 f8 e2 0c 3e 1c e4 64 be ea 7f aa be 11 27 d3 bd
       0.13758457 -0.22352642 -0.33300716 -0.10310186
000010 17 b6 c4 be 32 c8 b5 bd d0 29 98 be 9b d5 97 3e
       -0.38420174 -0.08876075 -0.297194 0.29655156
000020 1e b2 b8 3d 5f e7 3c 3e 68 78 82 bd 8d e7 83 3e
       0.09018348 0.18447636 -0.06370622 0.25762597
000030 7e da d9 3c c4 02 2c 3e ab de ac be 76 0d a6 be
       0.026593443 0.1679793 -0.33763632 -0.32432145
000040 e7 44 c7 3e 63 a0 65 3d 18 2c 0c 3e 86 52 84 be
       0.38919756 0.05606116 0.13688695 -0.2584421
000050 0b d9 00 3e 18 8a c3 bd 53 04 88 bc 8a df 39 be
       0.12582795 -0.09547824 -0.016603624 -0.1815168
000060 d6 5a 0f 3d c8 24 2a be f9 a3 bf bd 07 85 36 be
       0.034998737 -0.16615593 -0.09357447 -0.17824183
000070 ee fb c9 3d 84 1f 4d 3e ca 81 2c be 7e 31 0b be
       0.09862505 0.20031554 -0.16846386 -0.13593099
000080 70 81 ac 3e f8 a6 fa 3d 7c 8e 2a 3b e5 09 80 3e
       0.33692503 0.12238878 0.0026024869 0.2500755
000090 81 86 5e be dd 92 36 3d 5b 65 32 3d d2 ec 8d 3e
       -0.21730997 0.044573653 0.04355369 0.27719742
0000a0 ee a2 9d bd 6c 61 dc 3d 23 e3 f2 bd 4f 83 1b 3d
       -0.07697092 0.10760769 -0.11859729 0.037967023
0000b0 6d 13 a8 3e 76 e7 9a 3d 5f 13 4b 3e 8b 4b a4 bb
       0.3282732 0.07563679 0.19831608 -0.0050138882
0000c0 18 6a 7c 3d 8b 53 52 be 83 e0 1c be 73 d2 aa bd
       0.061624616 -0.20539682 -0.1532002 -0.08340921
0000d0 30 b6 65 be eb 68 04 3e d5 c6 96 3e 9a b2 e2 bd
       -0.2243278 0.12930648 0.29448572 -0.11069222
0000e0 ee 5a 01 be 56 0b 00 bf cf 25 6e be 64 c4 a5 be
       -0.12632343 -0.500173 -0.2325661 -0.32376397
0000f0 b7 a7 ab 3d 9c ff 47 3e 95 24 89 3d f4 3d 46 3e
       0.083815984 0.19531101 0.066964306 0.1935957
000100 b6 1c b7 bc 2f df 51 3e 05 44 22 3d 99 eb 8d be
       -0.022352558 0.20495294 0.03961565 -0.2771881
000110 58 c0 18 bd 69 99 d2 be e1 0e 98 3e 53 8c 38 3e
       -0.03729281 -0.41132668 0.29698852 0.1802228
000120 ab b0 07 be da 93 ac 3d b7 f3 f6 3e 7c 14 c2 3e
       -0.13250987 0.08426638 0.48232815 0.37906253
000130 79 49 2e 3f ea 03 9e 3d 1d 9b 72 3e fe 9e 91 3e
       0.6808086 0.0771559 0.23691984 0.28441614
000140 f0 45 86 be 53 9d 1c 3e 60 18 8a be 09 ea 4a be
       -0.26225233 0.1529439 -0.26971722 -0.1981584
000150 87 10 bb bc 7b d4 8e bc 23 45 fe 3d 5c b8 73 bd
       -0.02283503 -0.017435303 0.124155305 -0.05950199
000160 6b 32 83 bd 14 f8 40 3e a2 92 78 be 6d 82 fe bd
       -0.06406101 0.18844634 -0.24274686 -0.124272205
000170 ad 84 33 3d e7 a0 7b be 67 c4 95 3e 3f 5c dc 3d
       0.0438277 -0.24573098 0.29251406 0.10759782
000180 b6 85 9b 3d 1d db 11 be 50 a2 60 be ab 28 9a 3c
       0.07593863 -0.14243741 -0.21936917 0.01881822
000190 0e b0 01 bd 68 f9 4b be 76 cf 61 3e 6e dc 4d be
       -0.03166204 -0.1991936 0.22051796 -0.20103619
0001a0 eb 2d 81 bd 88 a5 1d 3c 96 01 32 3e 80 ae 9e 3e
       -0.06307586 0.009621985 0.17383417 0.30992508
0001b0 88 70 4a 3e df 2b 81 be c6 26 51 3e ed 6b 1c 3e
       0.1976949 -0.25228783 0.20424947 0.15275545
0001c0 ce 13 cf 3e eb aa 95 bc c6 83 0d be d9 2f b0 be
       0.40444797 -0.018269977 -0.13819799 -0.34411505
0001d0 54 37 2e be e8 0a 64 3d 6e ba 70 3d 6f ad 76 be
       -0.17013294 0.055674464 0.058771543 -0.24089597
0001e0 1c 23 91 3e 5e ce 92 3c b7 dd c0 bd f9 19 13 3e
       0.283471 0.01792067 -0.09417289 0.14365377
0001f0 40 7e 85 3e 10 7e f2 bd 4e 62 15 be fa e6 f6 3e
       0.26072884 -0.11840451 -0.14588282 0.48223096
000200 14 ac c9 bd e8 7a 3d 3d 11 c9 2d 3d d3 f7 c6 3d
       -0.098472744 0.04625979 0.04242808 0.097152375
000210 8a db 29 3d b7 07 6a be 49 b0 5f be d9 18 ec 3d
       0.041469134 -0.22854505 -0.21844591 0.11528177
000220 39 5f 33 3e fb 13 69 3e 43 6c 71 be b1 f3 4d 3e
       0.17516793 0.22761528 -0.23576455 0.20112492
000230 a0 54 ac 3e 97 d1 9b 3c 32 4b a8 be b5 c6 dd 3e
       0.33658314 0.019020839 -0.3286987 0.43315664
000240 55 5a 6d be 93 a0 3c 3e ee a2 3a 3e 24 fc c2 3d
       -0.2317899 0.18420629 0.18226215 0.09520748
000250 8d 65 f0 3d b2 46 e2 3c 82 a3 79 3e 04 34 20 be
       0.11738119 0.0276216 0.2437878 -0.15644842
000260 f2 64 b0 bb 39 ee 19 bd 3e ce 69 be bd 7a a4 3e
       -0.0053831274 -0.037580702 -0.22832581 0.32124892
000270 36 99 4c 3e 7e 3c 9b 3e 68 fc 35 3e d4 2d 7e 3d
       0.1998032 0.3031959 0.17772067 0.062055424
000280 a4 22 48 bd 2f 56 e8 3d 20 a5 cc 3d 1d 39 62 be
       -0.04886116 0.11344563 0.099924326 -0.220921
000290 b6 08 6a 3e b4 46 88 bd fd 61 74 3e ac 27 cc be
       0.22854885 -0.066541106 0.23865505 -0.39874017
0002a0 05 15 8a be a2 ff 09 3d 23 3f a5 3e ec 8a 92 3e
       -0.26969162 0.033691056 0.32274732 0.28621614
0002b0 9f 3a 91 be 87 01 6d bd 63 57 d9 be 8f 9c 7a be
       -0.28365037 -0.057862785 -0.42449483 -0.24473785
0002c0 d6 eb be 3d cd 1e cf bd 87 97 7d 3e 38 ad 18 be
       0.09322326 -0.10113297 0.24764834 -0.14909828
0002d0 36 65 6e be 25 57 18 3e 0d c3 c1 be d9 c4 ba be
       -0.23280796 0.14876993 -0.37844124 -0.36478308
0002e0 80 7c 3e 3e e0 f1 ab 3d fc 71 d7 bd bc 87 ee 3e
       0.1860218 0.08395743 -0.10519788 0.46587932
0002f0 10 00 b4 bc dd 30 09 be 21 d3 f1 3c fd f9 17 3c
       -0.021972686 -0.13397546 0.02951962 0.00927591
000300 dc 3a 92 3e 15 09 33 3e 75 df 70 3d 5d 51 98 bd
       0.2856053 0.17483933 0.058806855 -0.07437394
000310 52 5f 4b 3d df 34 57 3e bd 27 0b 3e c9 9c 5e be
       0.04965145 0.21016262 0.13589378 -0.21739496
000320 45 eb d1 bd 19 07 08 be 88 9d 7e 3e c0 16 4f 3e
       -0.10249952 -0.13283958 0.24864781 0.20223522
000330 53 bb 28 3e 21 1e 2e be d8 25 91 be 31 5d 2e be
       0.16477709 -0.17003681 -0.28349185 -0.17027737
000340 d2 8f 8b be 81 11 90 3e 8f 15 2c 3d d0 eb 77 be
       -0.27258164 0.28138354 0.042012747 -0.24211049
000350 1c 35 89 3e 7b c8 8b bd 44 d6 20 be 88 38 ad 3e
       0.26798332 -0.06825348 -0.15706736 0.33832192
000360 6c 3b 6f bc 80 21 6d bd 2f 0e 4c 3e 41 10 dc 3e
       -0.01460157 -0.057893276 0.19927286 0.4298115
000370 67 cd f8 3d 88 b2 13 be ac 3d 4a 3e c1 00 2d 3e
       0.121485524 -0.14423573 0.19750088 0.16894819
000380 01 ba 88 be 86 9d 40 be 1c 9b 84 be fe 4d 47 bc
       -0.2670441 -0.1881009 -0.2589959 -0.012164591
000390 d0 ba 5a be 36 ac 10 bd 57 3c 89 3d 67 e6 73 3e
       -0.21360326 -0.035320483 0.06700962 0.2381836
0003a0 bf 1d 94 bd ae 6b 2e 3e 3e cd 04 3e e2 c9 c9 3d
       -0.07232236 0.17033264 0.12968919 0.09852959
0003b0 bd fa 6d 3d f9 79 8c 3e a1 5f 1b 3e 33 59 1f 3e
       0.05810045 0.27436808 0.15173198 0.1556137
0003c0 bc 9d e2 3b 41 8e 59 3d a7 e2 ff 3d 48 dd a9 bd
       0.006915776 0.05311418 0.124944024 -0.08294159
0003d0 e6 7d c3 3e 7e 28 e9 3e 99 5f 4c 3e 4f 43 cc 3c
       0.3818199 0.45538706 0.19958343 0.024934439
0003e0 4c f7 ed bd 53 d6 15 3e 4f d2 c5 3e bf b4 07 3e
       -0.11619434 0.1463254 0.38637015 0.13252543
0003f0 55 58 18 3c c5 4c 52 3e a3 2c ec bd 12 7c 6d 3e
       0.009298404 0.20537098 -0.11531951 0.2319186

39 f4 [32]
000000 e5 71 ce bf 21 e4 cc bd 22 00 0d 3f e6 27 de 3f
       -1.6128508 -0.1000445 0.5507833 1.7355926
000010 ad 24 d5 3f 40 82 d6 3e f8 d6 a0 3f fd 3c c1 be
       1.6651818 0.41896248 1.2565603 -0.37741843
000020 24 47 3b c0 54 86 af bf 20 c6 5d bf 59 0d 2b 40
       -2.926217 -1.3712869 -0.8663044 2.6726897
000030 79 77 21 c0 f5 b2 72 40 f0 a0 02 3f 8e e3 19 c0
       -2.522917 3.7921727 0.5102682 -2.4045138
000040 72 c5 5d 3f 5a 1b 15 3f 1f 42 ec 3f 1e 9f 75 40
       0.866294 0.5824486 1.8457679 3.8378367
000050 f2 f0 02 40 71 d8 1d 40 c2 f3 99 3e b7 3b 70 3f
       2.0459561 2.4663355 0.30068785 0.9384112
000060 d1 37 3e 3f 76 28 2f be c2 e6 b9 3f 1a c1 95 3f
       0.7430392 -0.17105278 1.4523547 1.1699555
000070 70 67 e9 3f e4 61 78 40 0e f9 a4 bf 98 6e d4 3f
       1.8234692 3.8809748 -1.2888505 1.659625

fc.0.bias f4 [86]
000000 21 3e c6 bb 4f 9f 00 3e 61 7a 9d 3c e7 f1 08 3e
       -0.006049887 0.12560771 0.019223394 0.13373528
000010 bb a8 c0 3d 79 f4 92 3d a8 16 0f 3e c9 ee 07 3d
       0.09407183 0.07175536 0.13973486 0.033186708
000020 f6 b0 0b bd 9b cb fe 3d a5 64 3a bc 74 36 e3 3d
       -0.03410431 0.124411784 -0.011376535 0.110943705
000030 1b 11 c2 3d e3 03 d0 3d c4 50 55 bd 04 cd c3 3d
       0.09475919 0.10156991 -0.052078977 0.09560588
000040 55 bf 65 3d 60 68 ce 3b 5b ef 3e 3c 3e 81 61 3d
       0.05609067 0.0062990636 0.0116537465 0.055054896
000050 89 c1 ad 3d fb 5a ee 3d 74 fd f4 3c 68 f4 88 3d
       0.084841795 0.11638447 0.029906012 0.06687242
000060 84 89 5e 3d bc 40 fd bb 23 17 b0 3d da a7 56 3d
       0.054330364 -0.007728664 0.08598163 0.05240617
000070 bb e4 54 3d 14 05 8c 3d b1 0e 7c bc d6 07 19 3d
       0.051975947 0.06836906 -0.015384362 0.03736099
000080 b2 1b 61 bc 68 ed 68 3d 35 15 06 3d 8d 4e 1f bd
       -0.013739513 0.056867033 0.03273507 -0.03889327
000090 b2 1c e0 bc e2 c7 07 3d 27 c5 71 3c e4 1e e3 3c
       -0.027357433 0.033149607 0.014756477 0.02772469
0000a0 ee 18 a8 bc 6c 3f fc 3d f7 f2 16 bd a3 09 7a ba
       -0.0205197 0.12316784 -0.036852803 -0.0009538179
0000b0 52 13 da 3d a7 b0 f6 bc 4a 54 8f 3c d7 5f 81 3d
       0.10648216 -0.030113531 0.017496247 0.06317108
0000c0 80 4a 5e bd 9f 4e 5a 3d 65 fe bf 3d 46 32 d0 3d
       -0.054270267 0.053297635 0.09374694 0.10165839
0000d0 2a b5 45 3c 4d 56 01 3e 8e df 8a 3c 7f d9 5f 3d
       0.012067119 0.12630577 0.016952302 0.05465078
0000e0 0f a9 17 3e 0d ce bd 3d 62 5c 18 3c f7 c4 34 3d
       0.14810584 0.09267817 0.0092993695 0.044133153
0000f0 86 07 da 3d a4 ec c3 3d 99 9e 2c 3d 8c c4 dc 3a
       0.10645966 0.0956662 0.042143438 0.0016843244
000100 6e e4 9c 3d fd 8a 50 3d 9d 0b f9 3b 9f e1 f6 bc
       0.07660757 0.0509138 0.0076002614 -0.030136881
000110 89 37 2b 3c 2a 4f 6c 3d e0 e1 ff bc 8d b9 89 3d
       0.010450252 0.057692684 -0.031235635 0.06724844
000120 c3 de c2 3d 76 3f 9d 3d 92 59 b8 3d 9c ce bc 3d
       0.09515145 0.0767812 0.09001459 0.09219095
000130 83 1f 88 bb 39 53 9f 3d d9 bb 41 3d be 78 db 3d
       -0.004154147 0.07779545 0.047298286 0.10716389
000140 d7 51 e1 3d 86 fe 87 bd a0 08 0a 3e 95 af 21 3d
       0.11001938 -0.06640343 0.13479853 0.03947409
000150 e8 93 90 3b 0e d5 2f 3d
       0.004412163 0.042927794

fc.0.weight f4 [86, 128]
000000 51 33 8c 3c 5e 7b 9b bb df 46 05 be 9c e4 42 3d
       0.017114313 -0.004744931 -0.13015316 0.0475813
000010 0b 0c f5 3c 60 22 1a 3c 75 58 d1 3d 6b b4 87 3c
       0.02991297 0.00940761 0.1022195 0.016565522
000020 62 00 15 be c4 63 80 3d 27 04 bb 3d 8d f0 89 3d
       -0.14550927 0.06269029 0.09131651 0.067353345
000030 42 f5 ec 3d 40 75 88 bd 4d 57 3c bd 57 00 fd 3d
       0.11570217 -0.06662989 -0.045981694 0.123535804
000040 e3 44 a1 bd c9 18 3b 3d eb bd ea bd e7 f2 fc 3c
       -0.07874467 0.045677934 -0.11462005 0.030877544
000050 c3 3c f8 3d 14 9f f6 bc b9 69 e2 3b e0 db b1 3d
       0.121209644 -0.030105151 0.006909576 0.08684516
000060 bc 42 06 3e 29 1a 70 3d 9f 9b 80 bc 28 56 fe bc
       0.13111395 0.0586187 -0.015699206 -0.031046942
000070 63 72 0f 3e 4d 75 3b 3d 4d 53 2c 3e 86 76 8b 3d
       0.14008479 0.045766164 0.16828652 0.06809716
000080 41 ae f4 3c 2e 5e e8 39 78 9a e8 bc 31 31 82 3d
       0.029868247 0.00044320658 -0.028393969 0.06357039
000090 11 7b 96 3d 36 7f 4f 3d f0 42 c5 3d b9 73 0a 3e
       0.07347692 0.050658427 0.09631908 0.13520707
0000a0 39 6c f5 bc 22 18 09 3b e5 e8 37 3d 76 d0 d1 3d
       -0.029958831 0.0020918925 0.04489984 0.10244839
0000b0 16 6b 5a bd 05 fa 10 3c c0 e0 1a bd c4 03 38 bd
       -0.05332478 0.008848672 -0.037811995 -0.044925466
0000c0 40 00 4e bc 70 cb 90 bc ad dd f9 3d 98 0b 68 3d
       -0.012573302 -0.017675132 0.122004844 0.05665168
0000d0 5f 4c 13 3d a1 b0 21 3e 49 86 93 ba 93 96 0e 3e
       0.035961505 0.15790035 -0.001125523 0.13924627
0000e0 af a0 f8 3d b9 9a 18 bd 81 b3 6b 3d 83 90 11 3e
       0.12140023 -0.03725693 0.057544235 0.14215283
0000f0 66 14 11 3e ec 47 06 3d 2d e0 1e 3d f7 2b 55 3d
       0.14167938 0.032783434 0.03878801 0.05204388
000100 80 bb 16 be 3c 41 c6 3c f2 20 0f 3e 74 db 74 3d
       -0.14719963 0.024201028 0.13977411 0.0597796
000110 b5 b6 2c bd 55 60 77 bd 25 e7 d1 bd f8 b2 49 3d
       -0.04216643 -0.060394604 -0.102491654 0.049242944
000120 0f 9b 01 be 43 bb e0 3c 37 64 88 3c 08 0f f0 bd
       -0.12656806 0.027433043 0.016649349 -0.11721617
000130 03 8b 1f 3e c5 ba f4 3d 1c 6a 44 3d ce 8e 10 3d
       0.15580373 0.11949686 0.047952756 0.03529244
000140 03 ad 52 bd 0d 63 01 3e 64 a2 87 3d a6 40 a4 3d
       -0.051434528 0.12635441 0.066227704 0.08020143
000150 c3 fd a2 3c 40 33 bd 3d 38 2b 36 bd e8 9d 78 3c
       0.019896394 0.09238291 -0.04447481 0.0151743665
000160 ac 8b 25 3e 51 89 f3 3d 92 46 8d 3d 2d 0f f5 3d
       0.16166562 0.118914254 0.06898226 0.11965785
000170 9e 90 75 3d 18 d2 ba bc 2b 8b a4 bc 40 95 c3 3d
       0.05995237 -0.022805259 -0.020085892 0.095499516
000180 93 97 3d 3b 52 0d d9 bd 3b 5d f2 bc f5 4f 2a bd
       0.0028929457 -0.10598244 -0.029585471 -0.04158016
000190 9a 8f 0c 3c fb a7 65 3c 71 21 b5 3c 0a 37 e8 bc
       0.008579159 0.0140171 0.022110673 -0.028346557
0001a0 a3 7e a4 3d 12 b8 d7 bd 23 f8 82 bd 77 a0 c2 bd
       0.080319665 -0.105331555 -0.063949846 -0.095032625
0001b0 bc e4 f1 bd e6 09 09 bd 6f 12 f6 3a cf d8 03 be
       -0.11811206 -0.033456706 0.0018773804 -0.12875675
0001c0 69 89 00 be a2 78 1e 3e 36 dd 31 bd ae 6e 19 3e
       -0.12552418 0.15475705 -0.043423854 0.14983627
0001d0 41 f6 a3 3d 0f f7 ef bd c9 36 44 3d 17 ad be bd
       0.080059536 -0.117170446 0.04790381 -0.09310358
0001e0 09 3c 20 3c d6 7e 07 3e ca 72 d0 3c b9 bf 19 3e
       0.0097799385 0.13231978 0.02544536 0.15014543
0001f0 2b f6 18 3d c0 f6 e3 3c e1 39 56 3d b6 f7 22 bc
       0.03734414 0.02782762 0.05230129 -0.009946754
000200 e6 d5 4a 3d ce 8d 08 3c 19 68 9d bc fb 64 02 be
       0.049520396 0.00833459 -0.019214677 -0.12733833
000210 be ed 2c 3d 12 b8 d3 3d 54 9c ba 3d 8a 68 cf bd
       0.042218916 0.10337843 0.091118485 -0.10127361
000220 17 26 9b bd 7e 97 03 bd 5e 8f 06 3d b5 f9 bb 3b
       -0.075756244 -0.032126896 0.03285157 0.0057365545
000230 b4 ad 85 3b 36 a6 cc bd 77 b5 43 bd b2 6d 2f bd
       0.004079545 -0.0999264 -0.04778048 -0.042829223
000240 74 16 d8 bd bc c6 94 3d 32 d2 24 3e 51 71 9a 3d
       -0.105511576 0.07264468 0.16095808 0.07541145
000250 6f 24 82 3d 96 c6 d6 3d a0 3d 9c bd 59 23 e5 bd
       0.063546054 0.10487096 -0.076289415 -0.11188383
000260 a9 94 aa bd 4c 14 70 3c 91 89 0b 3e 1e f4 8e bd
       -0.08329136 0.014653277 0.13626696 -0.069801554
000270 09 fc 12 bc 2c a5 7a bc ea 43 cb bd fa fe a0 bd
       -0.008971223 -0.015298169 -0.09925063 -0.07861133
000280 10 84 bd 3d 9f 5e bf 3d 4d 47 9c bd 19 65 c6 3c
       0.092537045 0.093442194 -0.07630787 0.024218129
000290 25 36 ca 3d 0a 1e 46 bc 05 45 84 bd cd 1b df bc
       0.098736085 -0.012092123 -0.06458477 -0.027234936
0002a0 43 16 1b bd ec 67 ec 3c 96 5f e3 3d 4c 44 0c be
       -0.037863027 0.028858148 0.11102216 -0.13697928
0002b0 9c ad 58 bd da bd 23 3e 33 72 ae 3d 38 51 29 3e
       -0.05289994 0.15990391 0.085178755 0.16534889
0002c0 08 d2 20 3e 63 88 1b 3e 02 b1 ac 3c 03 45 73 3d
       0.1570512 0.15188746 0.021080498 0.059391987
0002d0 18 2d e0 3c 01 e2 ea bc b0 44 34 3d a1 78 12 3e
       0.027365252 -0.02867222 0.044010818 0.14303829
0002e0 c0 69 8e 3c f7 b7 a2 bc c9 fe 5a 3c a9 77 4b 3d
       0.01738441 -0.019863112 0.01336641 0.049674664
0002f0 d6 4c ca bd fa bd c8 bd c9 7e af bc 87 ef 1d be
       -0.098779365 -0.0980186 -0.02142276 -0.15423404
000300 33 a9 32 3e df e5 cf 3d 8b 6d 15 3e 4f 44 a5 3d
       0.17447357 0.10151266 0.14592569 0.080696695
000310 a7 f4 cb 3c 10 39 0e bc bd ef 91 bd d8 28 8f 3d
       0.024896933 -0.008680597 -0.071258046 0.06990212
000320 1a 4d fc 3b 81 3b 16 be f9 44 b9 3d 65 14 cc bc
       0.007699621 -0.14671136 0.090463586 -0.024912069
000330 f0 2d 97 3d 48 90 5e bd 89 a0 ca 3d 97 71 0e 3d
       0.07381809 -0.054336816 0.09893901 0.034776296
000340 33 aa 07 bd c7 6f a0 bd 64 84 0a 3e cd 57 1c 3e
       -0.0331213 -0.0783382 0.13527066 0.15267868
000350 e3 ef 16 bd 37 4a 87 3d 00 e2 05 3e a8 e0 94 3d
       -0.036849868 0.06605952 0.13074493 0.07269412
000360 e7 50 ec 3c 48 1c cc 3d 3c 42 3c bd c7 6d a5 3d
       0.028847171 0.09966332 -0.045961604 0.08077579
000370 cc b4 43 bd 57 7e 68 3d 92 09 e5 3c 56 26 60 bd
       -0.047779843 0.056761112 0.027958665 -0.05472406
000380 2f a6 a5 3d 20 32 bb 3d 8c 7e 8b bd 58 b3 4a bd
       0.08088338 0.0914042 -0.06811246 -0.04948744
000390 58 61 01 3e 8b 8a 81 3d e6 ef f1 bd e0 98 b4 bd
       0.1263479 0.06325253 -0.11813335 -0.08818221
0003a0 87 78 07 3e 3d c6 9e bc 8f 03 c9 bb 0f 19 02 bd
       0.13229571 -0.019381637 -0.0061344574 -0.03176218
0003b0 90 e9 90 3c 01 81 47 3d 8e cc 04 3e 8c c5 65 bd
       0.017689496 0.048707012 0.12968656 -0.0560966
0003c0 3f 7f d2 3d 62 78 35 3e 83 2c cc bd 4a 8a 49 3d
       0.102781765 0.17721704 -0.099694274 0.04920415
0003d0 9e 2c 0a bd 15 b8 b1 3d 69 fa 1a bc 34 fb 03 3d
       -0.033733957 0.08677689 -0.0094591165 0.032221988
0003e0 3c 2c 73 3d 25 f0 e9 bd 70 06 4c bd 2f ac c9 bd
       0.059368357 -0.11422757 -0.049810827 -0.098472945
0003f0 5e c9 ff 3c 89 9b d4 bc 1d 9a ec ba 17 e2 03 3e
       0.031223949 -0.025953071 -0.00180513 0.12879215

fc.2.bias f4 [43]
000000 bd 39 f0 bc cd 41 15 bd 62 c5 28 3d da 1e e6 3d
       -0.029324407 -0.036439706 0.041203864 0.11236353
000010 9c 0d b4 bd ee 34 1a be e9 36 d6 3c b3 36 14 be
       -0.08791658 -0.15059254 0.02614923 -0.14473991
000020 0e 20 26 bd cc 8e c8 3c 74 1f ce bc 4b a1 2c 3d
       -0.040557913 0.024482153 -0.025161482 0.04214601
000030 b8 a4 05 bd 34 90 be 3c 85 4e 76 bd 64 85 50 bd
       -0.03262779 0.02326212 -0.060133476 -0.05090846
000040 67 58 22 3d 5d 75 90 3d c2 fb b4 3d 12 e5 a2 3b
       0.03963509 0.07053635 0.088370815 0.004971155
000050 b1 9d e7 3d 53 2f f1 bb a6 bf 27 3d 21 a5 e3 3b
       0.11309374 -0.007360378 0.040954255 0.006947175
000060 78 60 94 bd d4 a2 93 3d f6 17 77 3d d0 ad 71 bd
       -0.072449625 0.072087914 0.060325585 -0.05900365
000070 24 cc d8 bd bb 2e 09 3d c2 b8 17 3d 24 81 d7 bb
       -0.10585812 0.03349183 0.037041433 -0.006576674
000080 f6 76 8a 3d 91 df 92 3d 2f db 42 3d 47 a9 48 bd
       0.06760971 0.07171548 0.04757231 -0.04898956
000090 ef a5 1d 3d b6 84 c3 bd 47 c2 c4 bd 36 17 b8 3d
       0.038488325 -0.09546797 -0.09607368 0.08988802
0000a0 52 97 bf 3c 2e ab 4c bc e5 40 aa bd
       0.023387585 -0.012491984 -0.08313159

fc.2.weight f4 [43, 86]
000000 f3 dd b6 bd 0d b2 c1 bd 9d ab cb 3c 94 99 07 be
       -0.08929052 -0.094577886 0.024862105 -0.13242179
000010 18 6c 09 be 09 00 2a 3d 2f 76 bb 3d 12 b3 f7 bd
       -0.1342014 0.04150394 0.09153401 -0.12094702
000020 0a f9 9b bd 0b e5 11 3e 2b d9 b2 3c ea a2 fa 3d
       -0.0761586 0.14247529 0.02183207 0.12238105
000030 34 05 54 3e ee d8 20 3e fa d0 04 3e 21 51 1b 3d
       0.2070511 0.15707752 0.12970343 0.037919167
000040 02 55 a5 3b 0e e1 27 be 44 3f c4 3c c0 5c 29 be
       0.005045534 -0.16394445 0.023955949 -0.16539288
000050 ed 17 0d 3e 74 9d 49 bd 5b e7 fd 3d 7c 22 69 bc
       0.13778658 -0.049222425 0.12397643 -0.014229413
000060 2a 74 e2 3d ea 11 1d be 2b 93 08 3e 1c 17 09 3d
       0.11057313 -0.15338865 0.1333739 0.033469304
000070 d1 8b c1 3c 6d e6 f8 3d fa a7 45 be 05 6f 45 be
       0.02362624 0.12153325 -0.19302359 -0.19280632
000080 eb 2f 35 3e 09 df 17 be 53 5f d5 bd 11 64 ec 3d
       0.1769406 -0.14831175 -0.10418572 0.11542524
000090 48 3f 2c 3e b1 33 be bd 31 de 36 be c5 5d 39 3d
       0.16821015 -0.09287203 -0.17858197 0.04525544
0000a0 1e 1e 0d be df bd 5e bd 1a 64 f8 bb 7c 28 1f 3e
       -0.1378102 -0.054380294 -0.0075802924 0.15542787
0000b0 7a 16 f4 bd 56 43 47 39 1c 5e 3a bd 4f 8d 3e be
       -0.119183496 0.00019003203 -0.045499906 -0.18608592
0000c0 c9 d5 22 be a4 5b 91 3d d4 ff 47 be 0e 38 34 bd
       -0.15901865 0.07097557 -0.19531184 -0.04399877
0000d0 a2 20 c6 3b f6 a0 89 bd cc d5 14 be 5b 9b a0 3d
       0.0060463706 -0.06720154 -0.14534682 0.07842132
0000e0 2c 5b 2c be cf ef b3 3d a7 24 c3 bd a6 28 30 bd
       -0.16831654 0.08785974 -0.09528475 -0.043007515
0000f0 44 3c 2a be 22 16 63 3d f3 37 09 3e a3 95 26 3e
       -0.16624552 0.05544103 0.13400249 0.1626802
000100 84 e5 99 bd fc 42 bd bd 60 91 d3 3d c0 67 6e 3d
       -0.0751448 -0.09241292 0.103304625 0.058204412
000110 f4 68 15 be 1e 4f cc 3c 03 40 29 be e7 c6 0a bd
       -0.14590818 0.02494007 -0.16528325 -0.033881094
000120 6b 85 af bd e2 14 a2 3d 05 5a f0 3d 31 35 83 bd
       -0.08570369 0.07914139 0.1173592 -0.0640663
000130 66 47 9a bd 5c 9f 73 bc cb 89 a8 3d 2a 84 d7 bd
       -0.075331494 -0.014869537 0.08229407 -0.10523255
000140 b8 d0 c4 bd 18 64 62 3d b8 a7 2e be 78 ba a2 3d
       -0.096101224 0.055271238 -0.17056167 0.07945722
000150 33 ae 3e be 78 ac 89 bd a3 26 93 bd ce 2a 1f be
       -0.18621139 -0.06722349 -0.07185104 -0.15543672
000160 64 6b 08 3e 44 07 0c be 8e 8c 26 3e 55 ea 44 3d
       0.13322216 -0.13674647 0.16264555 0.04807504
000170 1f 62 56 be fb 95 a3 3d ec 90 bb 3d 98 f4 8b 3d
       -0.20935868 0.07987591 0.09158501 0.06833762
000180 88 88 e0 bd 9f d6 8b bd 2a 44 a3 3d 0a 0c 18 3d
       -0.10963541 -0.06828045 0.07971986 0.037120856
000190 11 2f cd bd 0e 17 2e be 90 f4 9b be 72 14 12 be
       -0.10018743 -0.17000982 -0.30460024 -0.14265612
0001a0 a8 4f 52 bd ab 6c 16 be 9c 1b f1 3d b3 d2 f1 bc
       -0.051345497 -0.14689891 0.11772844 -0.029519415
0001b0 71 19 ec bd 32 db 88 3d 48 28 56 bd 72 47 2c bd
       -0.1152829 0.06682433 -0.05228451 -0.042060323
0001c0 aa cd e3 bd 8c f7 26 3d c0 91 e1 3d b8 eb 9a 3d
       -0.11123212 0.040763423 0.11014128 0.07564491
0001d0 52 1b 96 bc 1c aa 1c be d8 d3 8c bd ae e7 5b be
       -0.018323574 -0.15299267 -0.068763435 -0.21475098
0001e0 57 c2 68 3d 50 22 43 3c 9c 90 28 be 0c 24 d4 3c
       0.056825962 0.011910036 -0.16461414 0.025896095
0001f0 cb b0 0e bd 57 24 54 3e 37 8b 61 bd bc e5 5c bd
       -0.03483657 0.20716988 -0.055064406 -0.05393003
000200 05 c7 50 3d 17 8f 97 3d 22 bd 33 be 63 c2 af 3c
       0.05097105 0.07400339 -0.17552617 0.021454995
000210 2a b2 06 bd ce 66 63 bd 7b 99 2d be 0e 90 0f 3e
       -0.032884754 -0.055517964 -0.1695308 0.14019796
000220 6a 54 13 bd d9 ba 6e bd f0 f7 3e bd c0 e4 3b 3e
       -0.035969175 -0.05828366 -0.04662317 0.1834898
000230 82 5f 53 bd 56 73 72 bd 11 ff 3c 3e 03 08 d8 bc
       -0.051604755 -0.059192024 0.18456675 -0.026371008
000240 aa 96 2c be 23 e6 21 3e db 78 00 be 11 d0 2d be
       -0.16854349 0.15810446 -0.12546103 -0.16973902
000250 f9 de 9e 3d 8f 0b a3 3d aa 26 be bc 03 fb e0 bd
       0.077573724 0.07961189 -0.023211796 -0.10985377
000260 b9 06 af 3c 68 98 e6 bd a5 72 52 be e1 ff 7f be
       0.02136551 -0.11259538 -0.20551546 -0.24999954
000270 b3 7e 9d bd 09 02 68 bc af 6f 3e 3e 7b 63 44 bd
       -0.076901816 -0.0141606415 0.18597291 -0.047946434
000280 c9 98 d8 ba 60 4a bb bb c8 ea bb bc 02 69 3d 3e
       -0.0016525026 -0.0057156533 -0.0229391 0.18497089
000290 c9 0d 93 bd e8 57 d7 3c ba 8f e8 3d a3 f4 03 3d
       -0.07180364 0.026287034 0.11355539 0.032215726
0002a0 79 4f 22 3e 98 31 26 be 47 6d 16 be bf 83 f2 3d
       0.15850629 -0.16229856 -0.14690123 0.11841535
0002b0 f8 ad 25 be b5 95 7a 3d 41 ce c8 3d 1a 98 00 3e
       -0.16179645 0.061177928 0.09804965 0.12558022
0002c0 9c 49 b5 bd ba 67 ac 3a 46 97 39 3e f4 ef 40 3d
       -0.088519305 0.0013153472 0.18124112 0.047103837
0002d0 8b 05 31 bc 63 55 60 be f6 0f 2b be 9c 09 55 3d
       -0.010804544 -0.21907572 -0.16705307 0.052011117
0002e0 af a7 fd bd bf 1b 12 bc 0b c4 36 bc 8a ad 12 3e
       -0.12385499 -0.008917748 -0.011155139 0.14324012
0002f0 2b 12 15 be 07 cb 10 3e 14 62 90 bd c2 61 45 bd
       -0.14557712 0.14139949 -0.07049957 -0.048188932
000300 ce cd 63 bc c0 f3 66 3d 21 79 1f bb 39 b7 b4 bd
       -0.013904048 0.056384802 -0.0024333673 -0.088240094
000310 e1 f1 1f 3d 71 20 ac 3d a7 04 26 3e 44 18 18 be
       0.039049033 0.08404625 0.16212712 -0.14853007
000320 d8 d6 ae 3d 5e 65 07 bd 33 da 21 bd 3d 2c 81 3d
       0.08537072 -0.033055656 -0.03951473 0.06307266
000330 2c b9 af bd 46 db 41 be c3 d5 0a be ee bb 01 ba
       -0.085802406 -0.18931302 -0.13558106 -0.0004948963
000340 fb 6f bf 3d 4f df de bb 65 91 66 bc 57 45 db be
       0.093475305 -0.006801523 -0.014072751 -0.4282634
000350 79 c7 19 be ef 8b 3d be 41 05 61 be 07 e9 09 be
       -0.15017499 -0.18510412 -0.2197466 -0.13467799
000360 f4 e5 1b be 1e e7 cb 3d bc 7c 4b 3c 78 2f 42 be
       -0.15224439 0.099561915 0.012419876 -0.1896342
000370 dd 5a 04 be ee 0c 35 3d 2f d2 83 3c 46 ab 97 bd
       -0.12925287 0.044201784 0.016091434 -0.07405715
000380 e8 28 9e 3d 8b 54 b1 3c 0e 4e 08 be 74 24 e2 3d
       0.07722646 0.021646759 -0.13311026 0.11042109
000390 48 ac 6e 3d 3e 7a e0 3d 8e 06 b3 3d be eb 33 3e
       0.05826977 0.10960816 0.087414846 0.17570397
0003a0 64 92 c7 bd bf 24 9b bd 08 47 d1 3d 7a 14 e2 3a
       -0.09744719 -0.07575368 0.10218626 0.0017248534
0003b0 1c 02 86 bd 44 58 b5 3c 57 38 84 bd cd ea c0 3d
       -0.06543371 0.022136815 -0.064560585 0.09419785
0003c0 09 68 5d be b2 28 27 be 22 93 1a be 7b d0 76 3d
       -0.21621718 -0.16324118 -0.15095189 0.060257416
0003d0 0e dd 23 3e 48 9f 2a 3d 25 ce e1 3c cf 13 aa bd
       0.16002294 0.04165581 0.027564118 -0.083045594
0003e0 17 28 86 3d 79 88 40 bc 91 5f 30 3e 1b 8a 22 bd
       0.06550615 -0.011751288 0.17223956 -0.03968249
0003f0 82 76 33 3c 85 ee 23 3d 34 64 e2 3d 90 3a 1d be
       0.010953547 0.04002239 0.110542685 -0.15354371
