resources/imgreco/stage_ocr/chars_end.onnx (onnx, 39338 bytes, 6 tensors)

fc.0.weight f4 [37, 128]
0	0x3e37c639	0.1794671
1	0x3dbfd6dc	0.09367153
2	0x3e9b9492	0.30386788
3	0x3e75232d	0.239392
4	0x3e8f4db4	0.2798897
5	0xbc147efa	-0.009063477
6	0x3e37b6e1	0.17940857
7	0x3e5f343e	0.21797273
8	0xbe6cd5ef	-0.23128484
9	0xbe06556a	-0.1311852
10	0xbe648348	-0.22315705
11	0xbe7ba866	-0.24575958
12	0x3e2d92a1	0.16950466
13	0x3e54f0fe	0.20795056
14	0xbe16985d	-0.1470656
15	0xbdef4225	-0.11682538
16	0x3e43e501	0.19130327
17	0x3e8e253c	0.27762783
18	0x3e7402a6	0.23829135
19	0x3e129f81	0.14318658
20	0x3e459ae0	0.19297361
21	0xbd3739a8	-0.04473272
22	0x3e31d184	0.1736508
23	0x3e00bfb8	0.12573135
24	0x3e60fed9	0.21972217
25	0x3e00b37f	0.12568472
26	0xbe0f6319	-0.14002647
27	0xbd16e5c1	-0.036840204
28	0xbd81d301	-0.06339074
29	0xbe0a6cf9	-0.13518132
30	0xbde101a0	-0.10986638
31	0xbe189885	-0.14901932
32	0xbe212427	-0.15736447
33	0xbddaaeb4	-0.10677853
34	0x3e368d03	0.17827229
35	0x3dba0199	0.09082336
36	0x3e7f21c7	0.24915229
37	0xbded7572	-0.115946665
38	0x3e7e58f1	0.24838616
39	0x3e839c68	0.25705266
40	0xbdda8116	-0.106691524
41	0x3e29efa0	0.16595316
42	0xbe259197	-0.1616882
43	0xbe434bdc	-0.19071907
44	0x3d8ffb58	0.07030362
45	0xbdf0e0bf	-0.11761617
46	0x3e860be5	0.2618095
47	0x3e267687	0.16256152
48	0x3e44bb94	0.1921218
49	0x3e0b4f28	0.13604414
50	0xbe1b9ce7	-0.15196572
51	0xbdbb0aac	-0.09132895
52	0xbdcf8d62	-0.101343885
53	0xbe1c5382	-0.1526623
54	0xbe908f3b	-0.28234276
55	0xbe571e43	-0.21007638
56	0x3d8a47c2	0.06751968
57	0x3e79892d	0.24368735
58	0xbe347d6f	-0.17625974
59	0xbcf9a788	-0.030475393
60	0x3d8d406b	0.068970524
61	0x3d8fd0ab	0.07022222
62	0xbe463040	-0.19354343
63	0x3d03fdf5	0.032224614
64	0x3dc1baa4	0.09459427
65	0x3e199e93	0.15001898
66	0xbe59e176	-0.21277413
67	0xbdbbea19	-0.0917551
68	0x3cc2d600	0.023783684
69	0xbe3795e2	-0.1792827
70	0x3e84043b	0.25784478
71	0x3e368107	0.17822658
72	0xbe15743d	-0.14595123
73	0x3dc4e03b	0.09613081
74	0xbe3eacf9	-0.18620671
75	0xbdbbdb47	-0.09172683
76	0x3e80d9e5	0.2516624
77	0x3c5dd533	0.0135396
78	0x3e6b0de7	0.22954522
79	0x3e173f0f	0.14770149
80	0xbe58098e	-0.21097395
81	0xbde5fae1	-0.11229492
82	0xbe795da2	-0.24352124
83	0xbe2c641c	-0.16835064
84	0xbdf0c262	-0.117558256
85	0xbe5a2413	-0.21302824
86	0xbe0d413c	-0.13794416
87	0xbdf0800f	-0.11743175
88	0x3ddc4081	0.10754491
89	0x3dd09855	0.10185305
90	0xbe6ed0e6	-0.23321876
91	0xbd62c6e5	-0.05536546
92	0x3de27d37	0.11059039
93	0x3e6533a3	0.22382979
94	0xbe33d195	-0.17560418
95	0xbe030973	-0.12796573
96	0x3d97104a	0.07376154
97	0x3e4c9295	0.19977792
98	0xbdeab931	-0.11461104
99	0xbe045491	-0.12922885
100	0xbe61790d	-0.22018833
101	0xbe23ae9f	-0.15984581
102	0xbe43156e	-0.19051144
103	0xbe60edd2	-0.21965721
104	0xbe0ceb7f	-0.1376171
105	0x3d485551	0.04890949
106	0xbe6c6389	-0.23084845
107	0xbddd0633	-0.10792198
108	0x3e093816	0.13400301
109	0x3e2f48a8	0.1711756
110	0xbdd125c9	-0.10212285
111	0xbd82e74e	-0.06391774
112	0xbe67456b	-0.22585075
113	0xbdb7353c	-0.089457005
114	0xbe572c40	-0.21012974
115	0xbe5bd530	-0.21468043
116	0x3c16c068	0.009201147
117	0x3e2c06ef	0.1679952
118	0xbe4bf69a	-0.1991829
119	0xbe41efd6	-0.18939146
120	0x3df01c2c	0.11724123
121	0x3e694f77	0.2278422
122	0xbdacfa3e	-0.084461674
123	0xbe3494fc	-0.17634958
124	0xbe3d3d72	-0.18480471
125	0xbe339f47	-0.17541228
126	0xbe8ba509	-0.2727435
127	0xbdee9145	-0.11648802
128	0xbe97d677	-0.2965581
129	0xbe55509d	-0.20831533
130	0x3e2f16d1	0.17098548
131	0xbe3a1c7c	-0.18174928
132	0xbefe00bd	-0.49609938
133	0xbe98465d	-0.29741183
134	0xbe061c8e	-0.1309683
135	0xbe247300	-0.16059494
136	0x3ecb1c95	0.39670244
137	0x3e445432	0.19172743
138	0xbe4c040b	-0.19923417
139	0x3e682928	0.2267195
140	0xbe597070	-0.21234298
141	0x3f003f41	0.5009652
142	0x3e425521	0.18977787
143	0x3d296bce	0.041362576
144	0xbe6b8fca	-0.2300407
145	0xbe743bb1	-0.23850895
146	0xbec78949	-0.38971928
147	0xbe1ddd1b	-0.15416376
148	0xbf1e0f75	-0.61742336
149	0xbefe58ef	-0.49677226
150	0xbea5712f	-0.32312915
151	0xbe95e592	-0.2927671
152	0x3e86214b	0.26197276
153	0xbe58509d	-0.21124502
154	0xbe95928b	-0.29213366
155	0xbe3bcbc4	-0.18339449
156	0xbe8bbd92	-0.27293068
157	0x3a4560b8	0.0007529366
158	0x3e0d54e6	0.13801917
159	0xbe1dd80c	-0.15414447
160	0xbe587a51	-0.2114041
161	0x3ef7b199	0.48377684
162	0x3e9b9436	0.30386513
163	0xbe55e206	-0.20887002
164	0xbe9cf87e	-0.30658334
165	0xbe73a99e	-0.23795173
166	0xbd8e14e9	-0.06937582
167	0xbe89ff60	-0.26952648
168	0x3e65a816	0.22427401
169	0xbe7b91d0	-0.24567342
170	0xbe5ee865	-0.21768339
171	0xbd098b5d	-0.033580173
172	0xbe413d9f	-0.18871163
173	0xbe112e51	-0.14177825
174	0xbca9fff4	-0.02075193
175	0xbe84f568	-0.2596848
176	0x3dfd857c	0.12378976
177	0xbe87f5ad	-0.26554623
178	0xbe0779e4	-0.13230091
179	0xbc9e7c9f	-0.019346533
180	0xbe84fc9c	-0.25973976
181	0x3eb2db87	0.3493311
182	0x3e6c2739	0.23061837
183	0xbddad4a6	-0.10685091
184	0x3e232545	0.15932186
185	0xbda4d43d	-0.08048294
186	0xbe1d1bf5	-0.15342696
187	0xbc6d2d64	-0.014476154
188	0xbd998758	-0.07496518
189	0x3ea4d117	0.32190773
190	0xbe7e6d4b	-0.2484638
191	0x3cf8b64c	0.030360363
192	0xbe8b5b97	-0.27218315
193	0x3f233212	0.63748276
194	0xbb9df8ce	-0.0048209196
195	0x3ec7ae94	0.3900038
196	0xbe1f4d75	-0.15556891
197	0xbee24dc3	-0.44199952
198	0x3e4a2a07	0.19742595
199	0xbe8d2017	-0.27563545
200	0xbe5ba0bc	-0.21448034
201	0x3e93b53a	0.28849202
202	0x3e938261	0.2881041
203	0xbe84cdeb	-0.25938353
204	0xbecf70f1	-0.40515855
205	0xbe2294c9	-0.1587707
206	0xbcb61fe3	-0.022232002
207	0xbe96506a	-0.29358226
208	0x3e8b91d2	0.2725969
209	0x3ebce85c	0.36896026
210	0xbe75f2d9	-0.2401842
211	0x3ea178bf	0.31537434
212	0x3ec01a16	0.37519902
213	0xbe8ba247	-0.27272245
214	0xbe571d59	-0.21007289
215	0x3ec01097	0.37512657
216	0x3e5a7737	0.2133454
217	0x3f257f00	0.6464691
218	0xbe8819e1	-0.26582244
219	0x3e484c90	0.19560456
220	0x3ea52e04	0.3226167
221	0xbe3883a2	-0.18018964
222	0xbe33d677	-0.1756228
223	0xbc036052	-0.00801857
224	0xbe9b83dd	-0.3037404
225	0x3ebb403d	0.36572447
226	0xbe850b6a	-0.2598527
227	0x3e3c2b30	0.1837585
228	0x3ea1c053	0.31592044
229	0xbdc62632	-0.09675254
230	0xbe40fef2	-0.18847254
231	0x3e7082d2	0.23487404
232	0xbda872c4	-0.08225015
233	0xbecbead3	-0.39827594
234	0xbe54ca53	-0.20780306
235	0xbd98e76d	-0.07466016
236	0x3f023bc3	0.5087244
237	0x3d99e9a7	0.07515269
238	0xbd25116e	-0.040299825
239	0x3e0d90e4	0.13824803
240	0x3e46f08e	0.19427702
241	0xbee94469	-0.45560005
242	0xbe94cbc7	-0.2906172
243	0x3d637a8d	0.055536795
244	0x3e64b0f8	0.22333133
245	0xbe916d44	-0.28403676
246	0xbe5e0ab9	-0.21683778
247	0x3da53cf8	0.080682695
248	0xbe566f5b	-0.20940916
249	0x3eb6a960	0.35676098
250	0xbe340629	-0.17580475
251	0xbd8ca935	-0.06868211
252	0xbe625275	-0.22101767
253	0x3eee996a	0.4660142
254	0x3e71cbac	0.23612851
255	0x3f015965	0.5052703

fc.0.bias f4 [37]
0	0xbd6425fe	-0.055700295
1	0xbdc5c9c4	-0.09657624
2	0x3e2a8550	0.16652417
3	0xbd9d2ae4	-0.07674196
4	0xbe1164d8	-0.14198625
5	0x3e3332bd	0.17499824
6	0xbc928214	-0.017884292
7	0x3e3f8739	0.18703927
8	0x3dab4318	0.083624065
9	0x3bc84c62	0.006112621
10	0x3c7ed201	0.0155529985
11	0x3da953ba	0.08267923
12	0xbe0c256d	-0.13686152
13	0x3d39a1f6	0.045320474
14	0xbdd135c4	-0.10215333
15	0xbd8c3865	-0.06846694
16	0xbdb0e6b5	-0.08637754
17	0xbe27bf84	-0.16381651
18	0x3df33acf	0.11876451
19	0x3e46683e	0.19375703
20	0x3dd6fa5f	0.10496973
21	0x3e39e935	0.18155368
22	0xbc9b8901	-0.018986227
23	0xbdb74f6f	-0.08950698
24	0x3dcd3ae7	0.10021
25	0xbe25fa6e	-0.16208813
26	0xbe031b6b	-0.12803428
27	0xbcca469d	-0.024691874
28	0xbd9c2cae	-0.076257095
29	0x3dcdb88c	0.10044965
30	0x3d91b66e	0.07114874
31	0x3e4b68cb	0.19864194
32	0x3d08080f	0.03321081
33	0x3de5eb30	0.11226499
34	0x3d124ab3	0.03571577
35	0x3ddd52d4	0.10806814
36	0xbdf6ec90	-0.120568395

33 f4 [16, 1, 3, 3]
0	0x3f1058cc	0.56385493
1	0xbee5f7b4	-0.44915545
2	0x3ef72166	0.48267668
3	0xbe7ff03a	-0.24993983
4	0x3c9f33a0	0.019433796
5	0xbf6761dd	-0.903837
6	0xbfc862db	-1.5655168
7	0xbeb743b8	-0.35793853
8	0xbf7066f7	-0.9390711
9	0xbf4e528d	-0.8059471
10	0xbfc6c39c	-1.5528445
11	0x3f385a4c	0.7201278
12	0x3fa27145	1.2690817
13	0x3f353525	0.7078422
14	0x3f9b2ba9	1.2122699
15	0x3efd7bf6	0.49508637
16	0xbea784b8	-0.32718444
17	0x3e4d8c09	0.2007295
18	0x3fd633f3	1.6734604
19	0x3f680880	0.9063797
20	0x3e88fc9a	0.2675522
21	0x3e5ed9b2	0.21762732
22	0xbfc43533	-1.5328735
23	0xbf5d71d7	-0.8650183
24	0xbf290ac0	-0.6603203
25	0xbf1d4c0c	-0.61444163
26	0xbe7cdb77	-0.24693094
27	0x3f3e0c0e	0.74237144
28	0xbf9884bb	-1.1915506
29	0x3fb49d0b	1.4110426
30	0x3f8adc18	1.0848417
31	0xbefc545a	-0.49283105
32	0x3ef10075	0.4707066
33	0x3fd2633e	1.6436536
34	0xbf3962ad	-0.7241619
35	0x3eadf800	0.3397827
36	0x40028884	2.0395823
37	0x3fbff1cc	1.4995666
38	0xc018168d	-2.3763764
39	0xbfd1c939	-1.6389533
40	0xbdb9ae5a	-0.09066458
41	0x3f9319f7	1.1492299
42	0xbfacd5f4	-1.3502793
43	0xbfad403d	-1.3535229
44	0x3fad5f26	1.3544662
45	0xbf589103	-0.8459627
46	0x3f00262e	0.5005826
47	0xbd669f3e	-0.05630421
48	0xbf4e70a3	-0.8064062
49	0x3e6924d3	0.22767954
50	0xbf032eca	-0.5124327
51	0xbf44e733	-0.7691528
52	0xbeda40fa	-0.42627698
53	0xbf97701a	-1.1831086
54	0x3d62466c	0.05524294
55	0x3fb38f9b	1.40282
56	0x3fd918ea	1.6960728
57	0x3fab45bb	1.3380655
58	0xc011c695	-2.2777455
59	0x3de69851	0.11259521
60	0xbf84d477	-1.0377339
61	0x3f87643b	1.0577463
62	0x3ef5b7cd	0.4799179
63	0xbf8b6fe9	-1.0893527
64	0x3e38130e	0.17976019
65	0xc00e82dc	-2.226737
66	0x3f0d8d96	0.5529417
67	0x3f10975d	0.5648096
68	0xbe7fdf9e	-0.24987647
69	0x3f176d84	0.5915148
70	0x3f127e34	0.5722382
71	0x3ed9a044	0.42505085
72	0xbf905df2	-1.127867
73	0x3f75077d	0.9571455
74	0xbe95aeeb	-0.29235014
75	0x3f7e8572	0.9942237
76	0x3fe4bac7	1.78695
77	0x3f113dd2	0.56734955
78	0xbdb92f24	-0.090421945
79	0xbf29a700	-0.66270447
80	0xc00c0ca8	-2.1882725
81	0xbed76495	-0.42068925
82	0xbf8571b8	-1.0425329
83	0xbf4d5307	-0.80204815
84	0x3f71cea9	0.94455963
85	0xbf40495c	-0.7511194
86	0x3f7b40d0	0.9814577
87	0x3e483727	0.19552289
88	0xbfe5bc3f	-1.7948073
89	0xbe5f6a9d	-0.21818013
90	0x3f3d6791	0.73986155
91	0xbdd4f143	-0.103975795
92	0x3f87abc4	1.0599294
93	0x3e1b7c92	0.15184239
94	0xbc897e93	-0.016783988
95	0xbe261427	-0.16218625
96	0x3f01aabe	0.50651157
97	0x3f916788	1.135972
98	0x3f6bb5fb	0.92074555
99	0x3fa5c32e	1.2950189
100	0x3e9748ef	0.2954783
101	0xbfa73c9c	-1.3065372
102	0xc00a331f	-2.1593702
103	0x3e8f918b	0.28040728
104	0xbfc1bb6f	-1.5135325
105	0xbd1dbf16	-0.038512312
106	0x3fd3081b	1.6486849
107	0xbef221a5	-0.47291294
108	0x3f2d92f7	0.67802376
109	0x3ecf38ad	0.40472928
110	0x3f7746c2	0.9659234
111	0x3f1c4e7c	0.6105726
112	0xbf40cc68	-0.753119
113	0x3ea84dfd	0.32872
114	0x3f89d36b	1.0767645
115	0xbedf3ccf	-0.4360108
116	0x3f9201cc	1.1406798
117	0x3f6906b0	0.9102583
118	0x3f37bdb5	0.71773845
119	0xbf884f80	-1.0649261
120	0x3eab8658	0.33500934
121	0x3f0475c6	0.5174221
122	0xbf5b6f03	-0.85716265
123	0x3f5b2dee	0.8561696
124	0xbf18a7bf	-0.5963096
125	0xbf9578b1	-1.1677457
126	0xbf6123dc	-0.8794534
127	0xbf6d0fb9	-0.92602116
128	0x3ff00839	1.8752509
129	0x3eebf9d7	0.4608905
130	0xbf6822e8	-0.9067826
131	0xbf9bee91	-1.218218
132	0xbf3ff3e2	-0.7498151
133	0xbe77a340	-0.24183369
134	0x3fea55a9	1.8307391
135	0x4003c4fe	2.0588984
136	0xbeb5d0ad	-0.3551077
137	0xc0097fbd	-2.1484215
138	0xbfadde99	-1.3583556
139	0x3eabd519	0.33561018
140	0xbe369c8d	-0.17833157
141	0xbf8e6f97	-1.1127805
142	0xbf83f733	-1.0309814
143	0x3f5d2fd2	0.86401093

34 f4 [16]
0	0xbeed8e1c	-0.46397483
1	0x3f175235	0.5910981
2	0xbe9a787f	-0.30170056
3	0x3ee91c73	0.45529518
4	0xbe99a85d	-0.30011263
5	0xbf39ab71	-0.72527224
6	0x3ea8d19b	0.32972416
7	0xbe8a5a51	-0.2702203
8	0xbc1c4010	-0.009536758
9	0xbf099295	-0.5373929
10	0x3f57884e	0.8419236
11	0xbed0f4a1	-0.40811637
12	0x3ee14092	0.43994576
13	0xbd8b75d2	-0.06809582
14	0xbdf902b5	-0.121587195
15	0xbf053a5d	-0.5204218

36 f4 [32, 16, 3, 3]
0	0x3ece659a	0.4031189
1	0xbdc0aa0d	-0.094074346
2	0x3de495aa	0.11161359
3	0xbd98e354	-0.074652344
4	0xbeeaa266	-0.45827025
5	0xbe6c35b1	-0.23067357
6	0x3cdcb3d8	0.026941225
7	0xbe7bbf70	-0.24584746
8	0x3e323cae	0.1740596
9	0x3ea4b59b	0.32169804
10	0x3b3755b4	0.0027974667
11	0x3e8f1edd	0.27953234
12	0xbf1210f3	-0.5705711
13	0xbca85d82	-0.0205524
14	0xbca225ab	-0.019793352
15	0x3d77dc3e	0.060512774
16	0x3dcafb49	0.0991121
17	0x3eef5818	0.46746898
18	0xbd6bf01d	-0.057602037
19	0x3e813355	0.25234476
20	0x3e6472a3	0.22309355
21	0x3e5fdc05	0.21861275
22	0x3c7c3ec7	0.015395827
23	0x3d947892	0.072495595
24	0x3dea01b4	0.11426106
25	0x3c8c892a	0.017155249
26	0x3e88a067	0.26684877
27	0x3e1c82c7	0.15284263
28	0x3cfc0e23	0.03076846
29	0x3bd12804	0.006382944
30	0xbd374824	-0.044746533
31	0x3f0f66e6	0.56016386
32	0x3d9cfeda	0.076657966
33	0x3e12430e	0.14283392
34	0xbb3f6b12	-0.0029208106
35	0xbddd00a5	-0.107911386
36	0xbe25534e	-0.1614506
37	0xbd8b81ac	-0.06811842
38	0xbf083016	-0.53198373
39	0xbebb76ae	-0.36613983
40	0xbea64031	-0.3247085
41	0xbeb414f3	-0.35172233
42	0xbec7e603	-0.39042673
43	0x3e8182b6	0.25295037
44	0xbe621078	-0.22076595
45	0x3e00c952	0.12576798
46	0xbde6c033	-0.11267128
47	0x3e435df6	0.19078812
48	0x3e9b5f1c	0.30346
49	0xbebb56ed	-0.36589757
50	0xbf18c6c9	-0.5967832
51	0x3eca1d5e	0.3947553
52	0x3e3e3e1b	0.18578379
53	0x3eeb5162	0.45960528
54	0xbca92507	-0.020647539
55	0x3ba9efd8	0.0051860623
56	0x3e9d9ad1	0.30782178
57	0xbe75b162	-0.23993447
58	0xbea24f89	-0.31701306
59	0xbeb3966d	-0.35075703
60	0x3e3b2484	0.18275648
61	0xbe6abec6	-0.22924337
62	0x3e558b33	0.20853882
63	0x3e524878	0.20535457
64	0xbd78a87a	-0.060707547
65	0xbe8fbbce	-0.2807297
66	0xbf1d0304	-0.61332726
67	0x3df80890	0.12111008
68	0x3de7b9d5	0.113147415
69	0xbe6e941c	-0.23298687
70	0xbe46363b	-0.19356625
71	0xbe9c76d5	-0.30559412
72	0x3e85b9e6	0.26118392
73	0xbe278c18	-0.16362035
74	0xbd91d9ef	-0.07121646
75	0xbc97804d	-0.018493796
76	0xbdfdeb70	-0.12398422
77	0x3d827fdc	0.063720435
78	0xbd2b37ac	-0.04180114
79	0x3db8f00f	0.090301625
80	0xbcbe8afc	-0.023259632
81	0x3ecb7c74	0.39743388
82	0x3e8cdc5c	0.2751187
83	0x3f0177f8	0.5057368
84	0xbeb07b36	-0.34469002
85	0xbe535fc5	-0.20642002
86	0xbedf9668	-0.43669438
87	0xbf0ab7f7	-0.5418696
88	0xbd82d7ae	-0.06388794
89	0x3ede3651	0.43400815
90	0x3cc1e2d9	0.02366774
91	0xbae01103	-0.0017094914
92	0xbe617534	-0.22017366
93	0xbf2fa1f2	-0.68606484
94	0xbef2c624	-0.47416794
95	0xbda99dcd	-0.08282051
96	0xbe71ab53	-0.23600511
97	0xbec0ecad	-0.3768057
98	0xbd9a0c42	-0.07521869
99	0x3f2a53be	0.6653403
100	0x3eb1a8bd	0.3469905
101	0x3f3693a8	0.71319056
102	0x3e6c1e3a	0.23058406
103	0x3ee2ad94	0.44273055
104	0x3ece00c0	0.40234947
105	0x3df5f641	0.1200986
106	0x3dfa9a02	0.12236406
107	0x3ea7ab2a	0.32747775
108	0x3e3594c2	0.17732528
109	0xbc5e0315	-0.0135505395
110	0x3e1ede04	0.1551438
111	0x3e7e70bd	0.24847694
112	0x3cab955f	0.02094525
113	0x3e4f8c10	0.20268273
114	0x3e497c8d	0.19676419
115	0x3ec7d2ef	0.39028117
116	0x3e2e92f5	0.17048247
117	0xbf011f33	-0.5043823
118	0xbf1d5055	-0.614507
119	0xbe31323f	-0.17304324
120	0xbe937380	-0.28799057
121	0xbded307f	-0.115815155
122	0xbd98034a	-0.07422502
123	0xbeb144b4	-0.3462273
124	0xbdab4705	-0.08363155
125	0x3e3d7a70	0.18503737
126	0xbe0b7eab	-0.13622539
127	0xbec62f64	-0.3870803
128	0xbf607d59	-0.87691265
129	0x3e840851	0.25787595
130	0xbe34bdae	-0.17650482
131	0xbed6d3de	-0.41958517
132	0x3e7f46e0	0.2492938
133	0xbdf2c13a	-0.11853261
134	0xbe47b193	-0.19501333
135	0xbd2ad9f4	-0.041711763
136	0x3d0a9bf6	0.033840142
137	0x3ee9779e	0.45599073
138	0x3d25738f	0.04039341
139	0xbdd0bf95	-0.101927914
140	0x3e935d9e	0.28782362
141	0x3f13464e	0.5752915
142	0x3c89324a	0.016747613
143	0xbd89e90d	-0.06733904
144	0x3f6b9636	0.9202608
145	0x3deaf295	0.1147205
146	0x3f071da6	0.52779615
147	0xbd7d450e	-0.061833434
148	0xbf20b37e	-0.62773883
149	0xbf37816f	-0.71681875
150	0x3f176e7d	0.59152967
151	0x3ce45c17	0.027875943
152	0x3f1d6016	0.6147474
153	0x3ee7c0d5	0.45264307
154	0x3e49eb18	0.19718587
155	0x3eac393f	0.33637425
156	0xbd82788d	-0.063706495
157	0xbf2716ad	-0.65268975
158	0xbdfd0a9b	-0.123555385
159	0xbf19e315	-0.60112125
160	0xbda13738	-0.0787186
161	0x3f6790a1	0.9045506
162	0x3e900d80	0.281353
163	0xbf115519	-0.56770474
164	0x3e8490da	0.25891763
165	0x3e126667	0.14296876
166	0x3e38409f	0.17993401
167	0x3e794442	0.24342445
168	0x3f0cfe86	0.5507587
169	0x3e39ec77	0.1815661
170	0x3e91ae05	0.2845308
171	0x3f37cf58	0.71800756
172	0x3f15a01b	0.58447427
173	0x3ed05479	0.40689448
174	0x3e7c9d60	0.24669409
175	0x3d581049	0.052749906
176	0x3e03c2a1	0.12867214
177	0x3f939c65	1.1532103
178	0x3f807eec	1.0038733
179	0x3ecff17b	0.40613922
180	0x3ee56fb4	0.44811785
181	0x3e5ad161	0.21368934
182	0xbf12e957	-0.573873
183	0x3cb20f42	0.021735791
184	0xbe959b92	-0.29220253
185	0xbf0bafd9	-0.545652
186	0x3d6aee16	0.057355963
187	0xbc5579b1	-0.013029502
188	0xbf48712b	-0.7829768
189	0x3dc27115	0.09494225
190	0xbee1d04e	-0.44104236
191	0xbef19c34	-0.47189486
192	0x3e24d85d	0.16098161
193	0xbe9e2e7a	-0.30894834
194	0xbd78a903	-0.060708057
195	0x3eb7c4a2	0.35892206
196	0x3e9dc8db	0.30817303
197	0xbec2da23	-0.3805705
198	0xbe88a309	-0.26686886
199	0xbe985dd0	-0.29759073
200	0xbdfe8b54	-0.124289185
201	0xbf2a1b25	-0.6644767
202	0xbf90a7d3	-1.1301216
203	0xbf5c706a	-0.8610903
204	0x3ef4a4fa	0.47782117
205	0xbd198000	-0.037475586
206	0xbe941db6	-0.28928918
207	0x3e5e1c2e	0.21690437
208	0xbd747641	-0.05968309
209	0xbf05475d	-0.52062017
210	0x3d913c8a	0.07091625
211	0xbede6616	-0.4343726
212	0xbd849cea	-0.064752415
213	0x3ef2c8b2	0.47418743
214	0x3b2ed990	0.002667997
215	0xbc7c7900	-0.015409708
216	0x3e9702f7	0.2949445
217	0xbc850cee	-0.016241517
218	0x3dcfabd7	0.10140198
219	0xbf327685	-0.69712096
220	0xbe8efcd6	-0.27927274
221	0x3f039f8c	0.51415324
222	0xbf12e0f0	-0.5737448
223	0xbe5a7467	-0.21333466
224	0x3e37cb0b	0.17948548
225	0xbf1bc88e	-0.608529
226	0xbf9fa6f7	-1.2472829
227	0xbe9cabfa	-0.30599958
228	0xbe4dc956	-0.20096335
229	0xbd44065a	-0.04785762
230	0x3e56c4a9	0.20973457
231	0xbf1ee438	-0.62066984
232	0xbf4ade4c	-0.7924545
233	0xbee18063	-0.44043264
234	0xbf31f824	-0.6951926
235	0xbefdb525	-0.49552265
236	0xbe509662	-0.20369866
237	0xbf4344ce	-0.7627686
238	0xbf252d79	-0.6452251
239	0x3db51d54	0.088434845
240	0xbfb2060c	-1.3908095
241	0xbf939555	-1.1529948
242	0xbf14f562	-0.58186924
243	0x3f21dc4f	0.6322679
244	0x3f0c3002	0.54760754
245	0x3f62ab27	0.8854241
246	0x3e7a1384	0.24421507
247	0x3ebe9922	0.37226206
248	0xbdab08fd	-0.08351324
249	0x3e8fd3d6	0.28091305
250	0x3e7d5437	0.24739157
251	0x3de77f4f	0.11303579
252	0xbe2b29b3	-0.16715126
253	0x3f1893d3	0.5960056
254	0xbe26f9c0	-0.1630621
255	0xbec042c5	-0.3755094

37 f4 [32]
0	0x3f7e5966	0.9935516
1	0x403bde0f	2.9354284
2	0x3dc9b55c	0.09849045
3	0xbe8b9f39	-0.27269915
4	0x40196b17	2.3971612
5	0x403ae677	2.9203165
6	0xbdda96a0	-0.10673261
7	0x4028652e	2.6311755
8	0x3f946a23	1.159489
9	0x3f957d18	1.16788
10	0x3f0126ae	0.50449646
11	0x3f4ca9fa	0.79946864
12	0x3f135073	0.5754463
13	0x402ffc6f	2.7497823
14	0x3e941113	0.28919277
15	0x400729b8	2.1119213
16	0x3e894712	0.26812035
17	0x3f84e833	1.0383362
18	0x3f9ed143	1.2407612
19	0x3fbc8c8b	1.473039
20	0x3f5d1cf1	0.86372286
21	0x3eacba4c	0.33735883
22	0xbee94857	-0.45563003
23	0x3f0d9a68	0.5531373
24	0x40061a98	2.0953732
25	0x3fd74236	1.6817081
26	0x40592906	3.3931289
27	0x3e0cdef5	0.13756926
28	0x40521c9d	3.2829964
29	0x3f844ad2	1.0335333
30	0x3fa2fc47	1.2733239
31	0x3f542a80	0.8287735
