resources/imgreco/stage_ocr/chars.onnx (onnx, 39338 bytes, 6 tensors)

fc.0.weight f4 [37, 128]
0	0x3e2dee0f	0.16985343
1	0x3e331dce	0.17491838
2	0xbe2dd585	-0.16975982
3	0xbe3d1d0f	-0.18468116
4	0xbca1c526	-0.019747328
5	0xbe0ba319	-0.13636436
6	0x3e36de4f	0.17858241
7	0x3def3ec0	0.116818905
8	0x3e2f3a35	0.17112048
9	0x3d7862da	0.060641147
10	0xbe573891	-0.21017672
11	0xbe2ed898	-0.17074811
12	0x3e80a761	0.251277
13	0x3e47de03	0.19518284
14	0x3cb5408f	0.02212551
15	0x3e13ebb6	0.14445385
16	0xbe3f33c5	-0.18672092
17	0xbe0e41f7	-0.13892351
18	0x3e76926a	0.2407929
19	0x3defd8c7	0.11711269
20	0xbdb3b6d2	-0.087751046
21	0x3c3168d0	0.010828212
22	0x3e518879	0.20462216
23	0x3db21dca	0.08697088
24	0x3dc7c9ee	0.09755312
25	0xbd1f4a4e	-0.03888922
26	0x3e66dbff	0.2254486
27	0x3e22e73f	0.15908526
28	0xbdbf4415	-0.093391575
29	0xbd5e9a8c	-0.054346606
30	0xbe3ed0c8	-0.18634331
31	0xbe33089b	-0.17483751
32	0x3e2d792c	0.16940755
33	0x3d9c792d	0.076403
34	0x3dcd5e08	0.10027701
35	0x3e59cd25	0.21269663
36	0xbe362326	-0.17786846
37	0xbe63f3bf	-0.2226095
38	0x3e8d151b	0.27555165
39	0x3e821c86	0.25412387
40	0xbe82e77b	-0.2556723
41	0xbe6e01f2	-0.2324293
42	0xbe4e2947	-0.20132934
43	0xbcdde4a3	-0.027086562
44	0xbde0db9a	-0.10979386
45	0xbd85c61f	-0.06531929
46	0xbe22eeb4	-0.1591137
47	0xbe7bedae	-0.24602386
48	0xbe24ee4b	-0.16106527
49	0xbe2a3b40	-0.16624165
50	0x3de3abfe	0.11116789
51	0x3e2a58f8	0.16635501
52	0x3e43602f	0.1907966
53	0x3e8602f4	0.26174128
54	0xbe0a9018	-0.1353153
55	0xbdc455b9	-0.09586663
56	0x3d841aea	0.06450446
57	0x3e343e60	0.17601919
58	0xbe2b5baa	-0.16734186
59	0xbe643752	-0.22286728
60	0x3ca98841	0.020694854
61	0xbda31619	-0.07963199
62	0x3e76965d	0.24080797
63	0x3dd9ed88	0.106410086
64	0xbe8e6624	-0.27812302
65	0xbe821c53	-0.25412235
66	0xbe233e33	-0.15941696
67	0xbd390b1f	-0.04517662
68	0x3e0f6716	0.14004168
69	0x3e16dc5f	0.14732502
70	0xbdd32e1b	-0.10311528
71	0xbdd27023	-0.10275295
72	0x3e201525	0.15633066
73	0x3e3bb22d	0.18329687
74	0x3de5e683	0.11225607
75	0x3dda8243	0.10669377
76	0xbd7c7524	-0.06163515
77	0xbe0b6d58	-0.1361593
78	0xbe724d48	-0.23662293
79	0xbe25ce5f	-0.16192006
80	0x3cc2ac27	0.02376373
81	0xbd218a16	-0.03943833
82	0xbe7a4c4d	-0.24443169
83	0xbe889bab	-0.26681265
84	0x3e80d207	0.25160238
85	0x3e8533e2	0.26016146
86	0xbe234feb	-0.15948455
87	0xbc7350a5	-0.01485077
88	0x3e115ce5	0.14195593
89	0x3e83849b	0.25687107
90	0xbe6e393e	-0.23264024
91	0xbe6ae387	-0.22938357
92	0xbb980c0f	-0.0046401094
93	0x3e2cb35d	0.16865297
94	0xbe2faef7	-0.17156588
95	0xbd5e71fe	-0.05430793
96	0xbd5ded6c	-0.0541815
97	0xbe2b0d93	-0.16704397
98	0x3d63f912	0.055657454
99	0x3c652cce	0.013987733
100	0xbddfb1ad	-0.10922561
101	0xbe52e17f	-0.20593832
102	0x3e5661bf	0.20935725
103	0x3e18c0ad	0.1491725
104	0xbe285f64	-0.16442639
105	0xbe7496ab	-0.238856
106	0xbe7ef5e3	-0.24898486
107	0xbe43d555	-0.19124348
108	0xbcd035e5	-0.025416324
109	0x3d1581d8	0.03650078
110	0xbe7ed720	-0.24886751
111	0xbe82f9f1	-0.25581315
112	0xbd432ae8	-0.04764834
113	0xbd70f5f2	-0.0588283
114	0xbe80b11a	-0.25135118
115	0xbe8658ab	-0.26239523
116	0xbe14b2f0	-0.14521384
117	0xbe5d2a9d	-0.21598287
118	0x3e47682e	0.19473335
119	0x3e2c2cf7	0.16814028
120	0xbd07c7b1	-0.033149425
121	0xbe3f7338	-0.18696296
122	0x3e580ee8	0.21099436
123	0x3e07e9b1	0.1327274
124	0x3dae4b58	0.085104644
125	0x3d8193ec	0.06327042
126	0xbe06db3f	-0.13169573
127	0xbe667411	-0.22505213
128	0x3d6f7a4c	0.05846624
129	0xbdedd3fa	-0.11612697
130	0x3eb0d3c5	0.34536567
131	0x3d58d779	0.052939866
132	0xbf0a2dd6	-0.5397619
133	0xbd50379a	-0.050834276
134	0xbe82887a	-0.25494748
135	0x3d49edc9	0.049299035
136	0xbe8ae198	-0.2712524
137	0x3e0e8909	0.13919462
138	0x3db95df7	0.090511255
139	0xbec77cb9	-0.38962343
140	0xbed7ad51	-0.42124417
141	0xbea7ed2e	-0.3279814
142	0xbdc59965	-0.09648398
143	0x3e02fb55	0.12791188
144	0x3cb9416c	0.022614203
145	0x3e26b260	0.16278982
146	0x3d23481c	0.03986369
147	0x3e46aed3	0.19402628
148	0x3b7be19a	0.003843403
149	0xbe455740	-0.19271564
150	0xbe905980	-0.28193283
151	0xbe09114a	-0.13385502
152	0xbed6a826	-0.41925162
153	0x3d778845	0.06043269
154	0xbec4da3a	-0.38447744
155	0x3d3228f3	0.043496083
156	0xbdc29eba	-0.09502931
157	0x3e85bc66	0.261203
158	0x3ed69f69	0.41918495
159	0xbc645d55	-0.013938268
160	0xbf12c6e2	-0.5733472
161	0xbe32c9db	-0.17459814
162	0xbec98e6d	-0.39366475
163	0xbd7bace1	-0.061444167
164	0xbea6d80d	-0.3258671
165	0xbc05aca5	-0.008158837
166	0xbf00b77e	-0.50279987
167	0x3df13a52	0.11778702
168	0x3ec3d8c0	0.38251305
169	0xbd37488c	-0.04474692
170	0x3ec5e9a5	0.3865482
171	0x3e2d6373	0.16932468
172	0x3eeb5155	0.4596049
173	0xbe5eef7d	-0.21771045
174	0x3eb3ee5e	0.35142797
175	0x3e81c675	0.25346723
176	0xbee3d86b	-0.4450105
177	0x3ed42720	0.414361
178	0xbe0f7cdd	-0.14012475
179	0xbed7f074	-0.4217564
180	0xbea29a91	-0.3175855
181	0x3e47f605	0.19527443
182	0xbe9e5d1d	-0.30930415
183	0xbd31073a	-0.043219782
184	0x3eadaa12	0.33918816
185	0xbe8dc73a	-0.2769106
186	0x3dd7f9c3	0.10545685
187	0x3c3ed93a	0.011648471
188	0xbee86163	-0.453868
189	0x3dcdc45e	0.1004722
190	0xbdd46aa7	-0.10371905
191	0xbe67a88a	-0.22622886
192	0x3ebae958	0.36506152
193	0x3e94f729	0.29094818
194	0x3e8aa589	0.27079418
195	0x3e1ac904	0.15115744
196	0xbed28e60	-0.41124249
197	0x3e1d4155	0.15356953
198	0x3df159bd	0.11784694
199	0xbef36bd7	-0.47543213
200	0xbe8524b5	-0.26004568
201	0xbdd9f058	-0.10641545
202	0x3d0dad93	0.03458936
203	0xbe6ecdf0	-0.23320746
204	0x3eb34db1	0.3502021
205	0xbdbe6d66	-0.0929821
206	0x3e801cb1	0.2502189
207	0x3e0e8b80	0.13920403
208	0x3e8edde6	0.2790367
209	0xbe40cb46	-0.18827543
210	0xbd7981d8	-0.060914844
211	0x3ea14c42	0.31503493
212	0xbe505269	-0.20343937
213	0xbdab95c6	-0.083781764
214	0xbe522ef7	-0.20525728
215	0x3c201923	0.009771618
216	0xbeb8fdff	-0.36131284
217	0x3dd53926	0.10411291
218	0x3e6e1aee	0.2325246
219	0x3de1a57f	0.11017894
220	0xbdf564f8	-0.11982149
221	0x3e39dbfd	0.18150325
222	0x3c89f099	0.016838359
223	0xbeb1da27	-0.3473675
224	0x3e0ffb34	0.1406067
225	0x3e3d22b0	0.18470263
226	0xbba91366	-0.005159783
227	0xbee41f31	-0.44555047
228	0xbe9e1bf5	-0.30880705
229	0x3e2d543d	0.16926666
230	0xbebf5498	-0.37369227
231	0xbe20eb09	-0.15714659
232	0x3ea2e90a	0.3181842
233	0xbea2c8b9	-0.31793764
234	0x3e8acb8a	0.27108413
235	0x3e59d4d1	0.2127259
236	0xbd8a9050	-0.06765807
237	0x3da65fcb	0.0812374
238	0x3e813b6a	0.25240642
239	0x3e44163d	0.19149108
240	0x3c3d8fe9	0.011569955
241	0x3e311116	0.17291674
242	0x3e3c8b00	0.184124
243	0x3ea1db63	0.3161269
244	0x3e091992	0.1338866
245	0xbe069138	-0.13141334
246	0xbe9e5d4b	-0.30930552
247	0x3d803c76	0.06261532
248	0xbe0c31ba	-0.13690844
249	0xbe0825ce	-0.13295671
250	0xbec784e1	-0.38968566
251	0x3e13a4a4	0.14418274
252	0xbed39afa	-0.41329175
253	0x3d43d45e	0.04780995
254	0x3ecba5f3	0.39775047
255	0xbe9b784b	-0.30365214

fc.0.bias f4 [37]
0	0x3d91067d	0.07081316
1	0x3e147e51	0.14501311
2	0xbdd20457	-0.10254734
3	0xbd2cfd7c	-0.04223393
4	0xbda867a4	-0.08222893
5	0x3e409592	0.18807057
6	0x3da7b2b9	0.081883855
7	0x3e7978df	0.24362515
8	0xbd6bff57	-0.057616558
9	0x3e73125c	0.23737472
10	0x3debfe63	0.1152313
11	0xbe0aa813	-0.13540678
12	0xbd6f1a6c	-0.058374807
13	0xbba2a831	-0.0049638976
14	0xbccd92f4	-0.025094487
15	0xbd9f9e1e	-0.0779383
16	0xbdfa0f8d	-0.12209997
17	0x3d064ba3	0.032786977
18	0xbc25f949	-0.010130235
19	0xbdb86f12	-0.0900556
20	0xbc38056e	-0.011231763
21	0xbd715e1e	-0.058927648
22	0xbd2b5fc3	-0.041839372
23	0xbca93a9f	-0.020657836
24	0xbda2d9b4	-0.0795168
25	0x3dd69cb6	0.10479109
26	0x3dc39255	0.09549395
27	0xbe45f444	-0.19331461
28	0x3c36e3dd	0.011162725
29	0xbc812d0d	-0.015768552
30	0xbd6e00a7	-0.05810609
31	0x3dfb3d96	0.12267606
32	0xbd8751db	-0.066074096
33	0xbc36186a	-0.011114219
34	0x3daa8e59	0.08327932
35	0x3d49f064	0.04930152
36	0xbddb0351	-0.10693992

33 f4 [16, 1, 3, 3]
0	0xbf24d580	-0.64388275
1	0x3db912a8	0.090367615
2	0xbfd641fd	-1.6738888
3	0xbfab6203	-1.3389286
4	0xbe37985a	-0.17929211
5	0x3dbddcbc	0.09270617
6	0xbeb4535e	-0.35219854
7	0x3fa5f9e1	1.2966882
8	0x3d7a51b4	0.061113074
9	0x401ef586	2.4837356
10	0xbef5fb66	-0.48043364
11	0x3e221b41	0.15830709
12	0xbfbac949	-1.4592677
13	0xbf90c455	-1.1309916
14	0xbfd0f3db	-1.6324419
15	0xbf57e880	-0.8433914
16	0x3f54a6b2	0.83066857
17	0x3f8dfeb1	1.1093351
18	0xbf8aecda	-1.0853531
19	0xbf586996	-0.8453611
20	0x3ee49ebc	0.44652355
21	0x3fd2172d	1.6413323
22	0xbda0259e	-0.07819675
23	0x3f30fdac	0.6913707
24	0x3eae8f60	0.3409376
25	0x3d7a3e2a	0.06109444
26	0x3f5fd27e	0.8743056
27	0xbeb8226b	-0.3596376
28	0xbeba364f	-0.3636956
29	0xbecd02b5	-0.40041128
30	0xbe8c54f2	-0.27408558
31	0x3e69ec48	0.2284404
32	0xbecb431a	-0.39699632
33	0xbf444a90	-0.76676273
34	0xbf6285fc	-0.88485694
35	0xbf04309b	-0.51636666
36	0xbf81e500	-1.014801
37	0x40169373	2.3527496
38	0x3fb0160b	1.3756727
39	0x3f3ba5f6	0.7330011
40	0xbda91a65	-0.082569875
41	0xbf29abb0	-0.662776
42	0x3eec0682	0.46098715
43	0xc00fb0b9	-2.2451613
44	0xbf343f19	-0.7040878
45	0xbf1bec7e	-0.60907733
46	0x3f3d4b7d	0.7394331
47	0x3f8c17d7	1.0944775
48	0xbf871f3f	-1.055641
49	0xbd54077c	-0.05176495
50	0x3e9859f7	0.29756138
51	0x3fd50180	1.6641083
52	0x3f5d5356	0.86455286
53	0xbf00b5f8	-0.5027766
54	0x3f5a3fc8	0.8525357
55	0xbf82b3f1	-1.0211164
56	0x3d95d630	0.07316244
57	0xbfa9967d	-1.324905
58	0xbfd12a8b	-1.6341108
59	0xbeb8e3f7	-0.36111423
60	0x3fafd2b6	1.3736179
61	0x3f9dce7a	1.2328637
62	0xbf3df25b	-0.7419793
63	0x3f3b6d61	0.73213774
64	0x3f059ef8	0.5219569
65	0x3dcf0513	0.1010839
66	0x3eba1a0a	0.3634799
67	0xbe6f1a9f	-0.23349999
68	0x3f37de85	0.7182391
69	0x3fdbab1b	1.7161592
70	0xbf690192	-0.9101802
71	0xbebe73eb	-0.37197813
72	0x3eb50a67	0.353595
73	0x3fa712c2	1.30526
74	0x3f3ad71d	0.72984487
75	0x3fb6d496	1.4283626
76	0x3f0cd0a0	0.55005836
77	0xbf8b4bca	-1.0882504
78	0xbf2077f9	-0.62683064
79	0xbf9c2e41	-1.2201616
80	0xbfbdc587	-1.4825906
81	0x3f943c11	1.1580831
82	0x3fbe8985	1.4885718
83	0xbfeb6bf9	-1.8392326
84	0xbe274639	-0.16335382
85	0x3e7352ee	0.23762104
86	0xbeedfed5	-0.46483484
87	0xbf85d206	-1.0454719
88	0x3ee910d0	0.4552064
89	0xbf92deb2	-1.1474211
90	0x3f2b3249	0.66873604
91	0x3f184cba	0.59492075
92	0x3f29d062	0.6633359
93	0x3f39783b	0.7244908
94	0xbf3ddb1b	-0.74162453
95	0xbf64e2c0	-0.89408493
96	0x3f312aae	0.6920575
97	0x3e7c419f	0.24634407
98	0xbfc9487f	-1.5725249
99	0x3d52d5b3	0.05147333
100	0x3fc2d29f	1.5220526
101	0x3f925265	1.1431395
102	0xbf8ec751	-1.1154577
103	0xbeb58d45	-0.35459343
104	0xbf0b94e8	-0.5452409
105	0xbee70008	-0.4511721
106	0xbf7317fc	-0.9495847
107	0xbed41765	-0.414241
108	0xbe4c4781	-0.19949152
109	0x3dbc50fd	0.09195135
110	0xbf0ee6f9	-0.55821186
111	0x3f5dd692	0.86655533
112	0xbf9cbe3f	-1.2245559
113	0x3fb7dd5f	1.4364432
114	0x3fbebf83	1.4902195
115	0xbffdd72f	-1.9831294
116	0xbf8da069	-1.1064578
117	0x3e27079c	0.16311496
118	0x3f067174	0.52516866
119	0x3e46a2ee	0.1939809
120	0x3f295f31	0.66160876
121	0x3da91203	0.082553886
122	0xbf541449	-0.8284345
123	0x3f881c27	1.0633591
124	0xc0129df0	-2.2908897
125	0xbf84a06c	-1.0361457
126	0xbd8ddb25	-0.06926564
127	0xbf9dca1b	-1.2327303
128	0xbf45eb9a	-0.77312624
129	0xbf3879b8	-0.7206073
130	0xbf142de8	-0.5788255
131	0x3e7bcd84	0.24590117
132	0xbf57a581	-0.84236914
133	0x3e7b191a	0.24521294
134	0x3f979602	1.1842654
135	0x3eb2a167	0.34888765
136	0x3cf3cbb7	0.029760225
137	0xbf06a457	-0.5259451
138	0x3ed2f7f1	0.4120479
139	0x3ee1237e	0.4397239
140	0x3f189281	0.5959855
141	0x3ea1cde3	0.31602392
142	0x3f3a5f46	0.72801626
143	0x3f1101da	0.5664345

34 f4 [16]
0	0xbf110ec4	-0.56663156
1	0xbe1456ac	-0.14486188
2	0x3f01e790	0.5074396
3	0xbf3a943f	-0.72882456
4	0x3c5b0890	0.013368741
5	0x3f1979e0	0.5995159
6	0xbef02ebf	-0.46910664
7	0x3ee7c663	0.45268545
8	0xbdc51398	-0.09622878
9	0x3c814fd8	0.015785143
10	0x3e3eae21	0.18621112
11	0xbe9f5e43	-0.31126603
12	0xbe2c9949	-0.16855349
13	0xbeaf6066	-0.34253234
14	0xbedf1f54	-0.4357859
15	0x3f23d7db	0.64001244

36 f4 [32, 16, 3, 3]
0	0xbf9123b5	-1.1339022
1	0xbf9c1efc	-1.2196956
2	0xbd32ea41	-0.043680433
3	0xbfb3ea97	-1.4055966
4	0xbe8a7fde	-0.2705068
5	0x3e2a326a	0.16620794
6	0xbfc3f981	-1.5310518
7	0xbf11bcc3	-0.5692865
8	0xbe7a28ca	-0.24429622
9	0xbed7ba6a	-0.4213441
10	0x3e9c1be4	0.3049003
11	0xbe970e92	-0.29503304
12	0xbcfc6aa0	-0.030812562
13	0x3e8f5988	0.27997994
14	0x3e6b9ad7	0.23008285
15	0xbf03e04d	-0.5151413
16	0xbd3fc244	-0.046816126
17	0xbdd3ee6b	-0.10348209
18	0x3f52834e	0.82231605
19	0x3d4d7225	0.050157685
20	0x3f45e7b3	0.7730667
21	0xbce7e2fb	-0.028306475
22	0x3d97e3d5	0.074165024
23	0x3f075e5a	0.52878344
24	0x3f650e6a	0.8947512
25	0x3df8b015	0.1214296
26	0x3f249862	0.6429502
27	0x3ec5b4b6	0.38614434
28	0xbfa1c6b9	-1.263877
29	0x3e7c282c	0.246247
30	0x3f90e6e2	1.132046
31	0x3e801170	0.25013304
32	0x3d44f57d	0.04808568
33	0x3e14da4a	0.14536396
34	0xbf66bc5a	-0.9013115
35	0xbf1271ef	-0.572051
36	0xbfa11e1f	-1.2587317
37	0xbf009b23	-0.5023672
38	0xbfbdd9bf	-1.4832076
39	0xbf85af1c	-1.0444064
40	0xbf7a6cd6	-0.9782232
41	0xbed72e51	-0.42027524
42	0xbf9f45c3	-1.2443165
43	0xbf8a1ed6	-1.079066
44	0xbf5b7845	-0.8573039
45	0x3dc74448	0.097298205
46	0xbf14caae	-0.58121765
47	0x3e013066	0.12616119
48	0x3e287993	0.16452627
49	0xbf062600	-0.52401733
50	0x3df693e6	0.12039928
51	0xbe7ecc34	-0.24882585
52	0xbeee5f33	-0.46557006
53	0x3d472583	0.04861976
54	0x3f31bdda	0.69430315
55	0xbc49056e	-0.012269361
56	0x3ead3803	0.33831796
57	0x3dc1ab95	0.09456555
58	0x3ea5cb9a	0.32381898
59	0x3ee17c7a	0.4404028
60	0x3f1d7da1	0.6151982
61	0x3f3af5fc	0.7303159
62	0x3c877d51	0.016539248
63	0xbe46f615	-0.1942981
64	0x3bc7711f	0.006086483
65	0x3f51fad7	0.82023376
66	0xbe9da25f	-0.30787942
67	0x3e93a123	0.28833875
68	0x3e53acfb	0.20671456
69	0xbe344d42	-0.17607597
70	0x3ebba5cf	0.3664994
71	0x3ea41e2f	0.32054278
72	0x3f34b202	0.7058412
73	0x3fd57902	1.6677554
74	0x3f865131	1.0493528
75	0x3e1d3865	0.15353544
76	0x3fadddcc	1.3583312
77	0x3f442f1f	0.766344
78	0x3f100232	0.5625335
79	0x3f99943d	1.1998364
80	0x3f7c608c	0.9858482
81	0x3ebd798b	0.37006792
82	0xbf18d127	-0.5969414
83	0x3d3a5f90	0.04550129
84	0xbdefc76e	-0.1170796
85	0xbfe61022	-1.7973673
86	0x3df2b1c2	0.11850311
87	0x3e90985a	0.28241235
88	0xbdb2598c	-0.08708486
89	0x3e657f64	0.22411877
90	0xbf4ee451	-0.80817133
91	0xbe994dc7	-0.29942152
92	0x3da6f104	0.08151439
93	0xbe29321d	-0.16523023
94	0xbe71d6ed	-0.23617144
95	0xbf6410ed	-0.89088327
96	0xbf5b8ef4	-0.85765004
97	0x3e853ff2	0.2602535
98	0xbdf5d1ed	-0.12002931
99	0x3f6cc25d	0.92484075
100	0x3e04b0f7	0.12958132
101	0x3f06e5be	0.5269431
102	0x3f04261c	0.5162065
103	0x3e2621c1	0.16223814
104	0xbdec59e3	-0.11540582
105	0x3fa384b2	1.277487
106	0xbe071f49	-0.13195528
107	0x3e762450	0.2403729
108	0x3f37936c	0.7170932
109	0xbeded1cb	-0.43519434
110	0x3efb2630	0.49052572
111	0x3ed3190e	0.41230053
112	0xbeec1d39	-0.46116045
113	0xbef293a5	-0.4737827
114	0x3f169b29	0.58830506
115	0xbeadfbfb	-0.33981308
116	0x3d133503	0.035939228
117	0xbd8cbdc2	-0.06872131
118	0x3f189de3	0.59615916
119	0x3d538540	0.05164075
120	0x3f06187d	0.52381116
121	0xbee21501	-0.4415665
122	0xbeaf4ea5	-0.3423969
123	0x3ec08e41	0.3760853
124	0x3f1a4e5a	0.60275805
125	0xbe931f4d	-0.28734818
126	0x3f858e60	1.0434074
127	0xbc232b4a	-0.009959051
128	0xbe81e562	-0.25370318
129	0x3fd7917c	1.6841273
130	0xbf068fc0	-0.52563095
131	0xbe805e89	-0.25072125
132	0x3f21421a	0.6299149
133	0xbe67c6dc	-0.22634453
134	0x3f212e6f	0.6296148
135	0xbcb38dcf	-0.021918206
136	0x3ee096b7	0.43864986
137	0x3e80e6df	0.2517614
138	0xbe0e6673	-0.13906269
139	0xbfb7e859	-1.4367782
140	0xbf4ce4cd	-0.8003662
141	0x3e52b63e	0.20577332
142	0xbf870270	-1.0547619
143	0x3e63322a	0.22187105
144	0x3f4190d1	0.756116
145	0xbd2271fc	-0.039659485
146	0x3de8bc4c	0.1136404
147	0x3f42bfc1	0.76073843
148	0x3f5baa06	0.8580631
149	0x3eae5fff	0.34057614
150	0xbd5ffc14	-0.05468376
151	0x3d0ded64	0.03465022
152	0x3d930ca3	0.07180145
153	0x3c1252f9	0.008930915
154	0x3eaacf3b	0.3336123
155	0x3f02e30c	0.51127696
156	0xbddef233	-0.108860396
157	0xbeb6fda1	-0.35740378
158	0xbed4d2c2	-0.41567045
159	0xbebd91ed	-0.37025395
160	0xbe7b515d	-0.24542756
161	0xbf2ca6a6	-0.67441785
162	0xbeabcf8e	-0.3355679
163	0x3c82a2e8	0.01594682
164	0x3e1ad2d5	0.15119489
165	0x3ee7816a	0.45215923
166	0x3e16ee25	0.14739282
167	0xbd231944	-0.039819017
168	0x3eac293c	0.3362521
169	0x3f0e454d	0.55574495
170	0x3e85ab38	0.26107192
171	0x3e827e39	0.25486925
172	0x3f95297c	1.1653285
173	0x3f59027d	0.8476942
174	0xbebd81ef	-0.37013194
175	0x3e91d0b4	0.2847954
176	0x3f056c9f	0.5211887
177	0x3f8628eb	1.0481237
178	0x3f61baa2	0.88175404
179	0x3f8291c1	1.020073
180	0xbf165542	-0.58723843
181	0xbe9e9fe0	-0.3098135
182	0xbe268901	-0.162632
183	0xbedf2dc5	-0.43589607
184	0xbd2245ad	-0.03961723
185	0x3eb62465	0.35574642
186	0xbe52a004	-0.20568854
187	0x3e3f4209	0.18677534
188	0x3e436c28	0.19084227
189	0xbe2e27b4	-0.17007333
190	0xbca5d1c1	-0.02024162
191	0xbe6892de	-0.22712275
192	0xbf0db9e7	-0.5536179
193	0xbe8e7672	-0.27824742
194	0xbf2c5eb6	-0.6733202
195	0x3d99005b	0.07470771
196	0x3d46c9ff	0.048532482
197	0x3e8fde75	0.2809941
198	0x3f0e06e0	0.5547924
199	0x3ebc04d7	0.36722443
200	0x3ea62b29	0.32454804
201	0xbeb684cb	-0.35648188
202	0xbee1e27c	-0.44118106
203	0x3ef903af	0.48635623
204	0x3ebcc79c	0.3687104
205	0x3b839b2b	0.0040163
206	0x3f1f0b86	0.6212696
207	0x3d27333f	0.040820356
208	0x3d1eb6be	0.038748495
209	0x3dea0ea3	0.11428573
210	0x3edd3d10	0.4321065
211	0x3f491491	0.78547007
212	0xbdeac58b	-0.114634596
213	0x3e78943c	0.24275297
214	0xbd66e4a6	-0.0563704
215	0xbeb8ff36	-0.3613221
216	0x3f66d435	0.9016755
217	0x3e2138ea	0.15744367
218	0xbe94d96d	-0.29072133
219	0x3faa0962	1.3284113
220	0x3fac0bc1	1.3441087
221	0x3e9b377d	0.30315772
222	0x3f88d3f1	1.0689679
223	0x3f07737d	0.52910596
224	0x3f1b713f	0.60719675
225	0xbea56bc3	-0.32308778
226	0x3db95fa3	0.090514444
227	0x3e92bdd5	0.28660455
228	0xbe6c0857	-0.23050056
229	0xbe3edc12	-0.18638638
230	0xbd9bca1c	-0.07606909
231	0xbf28ff1f	-0.66014284
232	0xbed4efc7	-0.41589186
233	0xbf089b53	-0.53362006
234	0xbf2b30af	-0.6687116
235	0xbd9bf8ef	-0.0761584
236	0x3dd808a5	0.10548524
237	0x3e12ae8d	0.14324398
238	0xbdd8d5fa	-0.10587688
239	0xbe407bad	-0.18797179
240	0x3f1c7171	0.611106
241	0xbeb965d8	-0.36210513
242	0x3eafaef7	0.34313175
243	0x3e6f5827	0.23373471
244	0x3f5d01dd	0.8633097
245	0x3c60d679	0.013723009
246	0x3eea60ac	0.4577688
247	0xbeb53789	-0.35393932
248	0xbe7a454f	-0.24440502
249	0xbd753161	-0.059861545
250	0x3d8ba9dd	0.06819508
251	0xbe45b894	-0.19308692
252	0xbead666a	-0.33867198
253	0xbe1afe7a	-0.15136138
254	0xbe90c3f4	-0.282745
255	0xbf465e81	-0.7748795

37 f4 [32]
0	0x3f83d1ef	1.0298442
1	0x3fbd98a1	1.4812204
2	0x3fc73374	1.5562577
3	0x402ad31b	2.6691349
4	0x3f933adc	1.1502337
5	0x3ffbcb16	1.9671352
6	0x3f11fb4c	0.57024074
7	0x3fd0e55a	1.6319993
8	0x4041a714	3.0258226
9	0xbecf8ef0	-0.4053874
10	0x401c01b7	2.4376047
11	0x40215c8c	2.5212736
12	0x3fc98f2a	1.5746815
13	0x402e3b8c	2.7223845
14	0x403db529	2.9641821
15	0x3f9e5462	1.2369502
16	0x3f999112	1.1997397
17	0x3faa1132	1.3286498
18	0x403c5c84	2.9431467
19	0x3faf9308	1.3716745
20	0x3fb24ebf	1.3930281
21	0x400c439b	2.1916263
22	0x3f605547	0.8763012
23	0x4000ac46	2.0105147
24	0x3fa6fc62	1.3045771
25	0x3e49257e	0.19643208
26	0x3fd9633d	1.698341
27	0x40210e6d	2.5165055
28	0x3fd771d8	1.6831617
29	0x3f93fa43	1.1560749
30	0x3f41f6f0	0.7576742
31	0x3fde7d62	1.7382014
