resources/imgreco/stage_ocr/chars.onnx (onnx, 201888 bytes, 6 tensors)

conv.0.bias f4 [5]
0.24181984 0.09326818 0.27075925 0.22718646 -0.061970666
00000000: 9f9f 773e 6303 bf3d f5a0 8a3e 91a3 683e
00000010: f4d4 7dbd

conv.0.weight f4 [5, 1, 5, 3]
0.08325307 0.3081564 0.13177487 -0.25014767 -0.08809108 0.32359025 -0.38144517 -0.09150793
0.07654342 -0.2987421 0.16280076 0.31717184 0.19038592 0.014729092 0.3479535 0.24297038
0.047649983 0.07377686 0.22263063 0.30350956 0.2885946 0.26324 0.32182282 0.2936834
0.31166363 0.23585325 0.15809779 0.25794268 0.29367948 0.18676297 0.038742237 -0.10499523
0.15249173 0.29482323 0.064245515 0.31680837 0.16284749 -0.06910173 0.05305235 0.14546244
0.2968576 0.082249634 0.18956599 0.20970209 0.354871 -0.25937077 0.011323423 0.18946229
-0.31813005 -0.13843773 -0.25480658 -0.31831658 -0.25439894 0.19035316 0.14871599 -0.023723058
-0.11252053 0.08716956 0.35843357 0.30743694 0.13299432 -0.24552673 -0.2931393 -0.04962323
0.16250354 -0.11940627 0.35512877 0.16766565 0.24210948 0.20293182 0.21769753 0.023129536
0.11252027 0.17493446 0.29002604
00000000: 9680 aa3d adc6 9d3e feef 063e 5b13 80be
00000010: 1969 b4bd 9fad a53e c84c c3be 8268 bbbd
00000020: ccc2 9c3d b9f4 98be 3eb5 263e 5964 a23e
00000030: 87f4 423e 4a52 713c f626 b23e 3acd 783e
00000040: a12c 433d 5318 973d 49f9 633e 9b65 9b3e
00000050: acc2 933e 65c7 863e f6c5 a43e ac5d 963e
00000060: 6092 9f3e 8483 713e 63e4 213e 1011 843e
00000070: 285d 963e cb3e 3f3e 2eb0 1e3d bd07 d7bd
00000080: cb26 1c3e 12f3 963e 2793 833d b534 a23e
00000090: 7ec1 263e 3585 8dbd 6c4d 593d 1bf4 143e
000000a0: b8fd 973e 7f72 a83d 961d 423e 25bc 563e
000000b0: a7b1 b53e 3fcc 84be e185 393c 6702 423e
000000c0: f1e1 a2be 9fc2 0dbe 0276 82be 64fa a2be
000000d0: 9440 82be f0eb 423e 0149 183e dc56 c2bc
000000e0: 2a71 e6bd f485 b23d 9b84 b73e 6068 9d3e
000000f0: aa2f 083e 5c6b 7bbe 5b16 96be ba41 4bbd
00000100: 5467 263e 468b f4bd 70d3 b53e 8bb0 2b3e
00000110: 8ceb 773e 5ccd 4f3e 1aec 5e3e 277a bd3c
00000120: 0771 e63d 0522 333e 4b7e 943e

fc.0.bias f4 [74]
-0.005093413 0.007807097 0.02126896 -0.0070857233 -0.00998307 0.06645665 0.08513988 0.03260073
-0.018660208 0.015534853 -0.028183004 0.040594667 0.009198977 0.015174872 0.02495822 0.042326234
0.042842057 0.044299137 0.052570052 0.02518541 -0.06500505 0.024611333 0.015565695 -0.04312532
0.0059194365 0.02009928 0.06316006 -0.043358415 0.08702193 0.056422833 0.03338068 0.007673581
0.037132964 0.060988255 0.0030142318 0.016985785 0.05359097 0.023140233 0.027304064 0.10550058
0.012928937 -0.0011511547 0.005548182 -0.0063900393 0.0029043339 0.06048763 0.0077405847 0.014309654
0.04832487 -0.026632339 0.07672397 0.019675193 0.05250732 0.048717532 -0.013830122 0.025454642
0.01968267 -0.017691143 0.02374026 -0.024246529 -0.0024986689 0.016016463 0.047373075 -0.007900547
0.0622826 0.05311182 -0.019996008 0.04582127 0.06560295 0.008029341 0.0018436869 0.027944485
0.08377225 0.071136296
00000000: a5e6 a6bb add2 ff3b 3e3c ae3c 5b2f e8bb
00000010: 0890 23bc 6d1a 883d d15d ae3d 5888 053d
00000020: 4bdd 98bc e585 7e3c 0be0 e6bc 9846 263d
00000030: 4eb7 163c 07a0 783c 2e75 cc3c 465e 2d3d
00000040: 277b 2f3d 0373 353d b253 573d a251 ce3c
00000050: 5e21 85bd b59d c93c 4207 7f3c 2da4 30bd
00000060: d5f7 c13b 3fa7 a43c 105a 813d 9898 31bd
00000070: 8e38 b23d a11b 673d 2eba 083d aa72 fb3b
00000080: bc18 183d d2ce 793d 6b8a 453b c625 8b3c
00000090: 3482 5b3d 9690 bd3c c6ac df3c b010 d83d
000000a0: e4d3 533c 58e2 96ba 86cd b53b 8963 d1bb
000000b0: a356 3e3b e1c1 773d bba4 fd3b 0a73 6a3c
000000c0: 4df0 453d 102c dabc 7521 9d3d df2d a13c
000000d0: ea11 573d 098c 473d bc97 62bc 4186 d03c
000000e0: 8d3d a13c 04ed 90bc ef7a c23c a8a0 c6bc
000000f0: b5c0 23bb f534 833c 450a 423d 4c71 01bc
00000100: 0a1c 7f3d c88b 593d abce a3bc 16af 3b3d
00000110: d75a 863d 7f8d 033c dea7 f13a d5eb e43c
00000120: c990 ab3d e8af 913d

fc.0.weight f4 [74, 640]
0.038309794 -0.026577124 -0.042532165 -0.03809145 -0.01604489 -0.072313875 -0.043731183 -0.0011812347
-0.08601893 0.0034967258 -0.08001125 -0.0929545 -0.034121975 -0.0046407785 0.0041549257 -0.052921966
0.055250525 -0.06044855 0.002596568 -0.048462037 0.008680872 -0.021984031 -0.092560515 -0.11265597
0.07922751 0.09463536 -0.02010154 -0.054932415 0.005937186 0.027913155 -0.027157528 -0.028590687
0.070401624 0.040638395 -0.010398707 0.03505237 0.09675204 -0.07859103 -0.083169 -0.10741656
0.05533434 0.105492346 0.068772145 0.025574706 0.04270046 -0.01432685 -0.056150783 -0.039088868
0.022576567 0.021202872 -0.05152298 -0.014185539 0.067108594 0.02110729 -0.007915726 -0.05176918
0.07223854 0.07222735 0.03282159 0.039601803 0.0657411 -0.027350217 -0.038706686 -0.05330023
-0.07938948 0.098053634 0.02045996 0.010673154 0.0011489515 -0.016489822 -0.08280397 -0.05824795
-0.07003654 0.09165733 0.08213796 0.03542091 -0.050008174 -0.07752191 -0.04721165 -0.03208433
-0.12023302 -0.079664044 0.017518468 0.04200775 0.11432212 0.103799805 0.03746214 -0.09677083
0.014850653 0.061236404 0.023039494 0.03518773 -0.04418071 -0.0787668 -0.04243352 -0.06856624
-0.017888356 -0.09708642 0.075835675 0.1144696 0.10583095 0.090730816 0.10846788 0.117166884
-0.011772736 0.089435175 0.06989725 -0.05767965 -0.09044603 -0.061452135 -0.009466017 -0.011566601
-0.056388028 -0.10082837 -0.069463655 -0.110598385 -0.034781195 -0.118558645 -0.079116195 0.029945476
0.09666251 -0.045806903 -0.08077735 -0.028592775 -0.081249215 -0.019092109 -0.045144323 -0.051430076
0.07327637 0.10003708 0.05443419 0.09871291 0.09345908 0.0213637 -0.032219566 -0.022126075
0.024594752 0.023461761 0.06474127 -0.013428478 -0.056326173 -0.06569574 0.045894347 0.024523756
0.108975306 0.034214776 0.07044586 0.050661433 0.0761808 0.016697237 -0.0014874954 -0.08374365
-0.100164734 -0.03318872 0.0073572593 0.047960892 0.07059435 0.011697356 0.028625205 -0.012580075
0.05711201 0.06132434 0.080927156 0.089531064 0.07699752 0.034776017 -0.08263641 -0.10446128
-0.09023829 -0.061543364 -0.008915935 0.05897775 0.046730626 0.020070368 0.05277888 -0.0008375543
0.05821957 0.025061294 0.049031094 0.079747625 0.110735714 0.10752376 -0.00032415884 -0.0050598728
-0.050601467 -0.087926954 0.03595486 0.07694656 0.0685151 0.028466813 0.030259438 0.004840337
-0.04666661 -0.09877652 0.02007326 0.05700439 0.100984775 0.07110834 0.07527973 0.044648614
0.0033928768 0.0015352055 0.053490635 0.045036618 0.030229503 0.015101584 0.04137286 0.060627207
-0.074309744 -0.0995753 -0.0601585 -0.100357115 -0.025943557 -0.006354447 0.0247825 0.07453849
0.04758947 0.0069538937 0.08738893 0.07842903 0.06497499 0.06868326 0.011950681 0.008523303
0.02363121 -0.0313108 -0.037694048 -0.0882256 0.02016457 0.028813856 0.021808092 0.016931657
0.10161993 0.054326337 0.08802911 0.09839426 0.078132555 0.020191453 0.03542909 -0.083148554
0.052434433 0.097744934 0.03820114 0.09901867 0.10489087 0.081893034 0.06608182 0.09468233
0.09225264 0.103803135 0.07444549 0.08715074 0.055206705 0.03640758 0.041398823 -0.037433293
00000000: bbea 1c3d 45b8 d9bc 3536 2ebd c805 1cbd
00000010: 9370 83bc 4c19 94bd 781f 33bd a9d3 9aba
00000020: b12a b0bd 5329 653b f0dc a3bd ee5e bebd
00000030: 7cc3 0bbd ac11 98bb 0b26 883b b4c4 58bd
00000040: 604e 623d e698 77bd 2f2b 2a3b 2180 46bd
00000050: 373a 0e3c db17 b4bc 5e90 bdbd 2cb8 e6bd
00000060: 0842 a23d 2fd0 c13d fcab a4bc d000 61bd
00000070: ba8c c23b 21aa e43c 7779 debc 0437 eabc
00000080: ba2e 903d 7274 263d 575f 2abc 1393 0f3d
00000090: ef25 c63d 55f4 a0bd 8254 aabd 37fd dbbd
000000a0: 43a6 623d 5f0c d83d 69d8 8c3d 0c82 d13c
000000b0: ade6 2e3d 2abb 6abc 5dfe 65bd a61b 20bd
000000c0: 7ef2 b83c a5b1 ad3c c309 53bd 776a 68bc
000000d0: 3b70 893d 32e9 ac3c f6b0 01bc eb0b 54bd
000000e0: cdf1 933d efeb 933d ee6f 063d 8035 223d
000000f0: 45a3 863d 900d e0bc e78a 1ebd 5851 5abd
00000100: f496 a2bd 58d0 c83d a59b a73c 74de 2e3c
00000110: 6a98 963a aa15 87bc 2195 a9bd 6795 6ebd
00000120: 516f 8fbd d7b6 bb3d f237 a83d 8415 113d
00000130: 5fd5 4cbd cfc3 9ebd 0161 41bd dc6a 03bd
00000140: bb3c f6bd e726 a3bd e482 8f3c 5210 2c3d
00000150: b721 ea3d fe94 d43d e771 193d c92f c6bd
00000160: 2750 733c 06d3 7a3d 52bd bc3c 0221 103d
00000170: d5f6 34bd 7d50 a1bd c5ce 2dbd 756c 8cbd
00000180: 9a8a 92bc 3fd5 c6bd bc4f 9b3d 0a6f ea3d
00000190: e6bd d83d 14d1 b93d 6824 de3d 31f5 ef3d
000001a0: 6fe2 40bc ca29 b73d 4a26 8f3d 7f41 6cbd
000001b0: c53b b9bd 3cb5 7bbd 5a17 1bbc d781 3dbc
000001c0: 22f7 66bd 1b7f cebd f642 8ebd 6881 e2bd
000001d0: ba76 0ebd e0ce f2bd ac07 a2bd 3750 f53c
000001e0: fef6 c53d 05a0 3bbd 986e a5bd 653b eabc
000001f0: fd65 a6bd 0e67 9cbc 41e9 38bd 58a8 52bd
00000200: ec11 963d 3ee0 cc3d 63f6 5e3d ff29 ca3d
00000210: 7967 bf3d ed02 af3c aaf8 03bd be41 b5bc
00000220: ef7a c93c e132 c03c 1297 843d 1e03 5cbc
00000230: 46b6 66bd 7d8b 86bd b6fb 3b3d 0be6 c83c
00000240: 722e df3d cb24 0c3d eb45 903d 5d82 4f3d
00000250: ae04 9c3d a5c8 883c 10f8 c2ba ca81 abbd
00000260: 2b23 cdbd e5f0 07bd 2a15 f13b a472 443d
00000270: c593 903d 44a6 3f3c 687f ea3c a91c 4ebc
00000280: 48ee 693d 3b2f 7b3d 23bd a53d 105c b73d
00000290: e0b0 9d3d 4c71 0e3d 473d a9bd ccef d5bd
000002a0: dace b8bd e514 7cbd 2414 12bc a792 713d
000002b0: 9d68 3f3d 9d6a a43c ab2e 583d 518f 5bba
000002c0: a577 6e3d 584d cd3c d4d4 483d b952 a33d
000002d0: 68c9 e23d 6b35 dc3d ddf3 a9b9 4acd a5bb
000002e0: 7c43 4fbd 0c13 b4bd 6745 133d 2896 9d3d
000002f0: a551 8c3d 3c33 e93c a4e2 f73c b19b 9e3b
00000300: 7d25 3fbd 584b cabd ad70 a43c 6f7d 693d
00000310: 1bd1 ce3d 40a1 913d 422c 9a3d 77e1 363d
00000320: 075b 5e3b f338 c93a ff18 5b3d 5178 383d
00000330: dda3 f73c a26c 773c 9776 293d 3c54 783d
00000340: b52f 98bd 23ee cbbd c268 76bd 0888 cdbd
00000350: 9587 d4bc f738 d0bb ab04 cb3c a3a7 983d
00000360: 2ded 423d 7ddd e33b f8f8 b23d 669f a03d
00000370: 9c11 853d cfa9 8c3d cacc 433c 53a5 0b3c
00000380: 3d96 c13c c13f 00bd 1365 1abd a0af b4bd
00000390: 2b30 a53c 090b ec3c e2a6 b23c 42b4 8a3c
000003a0: 1c1e d03d 4b85 5e3d 9b48 b43d ee82 c93d
000003b0: f603 a03d 8c68 a53c 181e 113d ca49 aabd
000003c0: 7dc5 563d 7f2e c83d cc78 1c3d 4dca ca3d
000003d0: 06d1 d63d 89b7 a73d e855 873d cfe8 c13d
000003e0: f4ee bc3d bd96 d43d e176 983d 167c b23d
000003f0: 6d20 623d 1d20 153d d091 293d a753 19bd

fc.2.bias f4 [37]
-0.065838 -0.13076049 0.005420016 0.02051712 -0.11706819 0.082616344 -0.043718494 -0.077976316
0.01496396 0.077928826 -0.14158678 -0.0074567106 0.14207062 0.10002383 -0.07563636 0.026382659
-0.08939521 0.046250552 -0.05504418 0.049685936 0.008914103 -0.13003394 0.057512406 -0.12329386
0.012028209 -0.06999885 -0.098801486 0.07518912 -0.0911134 -0.006802171 -0.011517443 0.060547143
-0.01372921 -0.16262619 -0.0067911195 -0.02459961 0.056034002
00000000: 13d6 86bd 14e6 05be 649a b13b 8513 a83c
00000010: 72c1 efbd c232 a93d 2a12 33bd 0cb2 9fbd
00000020: 662b 753c 2699 9f3d 20fc 10be 6c57 f4bb
00000030: f67a 113e 4bd9 cc3d 3ce7 9abd 7220 d83c
00000040: d614 b7bd 3871 3d3d 0276 61bd 7b83 4b3d
00000050: 750c 123c 9e27 05be 2192 6b3d 7e81 fcbd
00000060: f711 453c 8f5b 8fbd 6f58 cabd c1fc 993d
00000070: aa99 babd bfe4 debb a8b3 3cbc 4800 783d
00000080: 7bf0 60bc 7b87 26be 0a88 debb 1f85 c9bc
00000090: e983 653d

fc.2.weight f4 [37, 74]
-0.09221861 -0.17664583 -0.10152815 -0.07451568 0.08610157 0.14574155 -0.08552746 0.12968098
0.11227722 -0.16822633 0.031641837 0.1089948 0.039351642 -0.051231083 0.12807454 -0.029148731
0.13364452 0.085408896 0.15643446 -0.09995713 -0.025927298 0.051968455 -0.04031745 -0.057651926
-0.07537188 -0.1533526 -0.13146254 -0.02434356 0.04540757 -0.16582614 0.14706668 -0.02091466
0.12958156 0.043132633 -0.16140443 -0.08982737 -0.022827763 0.13055839 -0.13160922 0.0030891635
-0.15514547 0.09619292 -0.15115178 0.061797842 -0.124771796 0.13655658 -0.052646477 0.068780005
0.16546845 0.06678022 0.1480667 -0.08840035 -0.13228169 0.14015456 -0.06781353 -0.16462989
-0.05303143 -0.16856785 0.08926587 0.14837518 -0.006420676 0.10050964 -0.071359664 0.0758808
-0.06746657 -0.1761764 -0.013055235 -0.15349151 -0.055564273 0.149512 -0.023352377 0.0015768029
-0.110187754 0.16671474 -0.1119613 0.12906492 -0.08579008 -0.03164213 0.014244623 0.08884635
0.081841685 -0.08812754 -0.17993116 0.19560748 -0.08094882 -0.17900884 -0.093618214 0.031325657
0.10804878 0.034137685 0.122611195 -0.20774607 -0.059574183 0.0022216649 0.2146532 0.02535186
-0.07767794 -0.100759804 -0.029051268 0.19375496 -0.033409864 -0.052532084 -0.105237275 0.04086761
-0.09858411 0.050993808 -0.1266036 0.2126121 0.027348062 -0.118809335 0.054359067 0.14900403
-0.16786459 -0.083056085 0.20509537 -0.04235045 -0.15207246 0.044412218 0.1024632 -0.20834737
0.071707234 -0.020188816 0.012854415 -0.061302543 -0.11016679 0.0059352187 0.21678619 -0.102884315
0.07381908 -0.19060525 -0.15968901 0.18306157 -0.055009596 -0.029786242 0.07559668 -0.18027668
-0.11627889 0.06339259 -0.120362654 -0.22644275 -0.064905405 -0.15991062 0.21351537 -0.07285025
-0.14835949 -0.1694428 -0.021606945 0.14546086 0.10762517 0.01977088 0.039428625 -0.1978842
0.02905463 0.10622804 -0.12126667 -0.1181928 -0.19357863 -0.1847527 0.090446346 -0.112676494
0.09811102 -0.07909675 -0.08019535 -0.012301996 -0.06404791 0.044447586 0.14128777 -0.057104897
-0.021124156 -0.030558523 -0.074651785 -0.03131659 0.17609711 -0.07984414 0.010907861 -0.034294892
0.14811686 0.110960975 -0.019335542 -0.13502908 0.16263622 -0.10058911 -0.080539435 -0.09320567
0.14870843 -0.1850416 -0.13361081 0.068614796 0.13235179 -0.022221353 -0.18111967 -0.14800432
0.03452175 -0.0013663588 0.13543417 0.09752556 -0.16221379 -0.12633403 -0.026117373 -0.094179265
-0.18604216 -0.018791407 -0.011636434 -0.021932831 0.11488423 -0.20979898 -0.037663996 -0.15944377
-0.19212478 0.03601381 -0.015594737 0.007886531 0.094126254 0.13790835 -0.106280334 -0.036271375
0.12821393 0.112300314 0.11578866 0.0039504766 0.14474425 -0.07104978 -0.087849736 0.15985247
0.00850331 -0.23065941 -0.067084 0.08086348 -0.15504882 -0.05542645 0.0295437 -0.08084764
0.008245428 -0.19045791 -0.07756802 -0.014398157 -0.10366846 0.037834723 0.025856314 0.03658865
-0.1536059 -0.14487448 0.08724199 -0.07611586 -0.068440534 0.046614945 0.20697187 -0.11501857
-0.03366993 -0.018791512 -0.17801486 0.16337463 0.19661014 0.21131027 0.17040573 -0.086623356
00000000: 1cdd bcbd a5e2 34be feed cfbd ad9b 98bd
00000010: 0556 b03d 463d 153e 0529 afbd 17cb 043e
00000020: 99f1 e53d 8643 2cbe df9a 013d aa38 df3d
00000030: 302f 213d afd7 51bd f925 033e 52c9 eebc
00000040: 1cda 083e dcea ae3d 5b30 203e 53b6 ccbd
00000050: 7c65 d4bc e0dc 543d e923 25bd 6d24 6cbd
00000060: 925c 9abd 7708 1dbe 1e9e 06be 256c c7bc
00000070: 4afd 393d 54ce 29be a698 163e 3955 abbc
00000080: 07b1 043e d8ab 303d 3447 25be 6af7 b7bd
00000090: 4a01 bbbc 19b1 053e 91c4 06be 9073 4a3b
000000a0: 74de 1ebe cb00 c53d 88c7 1abe bc1f 7d3d
000000b0: 5b88 ffbd 7dd5 0b3e d5a3 57bd 88dc 8c3d
000000c0: 9070 293e 11c4 883d cc9e 173e 3e0b b5bd
000000d0: da74 07be ad84 0f3e d2e1 8abd bd94 28be
000000e0: 7c37 59bd 0d9d 2cbe 06d1 b63d aaef 173e
000000f0: 8964 d2bb 00d8 cd3d 0425 92bd 6567 9b3d
00000100: ea2b 8abd 9667 34be a0e5 55bc e12c 1dbe
00000110: 5d97 63bd ac19 193e 7c4d bfbc baac ce3a
00000120: 1eaa e1bd 45b7 2a3e f74b e5bd 9829 043e
00000130: b6b2 afbd 2e9b 01bd 4762 693c 13f5 b53d
00000140: 9d9c a73d 367c b4bd e03f 38be 544d 483e
00000150: 7fc8 a5bd 184e 37be e8ba bfbd 554f 003d
00000160: ae48 dd3d f5d3 0b3d 941b fb3d 63bb 54be
00000170: 0f04 74bd 5a99 113b 0cce 5b3e b4ae cf3c
00000180: 9d15 9fbd 285b cebd edfc edbc b367 463e
00000190: c8d8 08bd e22b 57bd a486 d7bd cc64 273d
000001a0: 77e6 c9bd e2de 503d 60a4 01be fdb6 593e
000001b0: 0b09 e03c 4f52 f3bd 9da7 5e3d 8394 183e
000001c0: b2e4 2bbe 4f19 aabd 8504 523e aa77 2dbd
000001d0: e2b8 1bbe 96e9 353d 3ad8 d13d 0359 55be
000001e0: 3edb 923d 0463 a5bc 539b 523c 6018 7bbd
000001f0: 209f e1bd 397c c23b 33fd 5d3e 03b5 d2bd
00000200: 752e 973d 062e 43be 8485 23be 7e74 3b3e
00000210: be51 61bd 4702 f4bc 6fd2 9a3d 739a 38be
00000220: a023 eebd f9d3 813d b280 f6bd 9ce0 67be
00000230: 20ed 84bd 9cbf 23be c6a3 5a3e 8332 95bd
00000240: 8deb 17be 6a82 2dbe 0c01 b1bc b1f3 143e
00000250: 966a dc3d 8af6 a13c e97f 213d 28a2 4abe
00000260: fa03 ee3c 168e d93d a95a f8bd 110f f2bd
00000270: 7a39 46be d02f 3dbe ef3b b93d efc2 e6bd
00000280: 6eee c83d 7afd a1bd 763d a4bd 508e 49bc
00000290: 8d2b 83bd ac0e 363d bead 103e d3e6 69bd
000002a0: 910c adbc de55 fabc 09e3 98bd d345 00bd
000002b0: cd52 343e 5385 a3bd e3b6 323c cd78 0cbd
000002c0: f2ab 173e 823f e33d 9265 9ebc 1045 0abe
000002d0: 1c8a 263e aa01 cebd dcf1 a4bd 9de2 bebd
000002e0: 0647 183e 8c7b 3dbe 46d1 08be ea85 8c3d
000002f0: 3a87 073e 8e09 b6bc 6f77 39be 728e 17be
00000300: ae66 0d3d 6517 b3ba 41af 0a3e 7bbb c73d
00000310: 5f1b 26be b55d 01be 1af4 d5bc 0fe1 c0bd
00000320: d681 3ebe 70f0 99bc bea6 3ebc 7bac b3bc
00000330: 6c48 eb3d 8bd5 56be 9045 1abd 3a45 23be
00000340: 5cbc 44be 3883 133d 1181 7fbc 8236 013c
00000350: 44c5 c03d d937 0d3e 81a9 d9bd 4b91 14bd
00000360: 834a 033e b5fd e53d 9b22 ed3d 0073 813b
00000370: d637 143e 8c82 91bd 90ea b3bd 5eb0 233e
00000380: 7851 0b3c fb31 6cbe 5663 89bd c19b a53d
00000390: 1ec5 1ebe d806 63bd a105 f23c 7393 a5bd
000003a0: d517 073c 6607 43be fbdb 9ebd 3fe6 6bbc
000003b0: 2150 d4bd 95f8 1a3d 9fd0 d33c fbdd 153d
000003c0: dd4a 1dbe fa59 14be eeab b23d a2e2 9bbd
000003d0: 8d2a 8cbd 50ef 3e3d 6ff0 533e db8e ebbd
000003e0: 7be9 09bd a8f0 99bc 8749 36be ae4b 273e
000003f0: 2b54 493e b861 583e d77e 2e3e 9667 b1bd
