resources/imgreco/stage_ocr/chars.onnx (onnx, 39338 bytes, 6 tensors)

fc.0.weight f4 [37, 128]
0	0x3e537096	0.20648417
1	0x3e48ca2d	0.19608374
2	0xbe1627ee	-0.1466367
3	0xbe166f70	-0.14690948
4	0xbdaeecac	-0.08541235
5	0xbe357be2	-0.17723039
6	0x3e390ebd	0.18072028
7	0x3de0e7a4	0.10981682
8	0x3e1eb1b6	0.15497479
9	0x3d47abe4	0.048747912
10	0xbe55b6fa	-0.20870581
11	0xbe2ffb10	-0.17185616
12	0x3e7ab83d	0.24484344
13	0x3e3ea76d	0.18618555
14	0x3c7b1480	0.015324712
15	0x3e20bf20	0.15697908
16	0xbe3d8582	-0.1850796
17	0xbe0c63e0	-0.13709974
18	0x3e738880	0.2378254
19	0x3de2a737	0.1106705
20	0xbdb46d7a	-0.088099435
21	0x3c4f4950	0.012651756
22	0x3e50cc5e	0.2039046
23	0x3db11e02	0.08648302
24	0x3deebefb	0.116575204
25	0xbcc26e4d	-0.023734236
26	0x3e622db1	0.22087742
27	0x3e1f61d0	0.15564656
28	0xbdccb266	-0.09994964
29	0xbd800ed6	-0.0625283
30	0xbe40b4b7	-0.18818937
31	0xbe2fd5a8	-0.17171347
32	0x3e31c520	0.17360353
33	0x3d9d3d9d	0.076777674
34	0x3dda754e	0.10666905
35	0x3e5f6077	0.21814142
36	0xbe306628	-0.1722647
37	0xbe61633b	-0.2201051
38	0x3e8c9574	0.27457774
39	0x3e8105e6	0.25199813
40	0xbe8046eb	-0.25054106
41	0xbe6630fa	-0.2247962
42	0xbe4e9018	-0.20172155
43	0xbd02b274	-0.031908467
44	0xbdf9ba96	-0.121937916
45	0xbdb7ddd2	-0.08977856
46	0xbe1caa2c	-0.1529929
47	0xbe7e14d6	-0.24812636
48	0xbe1c2a99	-0.15250625
49	0xbe2c701e	-0.16839644
50	0x3df583e7	0.11988049
51	0x3e3325a7	0.17494832
52	0x3e4a0ba7	0.19731008
53	0x3e888989	0.2666743
54	0xbe061a35	-0.13095935
55	0xbda9e14a	-0.082949236
56	0x3d841d85	0.06450943
57	0x3e339aa0	0.17539454
58	0xbe2b2050	-0.16711545
59	0xbe5bee65	-0.21477659
60	0x3cdc333c	0.0268799
61	0xbd975a8e	-0.07390319
62	0x3e730a1a	0.23734322
63	0x3dd3302c	0.103119224
64	0xbe8bcc7b	-0.27304444
65	0xbe850526	-0.2598049
66	0xbe20fa3d	-0.15720458
67	0xbd33d809	-0.0439072
68	0x3e0d7819	0.13815345
69	0x3e146c71	0.14494492
70	0xbdd807be	-0.10548352
71	0xbdd1d8fb	-0.10246464
72	0x3e1c1249	0.1524135
73	0x3e39ff7a	0.18163863
74	0x3d9e9420	0.07743096
75	0x3da55c03	0.080741905
76	0xbd629266	-0.055315398
77	0xbe06a328	-0.13148177
78	0xbe763973	-0.24045353
79	0xbe2635e7	-0.162315
80	0x3b93464f	0.0044944654
81	0xbd8244e1	-0.06360794
82	0xbe8561d8	-0.2605121
83	0xbe8a4b7d	-0.27010718
84	0x3e82c07a	0.25537473
85	0x3e872d68	0.2640183
86	0xbe22cdfe	-0.15898892
87	0xbc45db0d	-0.012076152
88	0x3e12b0d2	0.14325264
89	0x3e8456d0	0.25847483
90	0xbe70a8bf	-0.23501872
91	0xbe69f192	-0.22846058
92	0x3c0433e4	0.008069012
93	0x3e36d08d	0.17852993
94	0xbe2e62ab	-0.17029826
95	0xbd3e6e77	-0.046492066
96	0xbd8b44d1	-0.06800235
97	0xbe2714d4	-0.16316539
98	0x3d5430f7	0.05180451
99	0x3c887741	0.016658427
100	0xbdbf7409	-0.09348304
101	0xbe5113f9	-0.20417775
102	0x3e57b262	0.21064141
103	0x3e19ef32	0.15032652
104	0xbe292600	-0.16518402
105	0xbe716874	-0.23575002
106	0xbe80da35	-0.2516648
107	0xbe45aa4c	-0.19303244
108	0xbd6894cd	-0.056782532
109	0x3c2addb5	0.010428836
110	0xbe839116	-0.2569663
111	0xbe865c71	-0.26242402
112	0xbd1b2e50	-0.037885964
113	0xbd3cbd62	-0.046079047
114	0xbe8039dc	-0.25044143
115	0xbe85e6bd	-0.26152602
116	0xbe116c59	-0.14201488
117	0xbe586c75	-0.21135123
118	0x3e3df07d	0.1854877
119	0x3e25b849	0.1618358
120	0xbc62fdb3	-0.013854432
121	0xbe3491ca	-0.17633739
122	0x3e5789cf	0.21048664
123	0x3e088b24	0.13334328
124	0x3db56fac	0.0885919
125	0x3d85bfaf	0.06530701
126	0xbe057cd4	-0.130359
127	0xbe67d60b	-0.22640245
128	0xbd39afa9	-0.04533354
129	0xbdb47860	-0.08812022
130	0x3e710a03	0.23538975
131	0x3c0a3743	0.008436027
132	0xbf0ad371	-0.54228884
133	0x3c57e682	0.013177516
134	0xbe9f0a82	-0.31062704
135	0x3ce8f2ff	0.028436182
136	0xbe826f0f	-0.25475356
137	0x3e2e1ea9	0.17003883
138	0x3dda9036	0.10672037
139	0xbecd2cd0	-0.40073252
140	0xbed1c2c0	-0.40968895
141	0xbead7b95	-0.33883348
142	0xbdb8f6c6	-0.09031443
143	0x3de8113a	0.11331411
144	0x3d1d2fc3	0.038375627
145	0x3e240129	0.16016068
146	0xba180757	-0.00057994336
147	0x3e2ce269	0.16883244
148	0xbcb4b924	-0.022060938
149	0xbe5f724c	-0.21820945
150	0xbe94072a	-0.28911716
151	0xbe065571	-0.13118531
152	0xbedc6ae1	-0.43050292
153	0x3d80debb	0.062924825
154	0xbec5c58e	-0.38627285
155	0x3d041dec	0.0322551
156	0xbe21e94e	-0.15811655
157	0x3e852a17	0.26008675
158	0x3ed4e237	0.41578838
159	0x3da1dc1e	0.07903312
160	0xbf10f87c	-0.5662916
161	0xbe3d2965	-0.18472822
162	0xbed1b6a5	-0.4095966
163	0xbdc46385	-0.09589294
164	0xbeaf8b0f	-0.3428578
165	0xbc5800f9	-0.013183826
166	0xbeff951a	-0.49918443
167	0x3dd89ee7	0.10577183
168	0x3ec7b499	0.39004973
169	0xbcd9d4a9	-0.026590662
170	0x3ec75bdb	0.38937268
171	0x3e35bdbc	0.17748159
172	0x3eec156a	0.46110088
173	0xbe3dc006	-0.18530282
174	0x3eafc180	0.34327316
175	0x3e80256c	0.2502855
176	0xbef4c5e7	-0.47807238
177	0x3ed8aa4b	0.42317423
178	0xbe3e8554	-0.18605548
179	0xbed5f4a2	-0.41788203
180	0xbe9ad6aa	-0.302419
181	0x3e620230	0.22071147
182	0xbe94bc48	-0.29049897
183	0xbd11c932	-0.035592265
184	0x3eb5a545	0.35477653
185	0xbe9008c6	-0.28131694
186	0x3da0a482	0.078438774
187	0x3c785443	0.015156808
188	0xbee7b9bd	-0.45258895
189	0x3dbfab98	0.09358901
190	0xbdfe1250	-0.124058366
191	0xbe697add	-0.22800775
192	0x3eb1f42d	0.34756604
193	0x3e954207	0.29151937
194	0x3e897c8a	0.26852828
195	0x3e106d69	0.14104237
196	0xbed06d72	-0.407085
197	0x3e2f7362	0.17133859
198	0x3dd16e36	0.10226099
199	0xbef662f5	-0.48122373
200	0xbe908801	-0.28228763
201	0xbd73de31	-0.05953807
202	0x3d7ed752	0.062217064
203	0xbe79c891	-0.24392916
204	0x3ebe2394	0.3713652
205	0xbdefa4d0	-0.11701357
206	0x3e81b938	0.25336623
207	0x3e060dab	0.13091151
208	0x3e94db1f	0.29073426
209	0xbe67a9d7	-0.22623383
210	0x3e35bc19	0.17747535
211	0x3eae5db2	0.3405586
212	0xbe591ff0	-0.2120359
213	0xbd2c850a	-0.042119063
214	0xbe59ff38	-0.21288764
215	0x3b9a2ca2	0.0047050277
216	0xbeaffb16	-0.3437125
217	0x3dc8e1ea	0.09808715
218	0x3e5c793e	0.21530625
219	0x3e02556d	0.127279
220	0xbe52b1ca	-0.20575634
221	0x3e327394	0.17426902
222	0xbd0b083e	-0.033943407
223	0xbeafcf46	-0.34337825
224	0x3e6d11b0	0.23151278
225	0x3e2ea60d	0.17055531
226	0x3bd3cc14	0.006463537
227	0xbedd7252	-0.43251282
228	0xbe9fa0f5	-0.31177488
229	0x3e0f9153	0.1402028
230	0xbecb2279	-0.39674738
231	0xbe054a4e	-0.13016626
232	0x3ea82ea8	0.32848096
233	0xbeaa2671	-0.33232453
234	0x3e892c9e	0.26791853
235	0x3e62505f	0.22100972
236	0x3d89e3ef	0.06732928
237	0x3dae59ac	0.08513197
238	0x3e8013a4	0.25014985
239	0x3e7d64d6	0.24745497
240	0xbcb39053	-0.021919405
241	0x3e20274c	0.1563999
242	0x3e00cbd8	0.1257776
243	0x3e9e9a38	0.30977035
244	0x3e8363d4	0.256621
245	0xbe19f270	-0.15033889
246	0xbe99a9a9	-0.30012253
247	0x3dad8f42	0.0847459
248	0xbe31b736	-0.17355046
249	0xbe2237af	-0.15841554
250	0xbed3fc3a	-0.4140337
251	0x3e245cfa	0.16051093
252	0xbedba46d	-0.42898884
253	0x3d0701b0	0.032960594
254	0x3eb6f9db	0.357375
255	0xbe9c4819	-0.30523756

fc.0.bias f4 [37]
0	0x3d8de06b	0.0692757
1	0x3e132a5b	0.14371626
2	0xbdbfb849	-0.093613215
3	0xbd193dc8	-0.037412435
4	0xbda77de3	-0.08178308
5	0x3e2d6ca9	0.16935982
6	0x3db90668	0.09034425
7	0x3e77802a	0.24169984
8	0xbd9cbd60	-0.07653308
9	0x3e76216f	0.24036191
10	0x3ddd29b3	0.10798969
11	0xbe4ccb94	-0.19999534
12	0xbd58def1	-0.05294699
13	0xbc03eee0	-0.008052558
14	0xbd1f5176	-0.038896047
15	0xbd8a51bd	-0.067538716
16	0xbdf8c516	-0.12146966
17	0x3cf0e3c9	0.029405491
18	0xbcb0a475	-0.021562794
19	0xbdc6b780	-0.097029686
20	0xbcbdc404	-0.023164757
21	0xbd8d2582	-0.0689192
22	0xbd2e3615	-0.042532045
23	0xbc0fd88d	-0.008779657
24	0xbd8e2b6e	-0.06941877
25	0x3dd75b79	0.10515494
26	0x3daeb7b8	0.08531135
27	0xbe424778	-0.18972576
28	0x3c17f878	0.009275548
29	0xbc84f789	-0.016231315
30	0xbd71165d	-0.058859218
31	0x3e04e620	0.1297841
32	0xbd7f7c2c	-0.06237428
33	0x3a9d43da	0.0011998371
34	0x3d9e1c8a	0.07720287
35	0x3d5c18a6	0.053734444
36	0xbdd746bf	-0.105115406

33 f4 [16, 1, 3, 3]
0	0xbf18fef6	-0.5976404
1	0x3e0bb864	0.13644558
2	0xbfdb6804	-1.7141118
3	0xbfa3e908	-1.280549
4	0xbe5529d7	-0.20816742
5	0x3d4b4285	0.049623985
6	0xbee645c7	-0.4497511
7	0x3fa3355f	1.2750663
8	0x3e12853c	0.14308637
9	0x401cd6e8	2.4506168
10	0xbeb68c80	-0.35654068
11	0x3da5e02c	0.08099398
12	0xbfbc0011	-1.468752
13	0xbf96b79b	-1.1774782
14	0xbfc98764	-1.5744443
15	0xbf4c57c2	-0.7982141
16	0x3f479f8c	0.77977824
17	0x3f88167b	1.063186
18	0xbf74ce59	-0.9562736
19	0xbf51554f	-0.81770796
20	0x3ee6cd23	0.45078382
21	0x3fcd1760	1.6022758
22	0xbdb1f265	-0.08688811
23	0x3f33b6b1	0.7020064
24	0x3e8dfb0d	0.277306
25	0x3c9cdc3d	0.019147987
26	0x3f7048be	0.93860996
27	0xbebc8560	-0.36820507
28	0xbeb4e632	-0.35331875
29	0xbed39967	-0.41327974
30	0xbe98b0a2	-0.2982226
31	0x3e6b8c22	0.23002675
32	0xbedf773c	-0.43645656
33	0xbf3b5461	-0.73175627
34	0xbf601fa3	-0.87548274
35	0xbeeff89a	-0.46869355
36	0xbf93bd03	-1.1542057
37	0x40115c5e	2.2712626
38	0x3fb9383c	1.4470286
39	0x3f4836f5	0.7820886
40	0xbd569e6b	-0.052397173
41	0xbf21bf4b	-0.63182515
42	0x3ef5ef6f	0.48034236
43	0xc00cd9e9	-2.2008002
44	0xbf4ce97f	-0.80043787
45	0xbf08acd9	-0.53388745
46	0x3f3a33a9	0.7273508
47	0x3f880a64	1.0628171
48	0xbf8664ae	-1.0499475
49	0xbb9f283b	-0.004857091
50	0x3ead944f	0.33902213
51	0x3fd9aa0a	1.7005017
52	0x3f526057	0.8217825
53	0xbf0919a0	-0.53554726
54	0x3f392b2d	0.72331506
55	0xbf727c53	-0.94720954
56	0xbc23be36	-0.00999408
57	0xbf995b00	-1.1980896
58	0xbfbad311	-1.4595662
59	0xbef6be07	-0.48191854
60	0x3f9f008e	1.2422044
61	0x3f96292d	1.1731316
62	0xbf51768f	-0.8182153
63	0x3f37a1f5	0.717315
64	0x3f048ec7	0.5178036
65	0x3dd3d17a	0.10342689
66	0x3ebd29c3	0.36945924
67	0xbe7b02e8	-0.24512827
68	0x3f36725b	0.7126824
69	0x3fe5e8b9	1.7961646
70	0xbf793f46	-0.9736217
71	0xbefbf819	-0.4921272
72	0x3e4b24cf	0.1983826
73	0x3fa65634	1.2995057
74	0x3f3b5ea6	0.731913
75	0x3fc87acd	1.5662476
76	0x3f27d628	0.6556115
77	0xbf9912aa	-1.1958821
78	0xbf23e6c6	-0.6402401
79	0xbf8e05fe	-1.1095579
80	0xbfc8f205	-1.5698858
81	0x3f965556	1.1744792
82	0x3fc21e62	1.5165522
83	0xbff7b089	-1.9350749
84	0xbe2d74b9	-0.16939057
85	0x3e80523b	0.25062737
86	0xbedb52ff	-0.42836758
87	0xbf859504	-1.0436101
88	0x3eed9764	0.46404564
89	0xbf8f201e	-1.1181676
90	0x3f2c4ece	0.67307746
91	0x3f1a2547	0.6021313
92	0x3f2a5570	0.6653662
93	0x3f314a9d	0.69254476
94	0xbf4c54ab	-0.79816693
95	0xbf6b114d	-0.91823274
96	0x3f3606fe	0.7110442
97	0x3e869986	0.26289004
98	0xbfc7bfa8	-1.5605364
99	0x3e01dc00	0.1268158
100	0x3fb7325d	1.4312245
101	0x3f85a110	1.0439777
102	0xbf90d4af	-1.1314906
103	0xbe99dc9d	-0.30051127
104	0xbef96199	-0.48707274
105	0xbf08b56a	-0.53401816
106	0xbf70607a	-0.9389721
107	0xbee9c385	-0.45656982
108	0xbe34d3e5	-0.17658956
109	0xbc2a4eb0	-0.010394737
110	0xbf0e89c4	-0.55678964
111	0x3f61173d	0.87926084
112	0xbf94e99a	-1.163379
113	0x3fad76c3	1.3551868
114	0x3fb5e4ae	1.4210413
115	0xbffcec1d	-1.9759556
116	0xbf7f4bde	-0.9972514
117	0x3e17f26e	0.14838573
118	0x3f035810	0.5130625
119	0x3df5ef65	0.120085515
120	0x3f3559cc	0.70840144
121	0x3d6d8c96	0.0579954
122	0xbf4f129a	-0.8088776
123	0x3f8a8e45	1.0824667
124	0xc012c950	-2.2935371
125	0xbf7fb381	-0.99883276
126	0x3cfd406a	0.030914504
127	0xbf9c08c9	-1.2190181
128	0xbf582f72	-0.84447396
129	0xbf4a704e	-0.79077613
130	0xbf0b3479	-0.5437694
131	0x3e7b9484	0.24568373
132	0xbf5f8ab2	-0.8732101
133	0x3e62b065	0.22137602
134	0x3f9ee93b	1.2414926
135	0x3ecc72b5	0.39931265
136	0x3d23bcb5	0.039974887
137	0xbf196587	-0.59920543
138	0x3ecd4900	0.40094757
139	0x3ee2e2cb	0.44313654
140	0x3f177775	0.5916665
141	0x3ea21af6	0.31661195
142	0x3f3b7cde	0.7323741
143	0x3f0cc4ea	0.54987967

34 f4 [16]
0	0xbf0e342f	-0.55548376
1	0xbe174e88	-0.14776051
2	0x3f044d0c	0.51680064
3	0xbf3a6b80	-0.7282028
4	0x3c64c7b0	0.013963625
5	0x3f160a1d	0.5860918
6	0xbf09929f	-0.5373935
7	0x3eda5be8	0.42648244
8	0xbdbcb32e	-0.09213863
9	0x3cce1140	0.02515471
10	0x3e14b9c5	0.1452399
11	0xbeb36538	-0.3503816
12	0xbe07fc8d	-0.13279934
13	0xbeb2dece	-0.3493561
14	0xbedc0b59	-0.42977408
15	0x3f215090	0.63013554

36 f4 [32, 16, 3, 3]
0	0xbf9053dd	-1.1275593
1	0xbf430bad	-0.7618969
2	0xbebf5028	-0.37365842
3	0xbf9aa88d	-1.2082688
4	0x3c482042	0.012214722
5	0x3e10d6d4	0.1414445
6	0xbf98e84f	-1.1945895
7	0xbeb76fb3	-0.35827407
8	0xbd1af4ed	-0.037831236
9	0xbeb994cd	-0.36246338
10	0x3f135a5e	0.57559764
11	0x3e390724	0.1806913
12	0x3d0fbb50	0.035090744
13	0x3e52035a	0.20509091
14	0x3e0bbcef	0.13646291
15	0xbf02f392	-0.5115291
16	0x3c9ed46f	0.019388406
17	0x3b4e685c	0.0031495309
18	0x3f5d2077	0.8637766
19	0x3d622cdc	0.055218562
20	0x3f5c503b	0.8605992
21	0x3d8709bf	0.06593656
22	0x3e54fb5f	0.20799015
23	0x3f43293d	0.762348
24	0x3f7ffad0	0.99992085
25	0x3e2ad4fa	0.16682807
26	0x3f243506	0.6414341
27	0x3d4bfa2d	0.049799133
28	0xbf98d6b1	-1.1940519
29	0x3e8dade9	0.27671745
30	0x3f899a17	1.075015
31	0x3f144a35	0.5792573
32	0x3ee76ed5	0.45201746
33	0xbdfbb6a5	-0.12290696
34	0xbf5bccf8	-0.8585963
35	0xbe1bd843	-0.15219216
36	0xbf82de3c	-1.022407
37	0xbe9e6c17	-0.3094184
38	0xbfb1868c	-1.3869185
39	0xbf0aab52	-0.54167664
40	0xbefdf715	-0.4960257
41	0xbe8695fe	-0.2628631
42	0xbf9c31d6	-1.2202709
43	0xbf85e892	-1.04616
44	0xbf327a97	-0.6971831
45	0xbe94a7b5	-0.290342
46	0xbf3edf00	-0.7455902
47	0xbe57a3ce	-0.2105858
48	0x3df13739	0.11778111
49	0xbf0a1220	-0.53933907
50	0x3e313f1c	0.1730923
51	0xbe87308f	-0.26404235
52	0xbeec2073	-0.46118507
53	0x3e492d4b	0.19646184
54	0x3f38b001	0.7214356
55	0xbea25bf9	-0.31710795
56	0xbd926e9a	-0.07150002
57	0x3d3163f9	0.043308232
58	0x3cc7df8a	0.024398584
59	0x3e31479b	0.17312472
60	0x3f29b8df	0.66297716
61	0x3ef1b4fc	0.47208393
62	0x3dc83b0d	0.09776888
63	0xbdbc5ffe	-0.091979966
64	0x3e89c557	0.2690837
65	0x3f145a65	0.5795043
66	0xbe4587e6	-0.19290122
67	0x3e2b0a1f	0.1670308
68	0x3e3f17da	0.18661442
69	0xbe5ab28f	-0.21357177
70	0x3f142688	0.57871294
71	0x3ee09bc6	0.43868846
72	0x3f4cfe1c	0.8007524
73	0x3fd759c3	1.6824268
74	0x3fa15550	1.260416
75	0x3d88617b	0.06659218
76	0x3f9961e0	1.1982994
77	0x3f45d46f	0.7727727
78	0x3f147306	0.5798801
79	0x3f8d2542	1.1026995
80	0x3f90438e	1.1270616
81	0x3ee6cbd0	0.45077372
82	0xbf0bcee0	-0.5461254
83	0xbe44cb19	-0.192181
84	0xbe11df10	-0.14245248
85	0xbfeffb16	-1.87485
86	0xbeaef78d	-0.3417324
87	0x3ecfbb71	0.40572694
88	0x3d70108b	0.058609527
89	0x3ee5f413	0.44912776
90	0xbf747939	-0.9549747
91	0xbef1c3f7	-0.47219822
92	0x3e02ab30	0.12760615
93	0x3c62c0a0	0.013839871
94	0xbe828f62	-0.25500017
95	0xbf44b36e	-0.7683629
96	0xbf47a49b	-0.77985543
97	0x3ded87b7	0.11598151
98	0x3ca62f22	0.020286147
99	0x3f67fed5	0.9062322
100	0xbcf0d748	-0.02939953
101	0x3f1cc02d	0.61230737
102	0x3e25a6d5	0.16176923
103	0xbdff3b4d	-0.124624826
104	0xbefa0684	-0.48833096
105	0x3fd18d5a	1.6371262
106	0x3e656cc6	0.22404775
107	0x3ec95d09	0.39328793
108	0x3f51ff62	0.8203031
109	0xbed52ef7	-0.41637394
110	0x3f060973	0.5235817
111	0x3e81b563	0.253337
112	0xbf22d176	-0.6360086
113	0xbf1be5b8	-0.608974
114	0x3f0ad134	0.5422547
115	0xbed4b81e	-0.4154672
116	0xb998b002	-0.00029122835
117	0xbea7bcc6	-0.3276121
118	0x3f1b6d00	0.60713196
119	0x3e18adc0	0.1491003
120	0x3e791684	0.24324995
121	0xbf3b4d04	-0.7316439
122	0xbea9582c	-0.33075082
123	0x3e61d8bc	0.22055334
124	0x3f0453d5	0.5169042
125	0xbe90af4c	-0.2825874
126	0x3f021753	0.5081684
127	0xbeb2a67b	-0.3489264
128	0xbec88a90	-0.39168215
129	0x3f9c8616	1.222842
130	0xbf3a89f2	-0.7286674
131	0xbecca77e	-0.39971536
132	0x3ec82d56	0.3909709
133	0xbe826fb3	-0.25475845
134	0x3f1e4624	0.61825776
135	0xbe64e3d0	-0.22352529
136	0xbd8671f0	-0.065647006
137	0xbdfb1641	-0.12260104
138	0xbe020c1d	-0.12699933
139	0xbfa71da8	-1.3055925
140	0xbf6b322e	-0.91873443
141	0x3e15514b	0.14581792
142	0xbf720b5f	-0.945486
143	0x3e88ba5d	0.26704684
144	0x3f6502de	0.894575
145	0xbd47bfc5	-0.04876687
146	0x3e2ef785	0.17086609
147	0x3f0aba70	0.5419073
148	0x3f2fa274	0.6860726
149	0x3be5793d	0.007002978
150	0xbe184c32	-0.14872816
151	0x3d62db3b	0.055384856
152	0x3d2e23f2	0.04251475
153	0xbd94a969	-0.07258875
154	0x3d909132	0.07058944
155	0x3e628122	0.22119573
156	0x3e006bf4	0.12541181
157	0xbe80b223	-0.25135908
158	0xbf0ca8a6	-0.5494484
159	0xbe8f33b6	-0.2796914
160	0xbea82b49	-0.32845524
161	0xbf47f7e1	-0.7811261
162	0xbeab1e8a	-0.33421737
163	0xbe13b637	-0.14424978
164	0x3dff9f59	0.12481565
165	0x3ee51a58	0.4474666
166	0xba3aaf29	-0.0007121438
167	0x3cfde58e	0.03099325
168	0x3e806b0a	0.25081664
169	0x3ea34118	0.318856
170	0x3d951928	0.07280189
171	0x3d7718d5	0.060326416
172	0x3f81d70b	1.0143751
173	0x3f28621b	0.657747
174	0xbe09776a	-0.13424459
175	0x3ebc4a04	0.3677522
176	0x3f124a0b	0.5714423
177	0x3f86e87e	1.0539701
178	0x3f759c9a	0.9594208
179	0x3f4d9fb9	0.8032184
180	0xbf1a6861	-0.6031552
181	0xbea16636	-0.31523293
182	0xbe0f72d6	-0.1400865
183	0xbf23b59e	-0.63949
184	0xbdc334c8	-0.095315516
185	0x3ec7b02a	0.3900159
186	0xbded1440	-0.11576128
187	0x3ea99515	0.33121553
188	0x3eba9cbe	0.3644771
189	0x3e0e6f56	0.13909659
190	0x3d87123d	0.065952756
191	0xbd90baaa	-0.07066853
192	0xbf0e14a5	-0.5550025
193	0xbe16f4f2	-0.14741877
194	0xbf45602c	-0.7709987
195	0xbd0c4cab	-0.034252804
196	0xbd57a84d	-0.05265074
197	0x3e80a824	0.2512828
198	0x3f00f24d	0.5036972
199	0x3e8434f2	0.25821644
200	0x3f226088	0.63428545
201	0xbf04dd3a	-0.51900065
202	0xbe8faa9b	-0.2805985
203	0x3f3a1e31	0.7270232
204	0x3ecb09ee	0.39656013
205	0x3e07d158	0.13263452
206	0x3f4e46c1	0.8057671
207	0x3dab5299	0.08365364
208	0xbd917ce2	-0.07103898
209	0x3d0bd065	0.034134287
210	0x3e1a4aeb	0.15067641
211	0x3f5997e8	0.84997416
212	0xbe6e0fba	-0.23248187
213	0x3e95acb9	0.2923334
214	0x3d54ef75	0.051986177
215	0xbee1014d	-0.43946305
216	0x3f833b59	1.0252486
217	0x3e5c0ef1	0.21490075
218	0xbeaebbf4	-0.34127772
219	0x3fa174d2	1.2613776
220	0x3f8bd7c7	1.0925225
221	0xbd295cea	-0.041348375
222	0x3f565471	0.837226
223	0x3d8d14b3	0.06888714
224	0x3d053ba7	0.032527592
225	0xbf16a694	-0.5884793
226	0xbcd62657	-0.026141329
227	0x3e20d19e	0.15704963
228	0xbf2a81dc	-0.666044
229	0xbe472431	-0.194474
230	0x3e4b76b3	0.19869499
231	0xbf16a058	-0.58838415
232	0xbe45bac5	-0.19309528
233	0xbe632121	-0.22180606
234	0xbef802c8	-0.48439622
235	0x3dc72529	0.097238846
236	0x3ba0a922	0.0049029747
237	0xbd12bb99	-0.03582344
238	0xbd589081	-0.052872185
239	0x3bb3dffb	0.005489347
240	0x3f39d3a5	0.7258857
241	0xbe2b0fae	-0.167052
242	0x3ee232a4	0.4417926
243	0xbdba0158	-0.090822875
244	0x3f5b861d	0.85751516
245	0xbeb5b680	-0.354908
246	0x3f170474	0.5899117
247	0xbe4799b1	-0.19492222
248	0xbea9cbe0	-0.33163357
249	0xbea72d6b	-0.3265184
250	0xbd940b5d	-0.0722873
251	0xbed6ada5	-0.41929355
252	0xbedd33d2	-0.43203598
253	0xbe85f94e	-0.26166767
254	0xbe615689	-0.22005667
255	0xbf19168d	-0.59800035

37 f4 [32]
0	0x3feaff61	1.8359185
1	0x3f8d29d8	1.1028395
2	0x3f7b1aa6	0.9808754
3	0x402e9e78	2.7284222
4	0x3f9eb3d6	1.2398632
5	0x3fe2ea85	1.772782
6	0x3f6809dc	0.90640044
7	0x3fcab46b	1.5836309
8	0x40610f6c	3.5165663
9	0xbeb51c70	-0.3537326
10	0x4017d8d0	2.3726082
11	0x40161f9a	2.3456788
12	0x3faed01e	1.3657262
13	0x401f0c4f	2.4851263
14	0x402cea36	2.701795
15	0x3fa1b758	1.2634077
16	0x3f87e505	1.0616766
17	0x3f790e5c	0.97287536
18	0x404295d8	3.0403957
19	0x3fdab10b	1.7085279
20	0x3fa76a06	1.3079231
21	0x4012fc2e	2.2966418
22	0x3f9400e9	1.1562778
23	0x3ff7ddb0	1.9364529
24	0x3f9e9ee2	1.2392237
25	0x3e53de36	0.20690235
26	0x3fc1e7b1	1.5148832
27	0x4023b251	2.5577586
28	0x3fdb5ff9	1.7138664
29	0x3f9442d9	1.15829
30	0x3f78754c	0.9705398
31	0x3ff0013a	1.8750374
