resources/imgreco/stage_ocr/chars_end.onnx (onnx, 7291 bytes, 6 tensors)

fc.1.weight f4 [37, 32]
0	0xbe0103d0	-0.1259911
1	0xbefb28d5	-0.4905459
2	0x3f0e07bd	0.5548056
3	0x3edc2b2f	0.43001696
4	0x3e9e494d	0.309153
5	0x3f03adfa	0.5143734
6	0xbf3bfdd8	-0.7343421
7	0xbf3ffa1d	-0.7499102
8	0x3e88fedc	0.26756942
9	0x3ef1864c	0.47172773
10	0xbf211355	-0.62920123
11	0xbf6bf331	-0.92167956
12	0x3e3ee790	0.18643022
13	0x3f10a55a	0.56502306
14	0xbf059cd8	-0.5219245
15	0xbf139d0c	-0.5766151
16	0xbeacc523	-0.33744153
17	0xbea09eb7	-0.3137109
18	0xbf1b177c	-0.6058271
19	0xbf25fa62	-0.6483518
20	0x3d27488d	0.040840674
21	0x3d5d9b1c	0.054103002
22	0xbefe0460	-0.49612713
23	0xbf092082	-0.5356523
24	0x3ec3fac1	0.38277248
25	0x3f1620c3	0.5864374
26	0xbe69aab0	-0.22819018
27	0x3e063fdd	0.131103
28	0xbf10013a	-0.5625187
29	0xbf017893	-0.50574607
30	0xbf5ad734	-0.85484624
31	0xbf337d95	-0.701135
32	0xbea6dc3d	-0.32589903
33	0xbd76949a	-0.06020031
34	0x3ea42d51	0.32065824
35	0xbf39f154	-0.7263386
36	0x3db70138	0.08935779
37	0x3daf6c76	0.08565609
38	0xbec310b8	-0.38098693
39	0x3ea00771	0.31255677
40	0x3ebe2581	0.37137988
41	0xbf25b928	-0.6473565
42	0xbf0911aa	-0.5354258
43	0x3ec47bd8	0.38375735
44	0x3e81efb3	0.25378188
45	0xbf2ac734	-0.6671021
46	0xbf29e9ed	-0.6637257
47	0x3ea0e529	0.31424835
48	0xbf1516b6	-0.5823778
49	0x3ee6e0e4	0.45093453
50	0x3e3f4569	0.18678822
51	0x3e8057b0	0.250669
52	0xbf216911	-0.63050944
53	0x3ef6c117	0.4819419
54	0x3e571981	0.21005823
55	0xbd030bc8	-0.031993657
56	0xbd8c5871	-0.06852806
57	0x3eb764f5	0.35819212
58	0xbe48bc00	-0.19602966
59	0xbefee8a8	-0.49786878
60	0xbea2bdcc	-0.3178543
61	0x3e8669e3	0.2625266
62	0x3e4ec092	0.20190647
63	0x3e28b65f	0.16475819
64	0x3e8994b5	0.26871267
65	0x3ecc97d4	0.39959586
66	0x3e9906ae	0.2988791
67	0x3eb977c5	0.3622419
68	0x3e648f3e	0.22320268
69	0xbf486554	-0.78279614
70	0x3d4d5fe7	0.050140288
71	0xbf484a16	-0.78238046
72	0x3e89b1ef	0.26893565
73	0xbf2a5263	-0.6653196
74	0xbf42a660	-0.7603512
75	0xbf6bdb30	-0.9213133
76	0xbe0682ab	-0.13135783
77	0xbf3614ae	-0.71125305
78	0xbf24b1aa	-0.64333594
79	0xbf345f2e	-0.7045773
80	0x3e9b4d2a	0.3033231
81	0xbf459a62	-0.77188694
82	0x3ea98220	0.3310709
83	0xbf47fafd	-0.7811735
84	0x3eed684a	0.4636863
85	0xbf0d113f	-0.5510444
86	0x3f002d1a	0.5006882
87	0xbf173cd0	-0.5907717
88	0xbc9bf501	-0.019037725
89	0xbf1e5643	-0.61850375
90	0xbd8aca68	-0.06776887
91	0xbf1f15b6	-0.62142503
92	0x3e9f5d01	0.31125644
93	0xbf0aa519	-0.5415817
94	0x3ea81f9a	0.3283661
95	0xbf021e3d	-0.5082739
96	0xbf556bb7	-0.83367485
97	0x3e430a05	0.19046791
98	0xbe951fde	-0.29125875
99	0xbdb2a687	-0.08723169
100	0x3d17ac95	0.03702982
101	0xbc35b30c	-0.011090051
102	0x3edebae0	0.4350195
103	0x3c81cc93	0.015844619
104	0x3e14b3e2	0.14521745
105	0xbdc06338	-0.093939245
106	0x3ef4657f	0.47733685
107	0x3e9360ce	0.28784794
108	0x3e308646	0.17238721
109	0xbecddb2e	-0.40206283
110	0x3ebe7a1c	0.37202537
111	0x3ec30714	0.38091338
112	0xbf66d44c	-0.9016769
113	0x3ebaf472	0.36514622
114	0xbf6a9112	-0.9162761
115	0xbf32d279	-0.69852406
116	0xbe176ac3	-0.1478682
117	0x3ebb201f	0.36547944
118	0xbf24faca	-0.64445174
119	0xbf4c6748	-0.79845095
120	0x3ea925d8	0.33036685
121	0xbd8c40e4	-0.068483144
122	0xbf17f27a	-0.59354365
123	0x3d10e885	0.035377998
124	0xbf7e13a2	-0.9924871
125	0x3ebca63e	0.36845583
126	0xbf7528b0	-0.9576521
127	0xbf06d0c7	-0.5266232
128	0xbf360964	-0.7110808
129	0x3e540163	0.20703654
130	0x3cc45878	0.023967966
131	0x3e1b5b01	0.15171434
132	0x3e101347	0.14069854
133	0xbf4b2824	-0.79358125
134	0x3e449196	0.19196162
135	0xbf0b6ae4	-0.5445998
136	0x3e32da0d	0.17465992
137	0x3e9967ee	0.29962105
138	0xbe543735	-0.20724185
139	0x3df0b5f5	0.117534555
140	0x3e6d89ce	0.231971
141	0xbdae092c	-0.08497843
142	0xbdd58347	-0.1042543
143	0x3ddb70d3	0.10714879
144	0xbf862e5a	-1.0482895
145	0x3d138ae8	0.036021143
146	0xbec57d2b	-0.38572058
147	0x3e84fdae	0.25974792
148	0xbd408c65	-0.04700889
149	0xbeac17b9	-0.3361185
150	0x3e8ff22a	0.28114444
151	0xbe383cfe	-0.17992017
152	0x3ed1128c	0.40834463
153	0xbf2f31ef	-0.6843557
154	0x3e80ac07	0.25131246
155	0xbefbef7d	-0.49206153
156	0xbf8d2e35	-1.1029726
157	0x3e9f659f	0.31132218
158	0xbf596b13	-0.8492901
159	0x3ec5ca29	0.38630798
160	0x3ed01d25	0.40647236
161	0x3e3f70ab	0.18695323
162	0xbf1792f1	-0.5920859
163	0x3de32a70	0.11092079
164	0x3e51f0ac	0.20501965
165	0xbe72107d	-0.23639102
166	0x3eb15a20	0.34639072
167	0xbdd83bef	-0.105583064
168	0x3e57fae5	0.21091802
169	0xbc8305a1	-0.015993895
170	0x3e9e2fcd	0.30895844
171	0x3dc77004	0.09738162
172	0xbde92889	-0.113846846
173	0xbf0ea678	-0.5572276
174	0x3ea31031	0.3184829
175	0xbd68975a	-0.056784965
176	0xbf5454df	-0.82942003
177	0x3eafebeb	0.3435968
178	0xbee0e142	-0.43921858
179	0x3eab80bf	0.33496663
180	0xbf1a9a8f	-0.6039209
181	0xbdf03337	-0.117285185
182	0x3db4e510	0.08832753
183	0x3db42a8c	0.08797178
184	0xbf4a1a72	-0.789466
185	0xbf2b85fa	-0.67001307
186	0x3ecf83a2	0.40530115
187	0xbe8bec73	-0.27328834
188	0xbf7358ae	-0.9505719
189	0x3ed6696e	0.4187731
190	0xbf4684f9	-0.7754665
191	0x3ed9b5a8	0.42521405
192	0xbf611807	-0.8792729
193	0x3db2dd9d	0.08733676
194	0xbf48e538	-0.7847476
195	0x3d181c06	0.0371361
196	0x3e6234b9	0.22090425
197	0xbf0a2351	-0.5396014
198	0x3bfd10bd	0.0077229426
199	0x3dd25c04	0.10271457
200	0x3e436e0a	0.19084945
201	0xbf48b694	-0.7840359
202	0xbe7699cf	-0.24082111
203	0x3e879955	0.2648417
204	0x3e0f980d	0.14022847
205	0x3e6a93c5	0.22907932
206	0x3d991438	0.074745595
207	0x3e2109f3	0.15726452
208	0x3e6bc2d5	0.23023541
209	0xbf691829	-0.9105249
210	0xbed74cf5	-0.420509
211	0x3eb4f135	0.35340276
212	0x3ecfbb2a	0.40572482
213	0xbf5344a0	-0.8252659
214	0x3dda0be6	0.10646801
215	0x3ed7b5e5	0.42130962
216	0x3e689710	0.22713876
217	0x3eaa0945	0.33210197
218	0x3e93c745	0.28862968
219	0x3dbed580	0.09318066
220	0xbead4098	-0.33838344
221	0xbf47ec27	-0.78094715
222	0xbf719f80	-0.94384
223	0x3eac187f	0.3361244
224	0xbc93ad2a	-0.018026907
225	0x3ea14cbd	0.3150386
226	0xbf0423b5	-0.51616985
227	0x3ce2b616	0.027674716
228	0x3e920595	0.28519884
229	0xbf326c38	-0.6969638
230	0x3e0b248c	0.1358816
231	0x3de7c8ad	0.11317573
232	0x3ed34775	0.41265455
233	0xbf205e24	-0.6264365
234	0x3e8a18f8	0.26972175
235	0x3ea38a15	0.31941286
236	0x3e234e24	0.15947777
237	0xbf111fc5	-0.566891
238	0x3e883f3b	0.2661074
239	0x3e5fa4eb	0.21840255
240	0xbf6eef7e	-0.93334186
241	0xbf681196	-0.90651834
242	0x3e14ec86	0.14543352
243	0x3e8fe114	0.28101408
244	0xbf243262	-0.6413938
245	0xbf211035	-0.62915355
246	0x3de61531	0.11234511
247	0x3ea84198	0.32862544
248	0xbf0e78c7	-0.5565304
249	0xbf1fa88c	-0.6236656
250	0x3db21f3e	0.08697365
251	0x3d4e51be	0.050370924
252	0xbf585869	-0.84509903
253	0xbf130051	-0.5742236
254	0x3de6c9a3	0.11268928
255	0x3e9f3fb8	0.311033

fc.1.bias f4 [37]
0	0x3f1ebb7b	0.6200482
1	0xbf3d9099	-0.74048764
2	0x3eca6e2c	0.3953718
3	0x3e57745f	0.21040486
4	0x3f1bc4bc	0.6084707
5	0xbdd9e993	-0.10640254
6	0x3ea01d6e	0.31272453
7	0x3deca010	0.11553967
8	0x3f1d233b	0.6138188
9	0x3e7ff64f	0.24996303
10	0xbe54a8ed	-0.20767565
11	0xbf1d1c14	-0.6137097
12	0xbf296574	-0.6617043
13	0x3f2ac667	0.6670899
14	0xbf51f85b	-0.82019585
15	0x3f273b3c	0.6532476
16	0x3f1a7a97	0.6034331
17	0xbe957a3e	-0.29194826
18	0xbef37d78	-0.47556663
19	0x3f141b9a	0.57854617
20	0x3f2565f6	0.64608705
21	0xbf11469a	-0.56748354
22	0x3f01efaf	0.50756353
23	0xbf0379cc	-0.5135772
24	0xbf22c373	-0.6357948
25	0xbe6061d2	-0.21912315
26	0xbea0a5d6	-0.31376523
27	0xbe76a50f	-0.24086402
28	0xbf381235	-0.7190278
29	0x3f3c6f34	0.7360718
30	0xbd14e9b2	-0.03635568
31	0xbe535fe4	-0.20642048
32	0xbf1af485	-0.6052936
33	0x3e2153e8	0.15754664
34	0xbe62a1fd	-0.22132106
35	0x3e64af8c	0.22332591
36	0x3e6301b7	0.22168623

34 f4 [4, 1, 3, 3]
0	0x3ee3e58c	0.44511068
1	0x3fc50ea8	1.5395098
2	0x3fbad982	1.4597628
3	0xbebf8235	-0.37404028
4	0xbe4aebec	-0.1981656
5	0xbc408241	-0.011749805
6	0xbfc8beaf	-1.5683192
7	0xbfbc2054	-1.4697366
8	0x3bd7bf9d	0.0065841214
9	0xbf6e8ed9	-0.9318672
10	0xbe6016f6	-0.21883759
11	0x3f55a429	0.83453614
12	0x3ebd7b64	0.37008202
13	0x3e829924	0.25507462
14	0x3f957b31	1.167822
15	0x3eeb8901	0.46002963
16	0xbf1bd432	-0.6087066
17	0x3f1e990f	0.619523
18	0x3fca8435	1.5821596
19	0x3ebcc73b	0.3687075
20	0x3fa2ecb1	1.2728482
21	0x3e8f3537	0.27970287
22	0xbe6e0ed6	-0.23247847
23	0xbf6031c4	-0.87575936
24	0xbf906649	-1.1281215
25	0xbfa42ab3	-1.2825531
26	0xbe966e9c	-0.29381263
27	0x3feb3f27	1.8378648
28	0xbf1da235	-0.61575633
29	0x3eab696f	0.33478877
30	0x3f30b9cb	0.690335
31	0xbe588d58	-0.21147668
32	0x3c6e0e56	0.014529785
33	0x3e1b35f2	0.15157297
34	0xbf10c6e2	-0.5655347
35	0xbf9d6549	-1.2296535

35 f4 [4]
0	0xbde2b614	-0.11069885
1	0x3f2f2b0c	0.6842506
2	0xbe1e585a	-0.15463391
3	0x3e1a3373	0.15058689

37 f4 [8, 4, 3, 3]
0	0xbd9d006a	-0.076660946
1	0x3f65b8bd	0.89735013
2	0xbf31578f	-0.6927423
3	0x3f1b8ebc	0.6076467
4	0x3e744e39	0.23857965
5	0xbeab22f7	-0.33425114
6	0x3e42d12a	0.19025102
7	0xbcf2eeb2	-0.029654834
8	0x3eec8d21	0.46201423
9	0xbf2a6457	-0.66559356
10	0x3e16f7f6	0.14743027
11	0xbf454751	-0.77061945
12	0x3ec3b8a2	0.382268
13	0xbf6a00ce	-0.9140748
14	0x3f71ac1c	0.94403243
15	0xbf79969d	-0.9749544
16	0xbeed3608	-0.46330285
17	0xc0127818	-2.28858
18	0xbfa67d25	-1.3006941
19	0x3bddbd93	0.006766984
20	0xbf2afb0c	-0.6678932
21	0xbe8cb019	-0.27478102
22	0xbef33ff0	-0.47509718
23	0xbcb1c816	-0.021701854
24	0xbf5e0fdb	-0.86742944
25	0xbebc6bed	-0.3680109
26	0xbf50b835	-0.8153108
27	0xbeace094	-0.3376509
28	0xbd55a67b	-0.05216072
29	0xbe94a1e0	-0.2902975
30	0x3e5948b3	0.21219139
31	0xbf1afc12	-0.6054088
32	0xbdb3144b	-0.08744105
33	0x3f55e552	0.8355304
34	0x3da63aab	0.08116659
35	0x3e7b83fe	0.2456207
36	0xbf855353	-1.0416054
37	0x3fa926ef	1.3215007
38	0xbfc0bbc0	-1.5057297
39	0xbf2e0a94	-0.6798489
40	0x3f910f75	1.1332842
41	0xbfe90fc4	-1.8207936
42	0xbeb79574	-0.3585621
43	0x3eef3226	0.46717948
44	0xbfd23b81	-1.6424409
45	0x3d802d38	0.06258625
46	0x3d7a27e8	0.061073214
47	0x3fe7a07c	1.8095851
48	0x3fbeabc8	1.4896173
49	0xbf5ab01d	-0.8542498
50	0x3f53b0b0	0.8269148
51	0x3fca45d4	1.580256
52	0xbeae600c	-0.34057653
53	0x3fef0e47	1.8676232
54	0x3f3fee19	0.74972683
55	0xbe02da54	-0.12778598
56	0x3f9f814a	1.2461331
57	0x3e1f58a4	0.15561157
58	0x3c93a404	0.018022545
59	0x3f9cd268	1.2251711
60	0x3d8e2736	0.06941073
61	0xbe8b57d6	-0.2721545
62	0x3f83ad15	1.0287195
63	0xbeaa3a09	-0.33247402
64	0x3ca64018	0.020294234
65	0xbf59cab5	-0.8507493
66	0x3f331100	0.69947815
67	0x3f15abd7	0.5846533
68	0xbf2e5991	-0.6810542
69	0xbf23bb05	-0.63957244
70	0x3ec3a0a8	0.38208508
71	0xbfbe154f	-1.4850253
72	0xbf91c44f	-1.1388034
73	0xbf148bef	-0.5802602
74	0xbf1a3def	-0.60250753
75	0xbf48edff	-0.78488153
76	0xbf152d85	-0.5827258
77	0xbf35de4f	-0.7104234
78	0xc009c8c8	-2.1528797
79	0xbf8a1e5e	-1.0790517
80	0xbf8d93bc	-1.106071
81	0x3f86da4d	1.053537
82	0x3e8501e8	0.25978017
83	0xbedb10d6	-0.42786282
84	0x4001b17f	2.0264585
85	0x3f154000	0.5830078
86	0x3fa725e2	1.3058436
87	0x3d8b5d1c	0.068048686
88	0x3c77a85b	0.015115823
89	0x3e7d809a	0.24756089
90	0x3f42babf	0.760662
91	0x3f603205	0.87576324
92	0x3f387853	0.720586
93	0x3fb2c305	1.3965765
94	0x3f4b1f51	0.7934466
95	0x3fc226ba	1.5168068
96	0x3f086a3d	0.53287107
97	0x3fdca2c0	1.7237167
98	0x3f87b61c	1.060245
99	0xbde2db7d	-0.1107702
100	0x3ec3f5bc	0.38273418
101	0x3e10eab2	0.14152029
102	0xbf32bb69	-0.69817215
103	0xbee9d428	-0.45669675
104	0xbfa9ecdb	-1.3275408
105	0x3ed7649f	0.42068955
106	0xbf21fa58	-0.6327262
107	0x3eb98614	0.36235106
108	0xbf6fd096	-0.9367765
109	0xbfce09ee	-1.609678
110	0xbf97e960	-1.1868095
111	0xbf52c556	-0.8233236
112	0xbeee51de	-0.46546835
113	0xbf000a21	-0.50015455
114	0xbf8bf7c3	-1.0934986
115	0xbf52b522	-0.82307637
116	0xbf63f178	-0.8904033
117	0x3f0ea26f	0.55716604
118	0x3f174948	0.59096193
119	0x3e9e4125	0.30909076
120	0x3e332172	0.17493227
121	0xbe9e059c	-0.30863655
122	0x3e55cc88	0.20878804
123	0x3e955c48	0.29171968
124	0x3eedf7de	0.4647817
125	0x3f3886ea	0.7208086
126	0x3ffe86ad	1.988485
127	0x402156d4	2.5209246
128	0x3fdf2b80	1.743515
129	0x3f58261a	0.8443314
130	0x3f39e565	0.72615653
131	0x3f35d047	0.7102093
132	0x3f572224	0.8403647
133	0x3ff01063	1.8755001
134	0x3fc2c391	1.5215932
135	0xbf098569	-0.5371919
136	0xbf0472ed	-0.5173786
137	0x3e02ebd0	0.12785268
138	0xbee0b5f2	-0.43888813
139	0xbe4e8616	-0.20168337
140	0xbee5c1da	-0.4487446
141	0x3e81713f	0.25281712
142	0xbf15b497	-0.58478683
143	0x3e968147	0.29395506
144	0x3f410fa1	0.7541447
145	0x3f72acb4	0.94794774
146	0x3f9d5926	1.2292831
147	0x3f7f7ffb	0.9980466
148	0x3fa58c2b	1.2933401
149	0x3ee06d4b	0.43833384
150	0x3f85282a	1.0402882
151	0x3f867145	1.0503317
152	0x3e32bc88	0.17454731
153	0xbfa74611	-1.3068258
154	0x3ea7bf2c	0.3276304
155	0xbefefb36	-0.49801034
156	0xbe10f6fb	-0.14156716
157	0x3efb01fe	0.49024957
158	0xbe060b5a	-0.13090268
159	0xbe9d19a3	-0.30683622
160	0x3e8864b4	0.2663933
161	0xbe2f9306	-0.17145929
162	0xbfc12899	-1.5090514
163	0xc004dac7	-2.075853
164	0xbfa7f54c	-1.3121734
165	0xbfdf8f7b	-1.7465662
166	0xbfbba3d2	-1.4659369
167	0xbfd2fb73	-1.6482986
168	0xbff36612	-1.9015524
169	0xbfbe830c	-1.4883742
170	0xbf91c523	-1.1388286
171	0x3fad3c8d	1.3534104
172	0x3f1a1ed1	0.6020327
173	0x3fbaf1ef	1.4605082
174	0x3fb6c389	1.4278423
175	0x3f6aa022	0.91650593
176	0x3fb6c3cf	1.4278506
177	0x3f693739	0.9109989
178	0x3e95bd5a	0.29246026
179	0x3ecc9e2d	0.3996443
180	0x3ed148ea	0.40875942
181	0x402b1357	2.6730554
182	0xbe49ba47	-0.19699965
183	0xbe3c4033	-0.18383865
184	0x3fb51607	1.4147347
185	0x3d52a3c3	0.051425707
186	0x3fc41fd6	1.5322216
187	0x40321386	2.7824416
188	0x3e441b34	0.19151002
189	0x3f4aecad	0.7926739
190	0xbe3c0616	-0.18361697
191	0x3eab1448	0.3341391
192	0x3e46dd9b	0.19420473
193	0xbf52a653	-0.8228504
194	0x3ec1cd2e	0.37851852
195	0x3f09e26a	0.53861105
196	0xbea02156	-0.31275433
197	0xbef170cf	-0.4715638
198	0xbf26f7fc	-0.65222144
199	0xbff9a06b	-1.9502081
200	0xbd25bbfe	-0.040462486
201	0x3eca0af8	0.39461493
202	0xbf8d0336	-1.1016605
203	0xbf4a3828	-0.7899194
204	0xbfb4a68a	-1.4113324
205	0xc02b940a	-2.6809106
206	0xbfdf5917	-1.7449063
207	0x3f0cae4a	0.54953444
208	0xbdef5ea4	-0.11687973
209	0xbf940388	-1.1563578
210	0xbefe5f32	-0.49682003
211	0x3f544177	0.8291239
212	0xbda389fe	-0.07985304
213	0x3eda0a74	0.425861
214	0x3f8ffcb1	1.124899
215	0xbf54442e	-0.82916534
216	0x3ffd077a	1.9767907
217	0x3f5e19f6	0.86758363
218	0x3f155be1	0.5834332
219	0xbe62a5cb	-0.22133557
220	0xbe363eb6	-0.1779736
221	0xbf955e8a	-1.1669476
222	0x3fa5b6f3	1.2946457
223	0x3f9cea7e	1.2259061
224	0x3eee16d9	0.46501806
225	0xbf015913	-0.5052654
226	0x3f270e4d	0.65256196
227	0x3f6f1953	0.93398017
228	0xbfcdd829	-1.6081592
229	0xbf8be4a2	-1.0929148
230	0xbf8673a9	-1.0504047
231	0x3f26d6e1	0.6517163
232	0xbe0a3785	-0.13497742
233	0x3e3c5c7c	0.18394655
234	0xbe4958f9	-0.19662847
235	0xbea0a967	-0.31379244
236	0x3f46db5f	0.77678484
237	0xbde53faf	-0.11193787
238	0x3f4f6b3f	0.8102302
239	0x3f6171aa	0.8806406
240	0xbe71e1ef	-0.23621343
241	0xbeb0d24e	-0.3453545
242	0x3f0affaf	0.5429639
243	0xbddeba13	-0.108753346
244	0xbe509bfb	-0.20372002
245	0xbf41561d	-0.75522023
246	0xbeb9201b	-0.36157307
247	0xbf24b870	-0.6434393
248	0xbf19b02c	-0.6003444
249	0xbdcc6e67	-0.09981995
250	0x3f5fe5d1	0.87460047
251	0xbd89378e	-0.06700049
252	0x3f256599	0.6460815
253	0xbe202bcc	-0.15641707
254	0x3f6c6f8e	0.9235772
255	0x3fb336fc	1.4001155

38 f4 [8]
0	0x40461eaa	3.0956216
1	0xbfa6d289	-1.3033
2	0xbf2ae2a4	-0.66752076
3	0xbf28f55a	-0.65999377
4	0xbeff9257	-0.49916336
5	0xbdc96f61	-0.09835697
6	0xbe4ba0c5	-0.19885547
7	0xbe7532f5	-0.2394522
